sim/models/forward.onnx (onnx, 57379 bytes, 13 tensors)

conv.0.weight f4 [4, 1, 5, 5]
000000 38 77 30 3b 79 1a 01 3c 39 01 ad 3c b1 f6 ee bb
       0.0026926529 0.007879847 0.021118747 -0.0072925915
000010 c5 d2 bd bc 26 81 f6 3b ea 36 9d 3b 7f 14 fa bb
       -0.023171792 0.00752272 0.004797806 -0.007631838
000020 b0 71 7d bc 07 f2 48 3b 81 e5 5e 3c 05 19 33 bc
       -0.015469 0.0030661838 0.013604523 -0.010931258
000030 f4 5b b4 bc 46 51 10 bc 71 2b 2d 3c b8 c5 92 bc
       -0.022016503 -0.00880844 0.010569439 -0.017916545
000040 74 59 03 bc 34 a9 06 3c 4a 1f 08 3c 49 21 29 ba
       -0.008016933 0.008219052 0.008308241 -0.0006451798
000050 b4 41 0a bc c5 44 2d 3a e8 6d c6 3b 89 d4 b5 bb
       -0.008438516 0.0006609674 0.0060555823 -0.005549018
000060 07 07 d6 3b fa 33 10 bb b4 ec 71 3c 0d 2c 58 3b
       0.0065315994 -0.0022003637 0.014765907 0.003298524
000070 52 3a 6c bc 99 57 d0 bc ea 84 fd bb 0b 80 ef 3b
       -0.0144182015 -0.025432395 -0.007736792 0.007308965
000080 8c 87 ea 3a 22 5d 2a 3c 41 0c ab bc 50 28 82 bc
       0.0017893179 0.010398181 -0.020879867 -0.015888363
000090 45 c2 7f 3c d2 a5 49 39 84 cc 2c 3c 2f 36 20 bc
       0.015610282 0.00019230627 0.010546807 -0.009778543
0000a0 48 37 5a bc 61 b9 90 3a 21 da 49 3b cb e1 b3 3b
       -0.013318844 0.0011041575 0.003080018 0.005489563
0000b0 29 5b 09 bb 4d 10 26 bc c6 ee 94 bc d8 af 10 3c
       -0.0020958877 -0.010135722 -0.018180262 0.008830987
0000c0 1f 04 ea 3b d6 47 4a 3b 72 c3 81 3b bf b1 0b bc
       0.0071416046 0.0030865571 0.0039600665 -0.008526265
0000d0 bb b6 07 3c 12 f5 1b 3c 80 47 5b bc 79 42 47 bc
       0.008283312 0.009518879 -0.013383746 -0.012161844
0000e0 9a 21 37 bc d0 98 8d 3c 73 9f a2 3b 8c ae f1 3a
       -0.011177445 0.01728478 0.0049628555 0.001843886
0000f0 99 a1 16 bc 5c 9d db bb d0 21 f1 bb d3 2c 06 bc
       -0.009193801 -0.0067021083 -0.007358767 -0.008189398
000100 5e 7d 6a bc 1d d8 c3 3b 0a 92 0f 3c f1 9b 3e 3c
       -0.014312116 0.0059766904 0.008762846 0.011633859
000110 ed f5 89 bc 54 a4 44 bc e0 12 28 bc 00 3c a3 3b
       -0.0168409 -0.0120020695 -0.010258406 0.004981518
000120 3e 9f cc 3b 30 15 fc bb a3 50 16 3c ce 7d 52 3a
       0.006244569 -0.0076929554 0.009174499 0.00080296106
000130 39 a2 36 bc c2 82 c5 bb 92 60 8d 3c d5 a6 20 ba
       -0.011147075 -0.0060275504 0.017257962 -0.00061283755
000140 91 a8 9f 3b f1 0d 58 39 98 a6 ff bb d1 bd 12 3c
       0.0048723896 0.00020604559 -0.007801842 0.008956389
000150 26 24 93 ba c1 10 1a bb 9f 57 c1 bb e5 89 00 bd
       -0.0011225983 -0.0023508521 -0.005900338 -0.031381506
000160 c3 d7 35 3a 3f f2 ed 3a 98 34 4d ba 58 84 9d 3c
       0.0006936753 0.001815386 -0.00078279665 0.019228145
000170 bf 31 35 ba 39 b3 ab 3b aa 79 2d 3c 25 b4 aa 39
       -0.0006912015 0.005239871 0.010588089 0.00032559145
000180 14 32 9e 3b 5b 8e 21 bc 9c e7 9b bc ea 5e da ba
       0.004827747 -0.0098606 -0.019031338 -0.0016660367

conv.0.bias f4 [4]
000000 4d 48 4e ba 65 b9 09 bc 63 f3 e6 3b 56 50 71 ba
       -0.000786905 -0.008406018 0.007048057 -0.00092053914

conv.4.weight f4 [4]
000000 b6 c6 09 3e b7 db 12 3e 8d fc fa 3d 86 af e3 3d
       0.13454708 0.14341627 0.122552015 0.11117463

conv.4.bias f4 [4]
000000 b3 f0 5b b9 2e 85 cc 3b f4 4c 36 3a d7 a9 0c 3b
       -0.00020975135 0.006241462 0.0006954216 0.0021463537

conv.4.running_mean f4 [4]
000000 df 84 b4 3e 95 ca 8c 3e c3 46 39 3e 85 92 d2 3e
       0.35257623 0.27498308 0.180934 0.4112741

conv.4.running_var f4 [4]
000000 01 5e 42 3f 67 78 68 3f c9 cb a4 3e cd 1d 38 3f
       0.7592469 0.9080872 0.32186726 0.7192047

conv.6.weight f4 [4, 4, 5, 5]
000000 24 cd b2 3d ae f9 0b 3d 4e 8b 7c 3c 35 18 30 3c
       0.08730534 0.03417366 0.015414072 0.010747959
000010 cf f9 57 3a 8f f9 12 3d 9a f9 6a 3b 6f 9e 79 3c
       0.00082388235 0.03588253 0.003585434 0.015235527
000020 46 0b 82 bb 1c f1 a8 3a 76 71 e0 3c f4 60 99 3c
       -0.003968629 0.0012889239 0.027397852 0.018722989
000030 ad f6 53 bb e7 79 10 bb cb c7 23 bb 99 43 f6 3c
       -0.0032343075 -0.0022045316 -0.0024990912 0.03006153
000040 d4 41 fb ba 60 ce bb ba a3 f5 b0 ba fb de 4e 3c
       -0.0019169399 -0.0014328472 -0.001350094 0.012626405
000050 15 a9 58 bb 29 77 12 bc ff e0 aa bb a5 a6 5b 3a
       -0.0033059765 -0.008939543 -0.00521481 0.0008379019
000060 51 b1 7e 39 c2 a2 4c ba 47 89 bd 3a 6e 8f 35 bb
       0.00024289383 -0.0007806235 0.0014460468 -0.00277039
000070 f4 42 bd bb 7e f1 25 3b 06 10 46 bb 93 8f e1 39
       -0.0057758037 0.0025320943 -0.0030221953 0.00043022315
000080 f6 8b db 3a 58 3f 06 bc c8 33 4e 39 1a f8 7e 3a
       0.0016750086 -0.008193813 0.00019664981 0.0009726301
000090 bf 03 aa 3b 79 3d b5 3b 93 2d 8e bb 4e ea 73 ba
       0.005188435 0.0055310098 -0.004338929 -0.00093046285
0000a0 a3 b6 c6 bb 78 ad 01 bb c0 fc 5b 3b 92 5f bd ba
       -0.0060642525 -0.0019787233 0.0033567399 -0.0014448038
0000b0 fc 15 2e 3b bf 1f 35 3b 92 47 08 39 ce 84 ea ba
       0.0026563397 0.002763733 0.00012996633 -0.0017892362
0000c0 ee af 54 bb eb c4 27 bb c0 63 45 bc 9b 86 fa bb
       -0.0032453495 -0.002559955 -0.012047708 -0.0076454408
0000d0 76 52 1e bc 60 fe ad 3a 4c f8 75 3c 4a c3 f9 bb
       -0.009663215 0.0013274662 0.015012812 -0.007622157
0000e0 dd 9c 9a bb 82 d9 c1 bb 9e 56 01 3c f1 5c c9 3b
       -0.0047184066 -0.0059158215 0.007894186 0.0061451127
0000f0 de 36 0e bc ae 4b 3f bc 09 89 b1 ba 3c 1f 9c 3a
       -0.008680074 -0.011675758 -0.0013544868 0.0011911164
000100 e1 58 43 3c 90 6e 33 bb 8f 8f 9a ba 4e 07 69 3b
       0.011923046 -0.0027379133 -0.0011792051 0.0035557332
000110 25 9b 12 3c b6 35 9c 3c 58 63 02 bb c5 0b 21 bc
       0.008948122 0.01906858 -0.001989564 -0.009829466
000120 50 88 59 bb 20 96 f5 3b bf 51 9d 3c 5a b5 28 bc
       -0.003319282 0.007494703 0.019204019 -0.010297144
000130 76 82 6d bb 0a 54 cc bb 0a ee 52 bc ff 6d 99 bb
       -0.003624109 -0.006235604 -0.012874136 -0.004682302
000140 f2 4c f4 bb 74 b4 27 bc 73 c6 93 bb e2 fb 73 ba
       -0.0074554617 -0.0102358945 -0.004509741 -0.0009307248
000150 0f 68 6e bb 70 c9 2b bc 66 33 b2 bb cd 8f d8 ba
       -0.0036377942 -0.010485038 -0.005438256 -0.0016522348
000160 56 bd a8 ba 73 19 96 ba de 4f 72 bb a9 f7 c4 3b
       -0.0012873809 -0.0011451676 -0.0036973874 0.0060109687
000170 a0 58 88 b8 05 72 dc bb bb bd e7 3a 52 46 62 bc
       -6.501493e-05 -0.0067274594 0.0017680445 -0.013810711
000180 82 3f 58 bb 48 d9 2d ba 88 c1 7b b9 07 2e 10 bb
       -0.0032996838 -0.00066318037 -0.00024009321 -0.002200009
000190 74 32 90 bc 62 fb ef bb f0 ea 4f bc fd 70 06 bc
       -0.017602183 -0.0073236683 -0.012690291 -0.008205649
0001a0 bc a6 1c bc 20 d7 0b bc b3 0e 20 bc 1f dd 4c bb
       -0.009561237 -0.0085351765 -0.00976913 -0.0031259728
0001b0 0c d7 ff bb be da 88 bc 7c d9 86 3a 6f de d3 bb
       -0.007807618 -0.016705867 0.0010288204 -0.006465725
0001c0 ca 84 2c bc fa 5f 40 bc 86 8c 62 ba a8 7e af ba
       -0.010529706 -0.011741633 -0.00086421554 -0.0013389187
0001d0 cb 0c 87 bb e8 0c f4 bb c8 5a ef ba 92 0e 54 b9
       -0.004121398 -0.0074478276 -0.0018261308 -0.00020223323
0001e0 af 63 31 bc 9c 07 ab bb d8 07 11 b8 c4 5c 0f bb
       -0.010826989 -0.005219413 -3.4578e-05 -0.002187536
0001f0 1e 26 eb bb a9 39 c5 3c 25 b5 d2 3b a7 4d 0d 3d
       -0.007176175 0.024075346 0.0064302855 0.034497883
000200 ed 3c 40 3d bc 46 f8 3c 57 ec a2 3c 9e c1 62 3b
       0.046933103 0.030307166 0.019888086 0.0034600268
000210 2d 3e 85 3b 50 a9 e6 3c 1b b2 12 3c 42 ad 6a 3c
       0.00406625 0.028156906 0.008953596 0.014323534
000220 6a a3 81 3c 6f d6 b6 ba fd c0 98 3c d6 ca 9a 3c
       0.015824992 -0.0013949404 0.018646711 0.018895548
000230 e0 ab a7 3a a6 32 ac 3b cf f9 52 39 c8 fe 23 3a
       0.0012792312 0.005255061 0.00020120222 0.0006255922
000240 a4 bd 10 3c 5d e0 e3 ba 5e 60 06 3c 5c d0 95 3b
       0.008834276 -0.0017385591 0.008201687 0.0045719575
000250 20 0c 62 3b 2e f0 2f 3c 6a fc 0a bc 60 69 28 bc
       0.003449209 0.010738416 -0.008483032 -0.01027903
000260 74 74 28 bc 43 a4 82 bc f1 94 8b bc a8 b4 34 bc
       -0.010281671 -0.015947467 -0.017038794 -0.0110294
000270 ed 44 52 bc da ad 58 bc 07 88 6f bc d2 77 9c bc
       -0.012833816 -0.013225043 -0.014619834 -0.019100104
000280 a9 77 57 bc 15 7f 5d bc d1 05 87 bc ed cc a4 bb
       -0.013151088 -0.013519068 -0.016482266 -0.005029312
000290 97 6b 95 bc bf 92 f7 bb 5a e4 12 bb ff ed 17 bc
       -0.01823978 -0.0075553353 -0.002241394 -0.009273051
0002a0 f4 37 5d bc 16 c5 8a bc 39 74 2c bc 0c a3 30 bc
       -0.01350211 -0.016939681 -0.0105257565 -0.010781061
0002b0 31 38 36 bc c0 7c 4a bc e8 0f 5a bc 4c 4f ca 3c
       -0.0111217955 -0.012358844 -0.013309456 0.024696015
0002c0 bf 25 bf 3c 4f 27 af 3c 8c e9 45 3c 96 de 09 3c
       0.023333428 0.021381048 0.012079608 0.008414885
0002d0 72 2b 75 3c 88 31 94 3c 84 77 98 3c 51 fc ac 3b
       0.014963971 0.018090025 0.018611677 0.005279102
0002e0 44 3d 58 39 89 d4 25 3c b6 df a0 3b dd 23 10 3c
       0.00020622188 0.010121473 0.004909481 0.008797613
0002f0 0b 16 11 3b 32 88 ac 3b 31 67 74 3c ef 87 8a 3b
       0.0022138383 0.005265259 0.014917181 0.0042276303
000300 fc 57 17 3c 24 a3 8d 3b d0 06 0c 3b 00 fa 4e 3c
       0.009237286 0.0043224264 0.0021366365 0.012632847
000310 2a 7a 32 39 76 47 98 3a 4a b7 09 3c f0 a8 0a ba
       0.00017020912 0.0011617977 0.008405516 -0.0005289456
000320 8e 21 87 bc 09 68 48 bc 0c 74 70 bc 47 25 47 bc
       -0.016495492 -0.012231835 -0.014676105 -0.012154884
000330 18 15 91 bb fb b2 fa bb 11 9d 64 bc 2a 5a f3 bb
       -0.0044275634 -0.0076507307 -0.013953463 -0.00742652
000340 b7 bc 23 bc de 2b ab bb ef ef 16 bc 16 20 0c bc
       -0.009993724 -0.0052237352 -0.009212478 -0.008552572
000350 fe 9b 19 bc a4 93 4c bc cd df 10 bc 2c 5c 8a 3a
       -0.00937557 -0.012486372 -0.008842421 0.0010556034
000360 ed 71 d5 bb 17 3a 58 bb e8 ef 64 bc 5a 9a 6e bb
       -0.006513825 -0.0032993609 -0.013973214 -0.0036407919
000370 19 cd 7d bb f8 16 8b bb bb c5 d9 bb b8 f3 97 38
       -0.0038726984 -0.0042446814 -0.0066458858 7.245637e-05
000380 d1 54 8d bb 07 01 bb 3c a6 fc ff 3c 1d cb 22 3d
       -0.0043130894 0.022827638 0.031248402 0.039744485
000390 72 18 dd 3c ce 8d 08 3c 99 b5 ed 3b aa fd 1d 3c
       0.026989195 0.00833459 0.007254314 0.009642998
0003a0 dd 9e cd 3c d4 4e d7 3c 73 e6 fc ba 25 bd 40 3c
       0.025100166 0.026282705 -0.0019294753 0.011763846
0003b0 5a 7d f5 3b 67 c3 6c 3c af bc 8c 3c c2 27 6f 3c
       0.0074917497 0.014450884 0.017179815 0.014596881
0003c0 dc dc a5 bb 96 83 03 bb 8e 49 04 ba 17 f4 b9 3b
       -0.005061729 -0.0020067445 -0.0005046361 0.0056748497
0003d0 54 af 24 3b ae f6 06 bb 2c c4 60 3b bf e2 1c 3c
       0.0025128918 -0.002059381 0.0034296615 0.009575545
0003e0 47 ec 97 3c 3f 8e 29 3c 84 da 3d bc d6 85 97 bc
       0.018545283 0.0103488555 -0.011587743 -0.018496435
0003f0 13 0f 8a bc ac 4d 8a bc b6 10 2b bc 53 5c 0d bc
       -0.016852891 -0.01688274 -0.010440996 -0.008627969

conv.6.bias f4 [4]
000000 26 b7 2e bb 71 5f fe 3b 3a ed 04 3c fa db 68 3b
       -0.0026659458 0.0077628423 0.0081132 0.0035531507

conv.11.weight f4 [32, 4, 5, 5]
000000 94 2f 2f 39 2e d4 39 b9 f2 2f 48 ba d1 ae ee b7
       0.00016707025 -0.00017722018 -0.0007636539 -2.8453216e-05
000010 d0 6c 46 ba 62 e7 d3 39 58 fe bf b7 b4 20 5e 39
       -0.0007569315 0.0004041745 -2.2887412e-05 0.00021183753
000020 e4 da 9e 39 d0 0f 82 37 9a f1 c0 b9 a1 12 12 39
       0.00030299195 1.5504571e-05 -0.000368011 0.00013930585
000030 b2 6d 09 b9 71 53 2f b9 a9 d2 81 39 98 62 86 b9
       -0.00013106203 -0.00016720385 0.0002476175 -0.0002563193
000040 1d db 7c 39 98 92 c2 b7 0a ba f5 38 03 4b e2 b9
       0.00024114219 -2.3194865e-05 0.00011717163 -0.00043161967
000050 54 7e f5 39 c6 d8 82 ba 0c a1 7d 39 00 9b dd b7
       0.00046824163 -0.0009982816 0.00024187955 -2.641743e-05
000060 2c ff 37 39 a2 8f cd 39 3a e6 16 b9 26 f1 c0 38
       0.00017547299 0.00039207662 -0.00014390881 9.200191e-05
000070 0a 83 0f ba 9c 44 66 b8 b0 91 71 39 12 7f 46 39
       -0.00054745434 -5.490017e-05 0.00023037824 0.00018930089
000080 e6 3d 4e b9 11 dd 96 b9 28 95 7c 3a 06 79 a7 39
       -0.0001966875 -0.00028774937 0.0009635263 0.00031942892
000090 60 ab b2 39 b4 0f c9 38 71 a4 01 ba f6 59 06 3a
       0.0003407849 9.587352e-05 -0.0004945463 0.00051250996
0000a0 c0 ce 4f b9 2a 9c ca 39 5e 2a 91 b8 bc 4c 82 39
       -0.00019818079 0.00038644794 -6.92203e-05 0.00024852704
0000b0 b8 bc b9 b9 c1 d0 be b9 ed 91 ca 39 8a f5 b5 39
       -0.00035426556 -0.00036395158 0.00038637166 0.0003470595
0000c0 5b 60 28 39 75 5d d0 39 25 9a 36 39 c8 3d 1d b8
       0.00016057624 0.00039742482 0.00017414296 -3.7489255e-05
0000d0 a6 01 a4 b8 f9 3a 41 39 0e 74 7d 3a e3 7a a9 39
       -7.8204364e-05 0.00018427883 0.00096684776 0.0003232575
0000e0 6e bb e2 38 74 85 3f 39 f2 05 0c 39 8a 41 3e 3a
       0.00010811431 0.00018264895 0.00013353655 0.0007257691
0000f0 00 46 bd 39 e9 6b c9 b8 1e 28 fb 39 ca 31 d3 38
       0.00036101043 -9.604527e-05 0.0004790434 0.00010070538
000100 b8 48 d1 b9 04 52 c5 b9 75 22 8b b9 8a 8c 8f 39
       -0.00039917766 -0.00037635874 -0.00026537818 0.00027379795
000110 6e 71 46 ba 69 d0 64 39 36 92 72 39 9c e7 9e b9
       -0.0007570003 0.00021821413 0.00023133386 -0.0003030867
000120 40 cb 17 b7 e9 39 1d b9 8e 2e a2 39 25 8b 98 39
       -9.047624e-06 -0.0001499426 0.00030933734 0.0002909537
000130 56 45 5c b9 bc 91 02 b9 08 af 27 38 ce 45 80 b9
       -0.00021006665 -0.00012452056 3.9978913e-05 -0.0002446607
000140 60 40 f7 37 26 2a 82 39 46 19 c9 39 32 9a 03 b9
       2.9474671e-05 0.00024826935 0.00038356538 -0.00012550576
000150 18 01 05 3a 4e f3 89 39 52 e5 a6 38 b6 2c 83 39
       0.00050737103 0.00026311952 7.958211e-05 0.0002501958
000160 b4 4a 36 b9 c6 e9 2b 3a 48 fd 16 38 80 67 de b6
       -0.00017384702 0.0006557967 3.5998673e-05 -6.6281646e-06
000170 5f 60 27 3a 82 c1 1d b8 ed 38 bb b9 50 a0 31 38
       0.0006384905 -3.7611935e-05 -0.00035709832 4.234939e-05
000180 66 70 1e 3a f6 94 b9 39 62 c2 a2 39 7a b7 d4 b9
       0.00060439704 0.00035396934 0.00031043874 -0.00040572492
000190 93 16 0e bc 62 7d 02 bc 9f 40 f1 ba a4 6e 70 ba
       -0.008672374 -0.007964464 -0.0018406099 -0.000917176
0001a0 7c ad fc b7 f0 69 b8 bb 28 6c c0 b9 3c 50 b4 b9
       -3.0121526e-05 -0.005627863 -0.00036701676 -0.00034392055
0001b0 be 5c b3 ba c0 40 17 3a be f8 7c ba 80 f7 c1 b9
       -0.0013684256 0.00057698414 -0.00096501026 -0.0003699623
0001c0 49 a5 17 bb 29 5f 8c ba 48 45 bb ba 20 30 c6 ba
       -0.002313929 -0.0010709512 -0.0014287615 -0.0015120544
0001d0 e0 b7 c2 3a da a5 69 ba 12 4a 9a b9 49 97 0a bb
       0.0014855824 -0.00089129584 -0.00029428356 -0.0021147302
0001e0 64 ac e3 38 8b 69 f3 b9 ab 19 e9 ba b6 c8 2c ba
       0.00010856314 -0.00046427207 -0.0017784139 -0.00065911876
0001f0 24 c5 ca 39 d4 87 20 3c fc f4 db 3b af 8e 26 3b
       0.00038675324 0.009798009 0.006712554 0.0025414636
000200 b3 e6 e1 3a 7e 66 dc bb 6a f2 c3 3b 0e 7a 97 3b
       0.0017234891 -0.006726085 0.0059798257 0.0046227043
000210 ae d7 b2 3a 3e bd 3a 3a 36 c5 b7 ba 25 bc 85 3b
       0.00136446 0.0007123536 -0.0014020565 0.0040812665
000220 f7 a3 8c 3b f7 b9 7d 3b 68 bf 6a 39 8f 5d 75 ba
       0.004292007 0.003871558 0.00022387283 -0.00093599496
000230 df cb bf 3b 10 88 44 3b c9 7f 73 3b d9 43 9f 3a
       0.0058531608 0.0029988326 0.0037155023 0.0012150957
000240 2e e7 a5 ba 65 f2 9d ba 93 34 52 ba 69 8c de b9
       -0.0012657398 -0.0012050389 -0.00080186984 -0.00042447753
000250 20 13 fb 39 ed 48 fd ba f6 07 26 3c eb cc 9a 3b
       0.000478887 -0.0019324102 0.010133734 0.004724135
000260 da 10 b1 3b 21 5e f2 3a 1c 7d f3 ba 2b 43 f5 3b
       0.00540362 0.0018491187 -0.0018576714 0.0074848137
000270 f2 3a 2f 3b 93 64 1e 3b fe 28 d7 3a 7a 4e 3a bb
       0.0026738015 0.0024168834 0.0016415415 -0.0028428123
000280 43 3a 86 3b ff a5 98 3a de 8c 57 3b b4 13 20 3b
       0.004096301 0.001164615 0.003289036 0.0024425806
000290 d6 29 1d bb 9e b7 b9 3b 36 82 01 3b 5e 6f 8f 3b
       -0.0023981235 0.005667641 0.001976145 0.0043772897
0002a0 b6 df 97 3b 04 30 0f 39 b6 0c 0c 39 34 7f 70 ba
       0.0046348227 0.0001365543 0.00013356176 -0.0009174228
0002b0 e6 dc d0 3a 18 b1 4a 38 1e 22 94 3a ad fb 98 3b
       0.0015934973 4.8325484e-05 0.0011301672 0.004668674
0002c0 0a bb 33 3b aa ce 1f 3b 2d e2 93 ba af ca 38 bc
       0.0027424716 0.0024384656 -0.0011282616 -0.011278792
0002d0 c8 8a a6 39 68 2a 1e 3a df 88 4b 3a e9 5b c2 ba
       0.00031765387 0.00060335407 0.0007764231 -0.0014828417
0002e0 00 c8 c1 bb 19 f2 33 3a b8 49 91 3a 28 18 b9 39
       -0.0059137344 0.00068643835 0.0011084592 0.00035303948
0002f0 63 71 b9 ba 1d 3b 03 bb a2 57 a2 3a 0a 8d 7e 3a
       -0.0014148172 -0.0020024248 0.0012385736 0.00097103475
000300 64 e6 c2 3a ce c3 80 ba 3d 4f 19 bb a7 f2 87 ba
       0.0014869687 -0.0009823979 -0.0023393177 -0.0010371999
000310 56 6a 17 3a ab fc a8 b8 55 cc ae 39 10 60 da ba
       0.0005776038 -8.057927e-05 0.00033340105 -0.0016660709
000320 b3 1c 44 b9 66 7e 9b 39 f0 41 39 39 8c 38 14 3a
       -0.00018702708 0.00029658078 0.00017667538 0.0005654178
000330 70 f8 94 39 00 83 e2 b9 b4 14 20 ba bb a4 a3 39
       0.0002841386 -0.00043203682 -0.00061066006 0.00031212516
000340 90 0d 2e b9 f0 d5 3d b9 aa 09 1e 3a ae e5 1d ba
       -0.00016598986 -0.00018104143 0.0006028662 -0.00060232996
000350 e1 a9 4a b9 aa 50 22 ba e9 85 cf b9 e2 c1 c0 39
       -0.00019327506 -0.00061918295 -0.00039581888 0.00036765548
000360 e7 87 e4 39 b4 b7 16 b9 46 bc 73 39 78 b9 2f 3a
       0.00043588804 -0.0001437355 0.00023244423 0.0006703357
000370 5f 69 97 39 da 31 9d 39 b1 cb d3 39 e9 ad bc b9
       0.00028879472 0.00029982516 0.00040396818 -0.00035987727
000380 1f 4b 2f 3a 92 6d 0d ba 21 6a e7 39 70 ef 9c b6
       0.0006686914 -0.00053950504 0.00044138826 -4.6770365e-06
000390 d0 9f 60 b7 82 8c 21 39 a3 c1 fd b9 04 fb 86 39
       -1.338865e-05 0.000154065 -0.0004840019 0.00025745493
0003a0 35 2e d6 39 88 c1 bb 38 97 b3 dc 38 de 30 5c b9
       0.00040851688 8.952903e-05 0.00010523869 -0.0002099904
0003b0 a2 bc 33 3a 8e 3e ad b9 54 6f 64 b9 64 d3 64 ba
       0.00068564166 -0.00033043738 -0.00021785247 -0.00087290094
0003c0 1a 28 a7 39 00 64 fb b8 56 f2 fe 39 de 22 0a 3a
       0.000318826 -0.00011987239 0.0004862721 0.0005269478
0003d0 ba b2 db b9 7e 98 77 b9 f0 cf 7a 39 03 b5 09 ba
       -0.00041904097 -0.00023612563 0.0002391932 -0.0005253108
0003e0 3e f0 fd b8 7a 7d 35 b9 f6 4f 1c ba 11 53 94 39
       -0.00012108729 -0.00017308249 -0.0005962843 0.0002829065
0003f0 65 37 0b 3a c0 43 fa b7 ac d5 8c b9 d1 4d 99 39
       0.00053106836 -2.9833871e-05 -0.0002686208 0.00029240412

conv.11.bias f4 [32]
000000 06 6d 9e 39 f2 6a ba 3a 4c af 06 3a 4d 75 70 3b
       0.00030217337 0.0014222546 0.00051378156 0.003669101
000010 de 0b 5e 39 97 32 41 3c 20 26 9f 3b c6 20 a4 b8
       0.0002117599 0.011791847 0.00485684 -7.826234e-05
000020 61 9f d3 38 12 44 4a 3c 60 b4 e1 3b fe ea 97 3b
       0.00010090951 0.012345331 0.0068879575 0.0046361675
000030 3b 17 0e 3c 95 99 c7 39 f9 e9 34 39 9e 3c 26 38
       0.008672531 0.00038070665 0.000172533 3.963394e-05
000040 cf d7 b0 3a bc 20 53 3b 83 4c a9 39 86 d6 c9 39
       0.001349205 0.0032215556 0.00032291198 0.0003849754
000050 3a 04 55 39 36 d8 58 b9 8d 29 de 3a fd c6 31 3c
       0.00020314837 -0.0002067991 0.0016949639 0.010850665
000060 0e 23 fc b9 23 77 c4 b7 ae a7 ae 39 68 ba d8 3b
       -0.00048091303 -2.3420498e-05 0.00033312797 0.006614018
000070 1e 8f 1c b7 ec 11 ae b9 37 3b 6f 3b a2 34 a8 3b
       -9.331647e-06 -0.0003320122 0.00365038 0.0051332274

lin.0.weight f4 [16, 32]
000000 6e 50 8a 3d ec e6 8e bc 11 f1 b1 a7 a3 d1 7d 3c
       0.06753622 -0.017444097 -4.9388734e-15 0.015491876
000010 27 70 4e b2 1c b9 85 a2 89 21 be bb ce ef 06 b6
       -1.2016279e-08 -3.6245714e-18 -0.0058023375 -2.010714e-06
000020 59 76 02 3d ab c5 75 22 12 66 6a 3c 54 78 0f bc
       0.031851146 3.3308336e-18 0.014306562 -0.008756716
000030 19 fe c1 3c 9f ad 9c 3a 29 a9 38 b1 ba 0c 67 bc
       0.023680734 0.0011953599 -2.687168e-09 -0.014102155
000040 08 db 25 3c 24 fb 37 3d a9 31 83 bb f0 fc dd 23
       0.010123022 0.04491724 -0.0040037227 2.4067991e-17
000050 c3 b4 1c a4 4a 82 0a bd df 0b 2f 3c a1 33 91 a3
       -3.398022e-17 -0.03381566 0.010683983 -1.5742797e-17
000060 c5 1c e6 3a 40 82 ef b9 70 0b a7 35 7d 20 d5 23
       0.0017556181 -0.00045682676 1.2445798e-06 2.3107266e-17
000070 19 b5 23 a3 ee be 61 24 4b 2a 1f 34 fb 20 a6 a2
       -8.874597e-18 4.895082e-17 1.4823415e-07 -4.502931e-18
000080 ec f2 31 bd 48 3b 52 be 41 15 04 bb 81 2f 23 be
       -0.04344456 -0.20530427 -0.002015427 -0.1593609
000090 f7 67 14 39 9c 76 f1 be 8c c9 9b be e1 d0 33 b9
       0.0001415311 -0.47160804 -0.30427206 -0.00017148584
0000a0 7f 0d 67 ba 52 71 f5 be 4f 11 a3 be 66 98 d1 be
       -0.0008813962 -0.4793802 -0.31849143 -0.40936583
0000b0 78 49 c6 be 94 97 1b ba ac 05 d5 ba a0 3a 12 bb
       -0.38727927 -0.00059353677 -0.0016252301 -0.0022312775
0000c0 12 08 63 be 2b 15 4f be 57 28 0a 3a 11 a7 19 3a
       -0.22171047 -0.20222919 0.00052702933 0.00058613817
0000d0 e2 e8 43 3a c5 f1 fe 3b f2 c7 96 be 9d 1d e6 be
       0.0007473362 0.007780286 -0.2944942 -0.44944468
0000e0 41 94 e3 3c a2 01 f1 3a 73 38 15 bb 6f 46 00 bf
       0.027780654 0.0018387327 -0.0022769242 -0.50107473
0000f0 66 e1 6c 38 ce 66 50 b8 db 78 5b be c9 62 91 be
       5.6476703e-05 -4.968681e-05 -0.21432821 -0.2839568
000100 13 d3 09 bd 77 f8 70 be 40 a9 9b bb 07 8b 9d be
       -0.03364856 -0.23532282 -0.004750401 -0.30770132
000110 36 6f aa 3a 4c e2 e7 be cf 93 ba be c8 3c 2e 39
       0.0013003114 -0.45289838 -0.36440894 0.00016616576
000120 73 25 81 3a 13 ac 00 bf cc d4 f6 be 83 49 e3 be
       0.000985308 -0.50262564 -0.48209226 -0.44392022
000130 f9 69 ed be 6c b4 a7 ba 80 28 51 bb ba 19 68 3a
       -0.46369913 -0.0012794859 -0.003191501 0.0008853931
000140 39 2d 80 be af 2b c0 be 14 84 38 3b 1f c4 b5 39
       -0.25034502 -0.37533328 0.0028154897 0.00034669132
000150 02 c7 a4 3a dd 8a 5a 3b 38 cd 98 be 77 8f e0 be
       0.0012571516 0.003334693 -0.2984407 -0.43859455
000160 c9 6b f1 3b 35 21 05 3b 76 5d 70 bb a5 b0 f0 be
       0.0073675853 0.0020313982 -0.00366768 -0.4700977
000170 6e f0 b6 38 31 dd 54 ba ae e0 99 be df c2 ce be
       8.72322e-05 -0.00081201183 -0.3005423 -0.4038305
000180 d4 ea 45 bc c8 6c 5e 3e bf 46 0d bb 2f ea 65 3d
       -0.012079913 0.21721184 -0.002155706 0.056131538
000190 40 52 6c ba 09 e5 8e 3e 15 e2 96 3e 01 93 5a b9
       -0.0009014942 0.27909115 0.29469362 -0.00020844863
0001a0 28 98 30 3a 75 6b 93 3e 5f 50 5c 3d 20 80 cb 3e
       0.000673654 0.2879292 0.053787585 0.3974619
0001b0 81 8b 39 3e bc 7c 70 ba 0b e0 87 ba ee 38 53 ba
       0.18119623 -0.00091738603 -0.0010366453 -0.00080574944
0001c0 2c 2a 7b 3e 3d 7f df bc 67 f6 10 bb 63 ee 30 ba
       0.24527806 -0.027282352 -0.0022119523 -0.00067493896
0001d0 e6 f5 ea b8 90 61 3a bb cf 7f 77 3e 27 b8 85 3e
       -0.00011203792 -0.00284395 0.24169849 0.2611706
0001e0 fa 63 43 ba 1e 73 27 3b 74 58 32 36 2f c6 b3 3e
       -0.00074535573 0.0025550793 2.6575553e-06 0.3511214
0001f0 bb d6 58 b9 34 eb 51 b9 0b 00 5f 3d 5c c1 31 3d
       -0.00020679359 -0.00020019413 0.0544434 0.043397292
000200 0e c2 88 bb c8 67 35 3e 67 bb 21 bb e5 de ca 3c
       -0.0041735237 0.1771537 -0.002467835 0.024764488
000210 45 73 5f ba fd 68 76 3e 35 83 59 3e ff 92 9e b9
       -0.00085239514 0.24063487 0.21241458 -0.0003024563
000220 b6 d3 13 ba f4 5c 61 3e 91 95 4e 3d a8 6a ad 3e
       -0.00056391524 0.22008115 0.050435606 0.33870435
000230 f0 ed e5 3d 92 e9 9a ba ac 52 2f ba d8 2a f3 b9
       0.112270236 -0.0011818877 -0.0006688039 -0.00046380493
000240 03 2b 4a 3e 16 f3 6e bc 21 00 3e bb 4c 74 09 bb
       0.1974297 -0.014584323 -0.0028991776 -0.002097386
000250 5e 98 a0 b9 ae 31 b0 ba 25 26 61 3e 36 92 5c 3e
       -0.000306311 -0.001344254 0.21987207 0.2154015
000260 aa 6f 80 bb e2 dc 9a ba 38 28 af 38 f5 e3 a6 3e
       -0.0039195614 -0.0011815096 8.3521416e-05 0.32595792
000270 08 af 81 b9 bb 70 7a b9 28 d2 f4 3c 9d f5 c5 3c
       -0.00024735206 -0.00023883853 0.029885367 0.02416497
000280 b6 e3 b6 aa 78 14 02 28 4b c0 02 a2 ed df e0 b2
       -3.24877e-13 7.220888e-15 -1.7720084e-18 -2.6178862e-08
000290 93 e2 3a 23 3f ce 67 23 a3 9d 57 a6 e2 c0 ec a2
       1.0131059e-17 1.2566209e-17 -7.4806747e-16 -6.417215e-18
0002a0 94 05 3d 23 4a b5 a8 22 d8 3a 5a 34 e4 aa 3a a4
       1.0246892e-17 4.572844e-18 2.032424e-07 -4.047707e-17
0002b0 54 f5 1a 23 0f 46 ea a3 15 69 ba 21 74 2d 17 a3
       8.400307e-18 -2.5400002e-17 1.2631665e-18 -8.1953515e-18
0002c0 36 1f e3 a3 a8 49 8e a2 b4 81 cc a1 23 be be a3
       -2.4624608e-17 -3.8567164e-18 -1.385791e-18 -2.0680367e-17
0002d0 b0 0e 81 22 47 ea 95 25 22 54 8e 23 c1 0b 33 23
       3.498107e-18 2.6006132e-16 1.5431302e-17 9.7060984e-18
0002e0 28 1c 88 a8 bd c1 1d a3 c3 51 1c a2 1c f6 d3 22
       -1.5111244e-14 -8.552013e-18 -2.1185227e-18 5.7452243e-18
0002f0 95 25 7e 23 dc ba 2d a4 db 8b 0a 24 b2 a8 50 a2
       1.3777326e-17 -3.767167e-17 3.0042442e-17 -2.8278563e-18
000300 b0 ff 60 bd ac 62 38 3e 0b b9 28 ba ff ee fb 3d
       -0.054931343 0.1800639 -0.0006436265 0.12301444
000310 85 2e 60 b9 2a 64 78 3e 65 55 17 3e 42 80 7c 39
       -0.00021379635 0.2425696 0.14778669 0.00024080373
000320 89 ff 06 3d 71 43 3e 3e 58 c3 1c 3e 91 7c 81 3e
       0.03295854 0.18580414 0.15308893 0.2529035
000330 a4 75 c2 3c 40 30 7a b9 e2 41 e4 b9 e4 9e 96 3b
       0.023737736 -0.00023859832 -0.00043536635 0.004596578
000340 35 e9 26 3e f4 b9 88 bd 5f 92 31 bb de 2b 60 b8
       0.16299899 -0.06676093 -0.00270953 -5.3446616e-05
000350 3c 49 49 b8 82 53 4d 3d a0 af 0c 3e 5c c4 1c 3e
       -4.799034e-05 0.050128467 0.1373887 0.1530928
000360 8c c8 f5 3d 73 40 07 3d 64 a8 69 37 a3 3c 80 3e
       0.12001142 0.033020448 1.3927089e-05 0.25046262
000370 8d 02 1a b9 7c 6d 4d b9 8f eb ee 3c d0 09 81 3c
       -0.00014687535 -0.0001959111 0.029165057 0.01575175
000380 c4 4c 4e 3d c0 de 21 3e 1b 9a 48 ba 5c 54 83 3d
       0.05036618 0.15807629 -0.0007652358 0.06412575
000390 07 67 4f ba 07 7b 79 3e fd 50 71 3e 08 c8 13 3c
       -0.00079117756 0.24363337 0.23566051 0.009019859
0003a0 f7 3d 8f 3d 25 be 71 3e d7 29 2c 3d d4 6b 9f 3e
       0.06994241 0.2360769 0.04203209 0.31136954
0003b0 12 9a c8 3d 01 97 45 bb b9 38 0e ba 4c ec d4 3c
       0.097950116 -0.003014982 -0.00054253225 0.025991581
0003c0 bb 13 15 3e 3c a2 42 3d 8f aa 7f 3c ac ab ef 38
       0.14558308 0.047518 0.015604629 0.000114283845
0003d0 6f 98 70 38 cf cd 00 3e d5 44 72 3e 3a 71 6f 3e
       5.7362424e-05 0.1257851 0.2365907 0.23383036
0003e0 9e e9 bb 3d 49 66 86 3d ce 18 45 bb cc f4 a7 3e
       0.09175418 0.06562478 -0.00300746 0.32803953
0003f0 7a d6 d8 38 7b b5 b0 b9 cf 5b 38 3d 6b 9d ea 3c
       0.00010339632 -0.0003370455 0.04500943 0.028639516

lin.0.bias f4 [16]
000000 6d 50 84 bd e7 eb d0 3d 98 4a c8 3d fa 06 5e 3d
       -0.064606525 0.10201245 0.09779853 0.054205872
000010 52 7d 25 3d 32 a4 60 b7 f1 67 12 3e 66 2e ff 3d
       0.040402718 -1.338967e-05 0.14297463 0.12460022
000020 50 2a b3 a9 3f 06 05 3e 92 68 4f 3d c9 4c 5b 3d
       -7.956537e-14 0.12990664 0.050636835 0.053540025
000030 79 4b 03 3d 4e 56 9f b3 14 9b 55 ba 31 8f 80 bd
       0.0320544 -7.419713e-08 -0.00081484136 -0.062773116

lin.2.weight f4 [1, 16]
000000 6c be 1f 3d 9b f1 3e bf 38 ef 86 bf 3f 51 e7 3e
       0.03899996 -0.7458741 -1.0541754 0.45179173
000010 71 45 c9 3e 31 c6 87 25 ce 04 80 3e a1 22 c2 3e
       0.39310792 2.3553067e-16 0.25003666 0.37917045
000020 49 21 1b 2b ef fa 4d bf 30 22 ba 3e 35 c3 f1 3e
       5.5113254e-13 -0.8046102 0.36354208 0.47219244
000030 0b 46 90 3e 14 f9 5c 2f 66 f9 9f 33 69 a5 a1 bf
       0.2817844 2.0097374e-10 7.44938e-08 -1.2628604
