sim/models/forward.pt (torch, 21944 bytes, 13 tensors)

conv.0.weight f4 [4, 1, 5, 5]
00000000: 4f06 eebb 65c4 95bc 04e4 acbc 2ba5 823c
00000010: c78d cd3c 34a3 203c 4dd4 a0bb 389f 5dbc
00000020: 8c4c 1e3b 0fdd 073c a4ae 9f3a b402 853b
00000030: 93ec adbc deb1 d73a 183c 993b e63d b8bb
00000040: a748 2a3c 09b5 94bc 8876 24bc 97db 5a3c
00000050: d585 ba3b 4293 0e3c 07d1 d9bb 9f0f 1fbd
00000060: ea5b 693b f644 133c 6581 89ba 1da1 cdbc
00000070: 407c fd3b 78eb 6d3c 2996 f63b 2627 8c3c
00000080: 47c1 eebc 2e9c cebb 8f57 993c 3c41 3dbc
00000090: 7160 733c f873 4cbc dfc7 35bc 54db 863c
000000a0: 5a65 69bb 7ed6 3a3c 40f3 243b 561e adbc
000000b0: 0817 133c e40a bbba 2619 f63b c974 d63b
000000c0: d540 8fbc 3a04 cfbb 3c0a 973c 910a bdbc
000000d0: 01ec a7bc e110 fabc 8db5 a8bb 40ad b93c
000000e0: 03eb d0bb d320 043b 4cad c7bc 98dd b33b
000000f0: b651 623c 799e 0f3c be81 a8bc 315d a7bc
00000100: a309 853c 146a 1c3b ff99 abbb 3121 34bc
00000110: b6a5 1a3a f75a 253c 8e99 863a 3ef9 763b
00000120: 64bb 01bd 1472 0a3c 7af7 8e3c dd70 9f3c
00000130: 6836 b4bc 318f 89bc 2e69 583c d72a 5ebc
00000140: e3d4 643c 20d8 20bc 71ac 74bc 54c7 313c
00000150: 9969 6abc 3200 293c d867 063a 0219 8abc
00000160: 3e96 6d3c 7b14 54bc b895 293c 8438 7ebb
00000170: 0df2 fabb e31f 0d3c c110 8dba 3a61 2a3c
00000180: c72d 083c dce3 0bbd 221c db3c 960f adbb
-0.0072639356 -0.018282125 -0.02110482 0.015947899 0.025092019 0.009804536 -0.0049081207 -0.01352673
0.0024154512 0.008292451 0.0012182784 0.00405916 -0.021230971 0.0016456207 0.004676353 -0.0056226132
0.010393298 -0.01815273 -0.010038026 0.013358018 0.0056922236 0.008702101 -0.0066472325 -0.038833257
0.0035607764 0.00898861 -0.0010490833 -0.025101239 0.007735759 0.014521472 0.0075252247 0.017108511
-0.029144896 -0.006305239 0.018718509 -0.011551198 0.014854536 -0.012478821 -0.011095016 0.016462006
-0.0035613389 0.011403678 0.0025169402 -0.02113263 0.008977659 -0.0014270213 0.007510322 0.0065446836
-0.017486969 -0.0063176425 0.018437497 -0.023076328 -0.020498278 -0.030525627 -0.0051485957 0.02266562
-0.006375672 0.0020161166 -0.024374627 0.0054890625 0.013813427 0.00876581 -0.020569678 -0.02043018
0.016239947 0.0023866938 -0.0052368636 -0.010994242 0.00058993266 0.0100924885 0.0010269152 0.003768518
-0.03167285 0.00845005 0.01745199 0.019462997 -0.0219986 -0.016791912 0.013208671 -0.0135600185
0.013966772 -0.009817153 -0.014933691 0.010850746 -0.014307403 0.010314988 0.0005127168 -0.016857628
0.014501153 -0.012944336 0.010350637 -0.003879101 -0.0076582492 0.008613559 -0.0010762439 0.010399157
0.008311695 -0.03415285 0.026746813 -0.005281399

conv.0.bias f4 [4]
00000000: f545 06ba 96d3 40b9 0639 1738 0b84 e7b8
-0.0005122119 -0.00018389369 3.6054313e-05 -0.00011039533

conv.4.weight f4 [4]
00000000: db7d 2b3e a854 263e a589 303e f9b2 2a3e
0.16747229 0.16243231 0.17240007 0.16669835

conv.4.bias f4 [4]
00000000: d979 babb 8df6 ecbb 8617 efba b8e0 31bc
-0.005690795 -0.0072315396 -0.0018241263 -0.0108568

conv.4.running_mean f4 [4]
00000000: 10db 693f 0ea4 9b3f 67af 303f 5164 5a3f
0.9134989 1.215944 0.6901764 0.8530932

conv.4.running_var f4 [4]
00000000: 8bbd 3b40 da99 4f40 d2c8 0b40 b0ff 0d40
2.9334438 3.2437654 2.184132 2.218731

conv.6.weight f4 [4, 4, 5, 5]
00000000: 46f2 123d 10d5 b3bb cc2f 493b 9552 e239
00000010: e1d6 81bb 257d ee3c d343 baba bfda 163a
00000020: 56db 6ebb b309 a8bb 6817 b23c 862e 963b
00000030: 837c 3c3b 3545 faba 5015 cc38 e344 e03b
00000040: 7c4d 5c3c 6fd6 873b 9ee3 e73b 2a1d 3ebb
00000050: 40c6 eb3a 31fa af3c 97e8 b7bb 7fed 9a3c
00000060: c86c f6ba 6323 8e3c b6b3 063c b25d 9a3c
00000070: faf4 03bb b430 dabb bd1b 903c 26a3 0c3c
00000080: bfc0 9f3c 5318 86bb 0b95 fe3a 3dae 0b3d
00000090: a38e e83b c608 553c a4b9 ab3a 7469 d9b9
000000a0: 86ef 063c 613e d43b 12a3 803c ffb3 0c3b
000000b0: 0de1 9cba 3d91 a53b 0e1f 253c b395 4fbb
000000c0: 7d76 e03c c615 cc3b 17c2 2bbc bf5f 20bc
000000d0: 3db9 163d e1a0 3abc 1a9d eebb 8940 283c
000000e0: 290b 25bc abcc 6b3c 30f5 ba38 f5f9 9e3a
000000f0: afc0 fc3b 84e4 33bb 4a2a 833b 8647 1fba
00000100: 7da5 bfbb bb01 683c 686e d63a 59de 3abc
00000110: fc0a 30bb fe6d bf3b cdfd 033a e5d8 94bb
00000120: 8d97 8f3a c02b b1bb d421 693c 9cec 3e3c
00000130: 9442 983b 855a 0c3d 067e 563c d4d5 93ba
00000140: 978e 073d 2163 9aba 7618 9e3c 103f 003d
00000150: 9e16 6abb 9495 123d efd5 ee3b 73ad 323c
00000160: d2ab df3c b01b 0e3c aabb 0f3d d949 103b
00000170: 19fd 95ba ebf6 7c3c ad3b 393c 1347 a73c
00000180: 3d85 f3bb cc5d 053c f0bf 723c 3ec6 483c
00000190: 7577 fdba 6cb5 1ebc 862e 573a d3da 0339
000001a0: 6510 973d 8eaa 40bc 32c0 38bb ad63 543b
000001b0: 6c90 14bc c0d1 313d 3c3e b3bb 1c63 103a
000001c0: 4c8e 3e3c a064 d6bb a9a6 d83c 9693 cfba
000001d0: 1574 adbb b18d 863b 8891 353b de5c 873c
000001e0: 5807 303c 98f6 cb3a c3b4 603b a1ce 4b3b
000001f0: 9a4f 963c d50a 353b 2ce2 813b f42d 8db9
00000200: 5343 053d 2b85 373d 50da fbba 328f b93b
00000210: 6473 1e3c 8c74 063c c86d 103d b646 8dba
00000220: 1017 453a ec7f de3b f46b feb9 a3ef f63c
00000230: d346 313b 7393 e5bb 7cc5 b83b 8c85 b13a
00000240: cb02 673c 1d5d 7e3b 71d8 eb3b bda2 16bb
00000250: 4cae 34ba 1a06 203c 178a 653c ecc2 40ba
00000260: 806f ecb8 095e a43a 1267 3abc 2650 b63b
00000270: 4cd9 c13a f8cb e539 be63 8dbc c4c6 0abb
00000280: 3a02 15bc 91a1 01bc 7019 5b3a 985b acbc
00000290: 0503 bc3a 0dc8 14bc d0b3 20ba ca4d 0c3b
000002a0: 57d1 80bc fe62 e03a bea9 f53b 3603 ff3b
000002b0: 8b1d 0a3c b924 5bbc 8a57 50bc 4b3d 4c3c
000002c0: 2397 643b 8367 223c 36a5 3abc 646c b7bb
000002d0: 78fc 4a3c 4746 8abc cd62 883b f68e a3bb
000002e0: d92d 0ebc 23fa 633b fee0 82bb 7c44 243b
000002f0: 5e37 d8bb 4ae6 5fba 7c0f 0cbb ba13 a7bb
00000300: ba15 88bb 892d 52bc 7a08 f13b e445 813b
00000310: 644f 063c e429 29bb f1f6 adbc f35a bfba
00000320: 6b12 c7bc 4c41 d4bb 2161 eebb 677d 30bb
00000330: e6d5 3c3d 58ad 58bc 7533 35bb d762 5cbc
00000340: efac 13bc aca2 a43c f912 23bc 6cc9 babb
00000350: e16f 04bc d49f 3fbb 6a27 b23c 06fe 28bc
00000360: 5dae 67bb 042c 9bbb 075c 31bc 0f65 433b
00000370: a5d8 4bbb ef6c abbb 0989 2abc 1d06 20bc
00000380: abdd f43c 368b 8c3a e304 883c 14d8 d93b
00000390: 83f9 ad3b bc1f 063d 55eb e2bb bac9 323b
000003a0: d0c9 1a3c c471 9e3b e4a6 f93c f080 40b9
000003b0: e7e2 95ba b200 b6bb e595 15bc 5683 143c
000003c0: 72a4 c1bb 93d6 10bc 153e c13b 9b29 02bc
000003d0: 438a 8cbb a8d5 0237 610f aa3b 1557 3bbc
000003e0: d48f 753a ec1a 7039 ab24 053b 84d5 be3b
000003f0: cc23 97bc 764c ccbc ae3a 96bc 3791 8ebc
0.03587558 -0.0054880455 0.0030698655 0.00043167608 -0.003962383 0.029112408 -0.0014210887 0.00057546416
-0.0036446652 -0.0051281094 0.021739677 0.0045831827 0.0028760738 -0.0019094112 9.731448e-05 0.0068441494
0.013446208 0.0041454355 0.0070766946 -0.0029009082 0.001798816 0.021481605 -0.0056124437 0.018912075
-0.001880073 0.017350858 0.008221557 0.018843506 -0.002013503 -0.006658638 0.017591352 0.0085838195
0.019501088 -0.004092255 0.001942308 0.034101713 0.0070970817 0.01300258 0.001310159 -0.00041468034
0.008235818 0.0064771627 0.015702758 0.002146959 -0.0011968926 0.005052714 0.010078205 -0.003167492
0.02740025 0.0062281815 -0.010483286 -0.009788453 0.03679775 -0.011390896 -0.0072819116 0.010269293
-0.010073462 0.014392058 8.914841e-05 0.0012128936 0.0077133994 -0.0027449438 0.004002844 -0.00060760265
-0.005848585 0.014160569 0.0016359808 -0.011405551 -0.0026862016 0.0058419695 0.00050350727 -0.0045424574
0.00109552 -0.0054068267 0.014229257 0.011653092 0.0046466086 0.034266014 0.01309157 -0.0011278936
0.03309497 -0.001177881 0.019298773 0.03131014 -0.0035719047 0.03578718 0.0072886865 0.010905611
0.02730361 0.008673593 0.03509108 0.0022016673 -0.0011443227 0.015439729 0.011305732 0.020419633
-0.0074316547 0.008140039 0.014816269 0.012254296 -0.0019337969 -0.009686809 0.00082085317 0.00012574652
0.07376174 -0.011759413 -0.002819073 0.0032408044 -0.009067636 0.043412924 -0.0054700654 0.00055079325
0.011630606 -0.006542757 0.026446657 -0.0015836831 -0.005293379 0.0041062464 0.0027705152 0.016523775
0.010743938 0.0015561162 0.003428743 0.0031098502 0.018348504 0.0027624865 0.0039637294 -0.00026927853
0.03253491 0.044804733 -0.0019214842 0.005662822 0.009671066 0.008206498 0.035260946 -0.001077852
0.000751839 0.006790152 -0.00048527087 0.030143565 0.0027050271 -0.0070061027 0.0056387763 0.0013543828
0.014099787 0.0038812824 0.0071974327 -0.0022985183 -0.00068924273 0.00976708 0.014009974 -0.00073532644
-0.000112741254 0.0012540232 -0.011377113 0.0055637537 0.0014789491 0.00043830252 -0.017259475 -0.0021175602
-0.009094769 -0.007912056 0.00083579775 -0.021039769 0.0014344162 -0.009080899 -0.000613031 0.002140867
-0.015724821 0.0017119346 0.0074970415 0.007782365 0.008429895 -0.013375455 -0.012716183 0.012465785
0.0034880124 0.009912374 -0.011391928 -0.005597638 0.012389295 -0.016879214 0.0041621686 -0.0049914075
-0.008677923 0.0034786544 -0.0039941063 0.0025065234 -0.006598397 -0.00085410906 -0.0021371534 -0.005098787
-0.0041529806 -0.012828239 0.007355747 0.003945099 0.008197639 -0.0025812322 -0.021235915 -0.0014599249
-0.024300775 -0.0064775106 -0.0072747623 -0.0026930214 0.046102427 -0.013224922 -0.002764908 -0.0134513
-0.009013399 0.0200971 -0.009953254 -0.005700281 -0.008083315 -0.0029239552 0.02174731 -0.01031447
-0.0035351731 -0.0047354717 -0.010825164 0.0029814874 -0.0031104472 -0.0052314918 -0.010408648 -0.0097670825
0.029890856 0.001072264 0.016603893 0.006648073 0.005309285 0.032745108 -0.0069250264 0.0027280883
0.00944753 0.0048353393 0.030475087 -0.0001835858 -0.001143542 -0.005554282 -0.009129976 0.009064516
-0.005909496 -0.008840221 0.0058972933 -0.00794449 -0.004288943 7.7983495e-06 0.0051898216 -0.011434336
0.00093674404 0.00022898213 0.0020316045 0.005823793 -0.018449686 -0.024938803 -0.018338528 -0.017403228

conv.6.bias f4 [4]
00000000: f4fc dfbc bfdf b83a 5b7d f53a d1c7 2abb
-0.027342297 0.0014104767 0.0018729375 -0.0026059041

conv.11.weight f4 [32, 4, 5, 5]
00000000: 2f19 dbbb 17d6 8abb e41a e03b 15b3 c8ba
00000010: 41ed 27bc 9044 e9bb 84f5 6fbb a33e 863a
00000020: a590 42bc b2d0 fdbb 4cc1 d6bb 9a34 0bbb
00000030: 4090 17ba 996a dcbb 8a4a 19bb d686 d63a
00000040: 5281 d5b9 d02c 83b7 0287 16bb 425c 25bb
00000050: 23de 5cbb 8ff3 17bb 7101 6dbb 836f cf3a
00000060: 2e22 eb3a 8238 6aba e46c 0ebc 264d 87bc
00000070: 5a17 caba 58cb bf3c 70fc 38b9 847a 24ba
00000080: b090 53bb b5bd 54bb fdc0 653a d2c2 63bb
00000090: 8828 a9bb 3eb3 0e3a b343 f0bb 9814 813b
000000a0: af51 c43a 5de5 833b 04df 1a3b e74a 29bc
000000b0: c940 21bc e043 973b 3cf1 8aba dcde 993b
000000c0: 3b77 3ebc 859c 91bc f0d8 03ba 4f41 06bc
000000d0: 14aa 22bc 1e95 97bb 9672 bc3c 8de0 07bc
000000e0: 11f9 d4bb 05d9 57bc 9641 63ba 523d e33b
000000f0: 11ed e4bb 11c5 10bc 0af2 33ba 846c 99bb
00000100: 7943 823b c4dc 12bc b511 14bc 3e66 953a
00000110: 4a44 d2bb 5b0e 3dbb ab06 a93a 6177 633a
00000120: 26d1 d53a bb43 62bb f322 2bbc 24a9 c2b9
00000130: d0f2 88bc a436 e33a 7fc4 d93b 2bda dc3a
00000140: 18ce ae39 457d 4bbb a51c 0b3c 88bb 333b
00000150: 0ca8 bf39 d709 42bb 14dd 7fbb 6a19 d03b
00000160: cc41 7439 5173 3d3a 9098 91bb eda6 e3ba
00000170: 4e9e 9b3a 581f 443a 4787 7c3b 1bf3 9cbb
00000180: 2a32 f0ba da66 b43b bc15 423b d972 7f3b
00000190: 4600 a6b9 64c7 69b7 df10 45b9 5b6b 16ba
000001a0: 2e13 82b9 e4ac 2cba 8c69 73b9 ca51 b9b9
000001b0: 11f5 2e39 782f 6c39 c270 e3b9 8cb1 8638
000001c0: d63c d639 8c5c 66b8 bb3d 76b9 ee6c 8d38
000001d0: bea4 b2b9 4223 44b9 6cbc a4b9 d86b abb9
000001e0: c4b0 7c38 4723 cfb9 2467 b1b9 c6c7 95b8
000001f0: 9857 a4b9 6952 1039 6b8f 9ab8 fdad 10b9
00000200: 40b6 edb8 44f0 2039 4210 5fb9 1820 1a38
00000210: 408a 33b5 80f1 12ba 5ea1 d4b9 c10f 67b8
00000220: e66b 13ba 4c9a cbb9 cb8e 33ba 6e9a e339
00000230: 86f9 47b9 dced 8839 4c9c 1ab9 1ae0 42b8
00000240: 726d 34b9 13a9 d439 c2de 83b9 fed1 4db9
00000250: e4c6 1a39 809b 0bba 0f52 3e38 ce05 96b9
00000260: 7ed4 edb8 5fe7 0839 b3a9 f138 81b3 3cb9
00000270: cb8b 0b3a 7d6c 5eb9 ea57 a7b9 9c1f 0fb9
00000280: 26e9 a6b9 1cd8 9fb9 dcc9 70b9 4a3a 87b9
00000290: ee0f 52b9 ceae 82b9 fee3 ccb9 b6c5 a5b9
000002a0: 94c3 ebb9 78db 81b7 70ce eb37 5872 36b9
000002b0: 4077 afb8 9348 84b9 b8a0 d2b9 bedc 81b9
000002c0: 943b 2fb8 a233 0db9 03e2 21ba 6017 65b9
000002d0: 26b1 5cb9 62f3 b439 1223 5fb9 3831 5c37
000002e0: dcb1 89b7 6058 55b8 039c a0b9 100d 2fb7
000002f0: ac40 8938 89c1 5cb9 d275 2fba 462d a639
00000300: 02ae e5b8 4163 3939 fcf6 5bb9 a82f 88b8
00000310: e0db 8938 31c6 153a decb d139 f9d2 0bb9
00000320: 4977 9138 5aac 9eb9 7c2b 3fb9 e379 0aba
00000330: 9c2f 5b39 ee4d 2339 083e 3db9 6062 efb7
00000340: 972e b5b8 c0da 3ab9 d340 67b8 0efe 0239
00000350: 2c6c 2739 13e5 21ba 0c9b 6ab9 ba00 1d39
00000360: 46ca beb9 922e 2c3a bfc6 90b8 5363 13b9
00000370: c0b1 3739 9259 ce39 490c b9b9 5b8d acb9
00000380: 3fe0 3039 e500 e6b9 164e 73b9 ceac 74b9
00000390: 2028 c139 e943 f538 c861 86b9 eb5c 5239
000003a0: 1a79 12ba 7cf1 f739 2829 13b9 293d b1b8
000003b0: 16b0 9b38 c3fd f4b8 eeee 3d39 458e 1cba
000003c0: 31d7 3f39 2b92 9c39 5e25 7139 4f94 5239
000003d0: 7c92 1ab8 7214 d8b8 fe13 9739 3189 85b9
000003e0: e050 d9b7 89fb 18b9 348c 7538 1f14 0c3a
000003f0: 803d 16b9 82b4 4bb9 61f0 9539 c6de beb8
-0.0066863517 -0.0042369473 0.006839143 -0.001531216 -0.010249437 -0.007118769 -0.0036614845 0.0010242056
-0.011875306 -0.0077458257 -0.0065538045 -0.002124107 -0.0005781688 -0.0067265746 -0.0023390376 0.0016367089
-0.00040722877 -1.5637284e-05 -0.0022968655 -0.0025231992 -0.003370174 -0.0023185944 -0.003616419 0.001582608
0.0017939263 -0.0008934812 -0.008692954 -0.01651628 -0.0015418336 0.023412392 -0.00017641648 -0.000627436
-0.0032282285 -0.0032461707 0.0008764414 -0.0034753573 -0.0051623024 0.0005443579 -0.007332289 0.0039392225
0.0014977957 0.004025145 0.0023631463 -0.0103327995 -0.009842106 0.0046162456 -0.0010600458 0.0046957564
-0.011625106 -0.01777483 -0.00050295796 -0.008194282 -0.009928245 -0.0046259305 0.023003858 -0.008293283
-0.0064994176 -0.0131743 -0.0008669136 0.0069348 -0.0069862683 -0.008836047 -0.0006864375 -0.0046821255
0.0039753285 -0.008963767 -0.009037425 0.0011398268 -0.006416832 -0.0028847668 0.0012895664 0.00086771516
0.0016312941 -0.0034525234 -0.010445344 -0.00037128583 -0.016717345 0.001733501 0.0066457386 0.0016849687
0.00033341418 -0.0031050008 0.008490716 0.002742501 0.00036555564 -0.0029607916 -0.0039041685 0.006350686
0.00023294165 0.00072269613 -0.0044432357 -0.0017368473 0.001187274 0.0007481477 0.003853278 -0.0047897226
-0.0018325497 0.005505425 0.0029615005 0.0038978367 -0.0003166219 -1.39343065e-05 -0.00018793669 -0.0005738043
-0.00024809822 -0.0006587042 -0.00023213605 -0.00035346887 0.00016685227 0.00022524397 -0.00043380825 6.4226886e-05
0.00040862587 -5.4922464e-05 -0.00023483385 6.743694e-05 -0.00034073548 -0.00018705151 -0.00031420903 -0.00032696011
6.0246108e-05 -0.000395084 -0.00033836917 -7.142084e-05 -0.0003134578 0.0001376361 -7.370006e-05 -0.00013797726
-0.00011334987 0.00015348295 -0.00021272994 3.674635e-05 -6.6883877e-07 -0.00056054443 -0.0004055602 -5.5089364e-05
-0.0005623683 -0.00038834137 -0.0006849586 0.00043411873 -0.00019071074 0.0002611716 -0.0001474481 -4.6461915e-05
-0.00017206909 0.0004056176 -0.00025152235 -0.00019628552 0.00014760677 -0.00053256005 4.5375953e-05 -0.00028614554
-0.000113406204 0.00013056163 0.000115233845 -0.00017995948 0.000532326 -0.00021211985 -0.00031918223 -0.00013649318
-0.00031835696 -0.00030487857 -0.00022963382 -0.00025792635 -0.00020033095 -0.00024925772 -0.0003907978 -0.0003161856
-0.0004496841 -1.5480196e-05 2.8110313e-05 -0.00017399469 -8.366862e-05 -0.00025231074 -0.00040174066 -0.00024769263
-4.1778738e-05 -0.00013466043 -0.0006175341 -0.0002184785 -0.00021046828 0.0003451361 -0.00021280002 1.31244815e-05
-1.6414495e-05 -5.0865463e-05 -0.00030633816 -1.0433854e-05 6.544715e-05 -0.00021052932 -0.0006693277 0.0003169572
-0.000109519824 0.0001767995 -0.00020977476 -6.493862e-05 6.573624e-05 0.0005713432 0.0004001548 -0.00013334666
6.9363574e-05 -0.0003026452 -0.00018231379 -0.0005282445 0.00020903203 0.00015573922 -0.00018047553 -2.853683e-05
-8.6394306e-05 -0.00017819833 -5.5135064e-05 0.00012492409 0.00015966658 -0.00061757973 -0.00022373738 0.00014972957
-0.0003639033 0.0006568219 -6.9034744e-05 -0.00014056014 0.00017518457 0.00039358117 -0.00035295103 -0.00032911715
0.00016868206 -0.00043869685 -0.00023203375 -0.00023334028 0.00036841724 0.000116951596 -0.00025631324 0.00020061775
-0.00055875035 0.0004729143 -0.00014034344 -8.45141e-05 7.4237745e-05 -0.000116820935 0.00018113453 -0.00059721275
0.00018295344 0.00029863542 0.00022997471 0.0002008241 -3.6852885e-05 -0.00010303491 0.0002881586 -0.00025469952
-2.5906076e-05 -0.00014589554 5.8543126e-05 0.00053435744 -0.00014328025 -0.00019426833 0.0002859859 -9.101401e-05

conv.11.bias f4 [32]
00000000: 6745 1b3c 2e57 b63a aa2b 6a39 c40d 6c3b
00000010: 7e4c 37ba 85a5 023b c2c3 a7bb 024d b7b9
00000020: fb52 0639 6a1d 80b9 fe7f 183b aec7 fcba
00000030: bea6 ac39 4c54 b2b8 0d6f b839 cc3d 9f3c
00000040: 59ec 85ba 28c1 bc35 0dd3 35ba a767 02bb
00000050: 39c5 3f3c 1bfd 46b9 6041 a8bb b3f1 2aba
00000060: 29a0 c43c 38c3 ac3a e2d0 bbba b0eb 7eba
00000070: 9ad8 85b9 c52e 2bba 0a40 79bb cc64 1039
0.009476996 0.001391148 0.00022332245 0.0036018947 -0.0006992294 0.0019935083 -0.0051197717 -0.00034961855
0.00012810148 -0.00024435978 0.0023269649 -0.0019285583 0.0003293063 -8.503403e-05 0.00035177954 0.019438647
-0.0010217532 1.4063307e-06 -0.0006936051 -0.0019898207 0.011704736 -0.0001897704 -0.0051347464 -0.00065210013
0.024002152 0.0013180738 -0.001432922 -0.0009724451 -0.00025529118 -0.00065301015 -0.0038032555 0.0001377046

lin.0.weight f4 [16, 32]
00000000: db0a 8aaf 69be fdb9 1763 88b9 f651 e0b5
00000010: edeb 86bc 4028 85bb 521e b9b7 3d32 13af
00000020: 253e 242c 444d 72bb d0a4 f43a c5ae 1abd
00000030: 89c9 a6bb 2f37 deb9 7e87 8fbc cfe5 05ac
00000040: a00b e2bb 7130 07b8 2da5 3a3d 076b 9bb9
00000050: 887f eb39 a126 89b9 be82 083d 31b1 663b
00000060: 9954 ca3b 66ef 46bc 7211 803d 860f a83b
00000070: f28c a1ba 7f2b 223d 30a5 2c3d 4857 c7ad
00000080: e0da 2b2d 81e0 6e3b b050 2e38 e0b4 d5ac
00000090: 2a5a a0b4 af0d 8e39 9916 f32e 5651 d42e
000000a0: a41b 6736 da94 63ba 18b2 5635 6ca0 5bba
000000b0: 4d2e 11b8 f021 9f34 2e64 95ba f67f e7ae
000000c0: 265f f1b7 1e28 463a ac21 2337 1f8a e435
000000d0: 89a6 422e ee58 5630 fae7 45ba e8f1 5cbb
000000e0: d923 deae 41af 1231 2c2e 7e38 3101 01b0
000000f0: 4822 8839 d4f3 9e3a d026 c13b 0f5e 51ae
00000100: 8a76 ef2d 6308 c4b5 b60f 4e3a 3d33 bb2f
00000110: d9ea fbb7 a675 f9b9 fa63 d0b1 794b 38ad
00000120: 3817 86b9 94dc 79ba a6ff 7630 ff50 823c
00000130: 65d3 3db6 d954 2f3c 4069 00ba f0e0 fc36
00000140: 36bb 053b e2de 1eb7 e2c5 32b8 4762 1ab4
00000150: f16a 8d2c a50b c5b2 d773 0cbb 4c72 06ba
00000160: f802 be31 4601 4639 0e28 2d3a e541 8834
00000170: f3ba 953b 1d57 9cba 1314 37bb 6384 4db1
00000180: 8030 6d3e fb2f 313d 4689 32bd e2f7 d9be
00000190: 46e3 47bd 9594 c8bc 1d2f e6be 67bd 5abb
000001a0: 8194 2e3d cf58 9c3d b172 dfbc f157 04be
000001b0: 962c 86bc aaaa b73b 76fc bc3c 60de 04bf
000001c0: 8267 2dbd 4cba d0bd 19ca 0abd 3c0e 453d
000001d0: b3be 913e edf4 88bb 7623 49bd 513e b7bb
000001e0: 8305 9b3e 32f5 99bd bd27 003d ffaa a4bd
000001f0: 51f9 223d dc15 733d 3cdc 943d aada 16bc
00000200: 6b11 36a9 7945 e73c 8721 133b a790 bcb8
00000210: 2288 b737 99dd 66b7 64e5 ef2d d8e3 e02d
00000220: 0d13 6632 01e3 45bc 826f 203b 7fe0 cbb3
00000230: f85a 5d3b 410e 73b9 8a94 86b6 622a db2e
00000240: 0714 6439 2c8a e5ba ce90 e5b6 fd0a 883a
00000250: 9a56 5ab2 389c 0132 c877 643b 3dca 293d
00000260: 1ec4 5daf a8f4 1530 14f8 6339 20fd f62f
00000270: 6486 893c c400 48bc a218 2cbb 94cb 9bac
00000280: da02 923e c5e5 a83d 5b99 66bb 37d8 d2be
00000290: 5c32 9cbd a923 77bd 1887 cfbe 1c6d 3d3c
000002a0: 160d 31bc dec5 5bbd 8385 6a3d 04dc 00be
000002b0: b8ba 763c 6fe7 443d 2365 18bd f229 cfbe
000002c0: 299e 2cbd f12a 5bbc 0a99 fcbc e96b 1cbc
000002d0: 6a21 a43e cd00 573c 05c4 aa3c 666e f1bd
000002e0: 8b5e d53e 3bf7 91bd f653 6e3c ddc9 d5bd
000002f0: 8740 2abc d4f2 4ebd 6d76 423d 79b6 cc3b
00000300: 7806 95be 90c7 033d a003 efbc d780 083f
00000310: 00da 1d3d 5829 6cbc ebcc ff3e fcac 4139
00000320: f224 75ba 9a8e 17bd 42c9 863c 21e4 0e3e
00000330: 1be4 c23c 6a45 30bc d247 f2bc d16b 143f
00000340: 02b4 6cbc 99b8 3d3d 97f8 843d 4d01 6c3c
00000350: 13da a4be f410 9b3a 29f6 a03d 27cb f13d
00000360: 0519 08bf 8a6d bc3d 39ad 993c c112 7d3d
00000370: 9ea2 b6bb e61f a03c 9357 253d e8c0 1c38
00000380: 8823 333e ba10 843d ceaa a5bb 00e7 bdbe
00000390: 00c5 98bb 9aa3 9ebb eb7a abbe ee67 27b9
000003a0: 5885 f0bb eb67 763c ec17 903a 6f9a f0bd
000003b0: 773a 20bc a2fb 163b 5ffd 28bd 4be0 ddbe
000003c0: eb42 8a3c 3b68 33ba 6674 bdbc 8ee6 e33b
000003d0: f328 503e 5260 ce39 589b 17bd 6016 0abd
000003e0: 491f a03e 0763 f4bc b112 83bc 6528 27bd
000003f0: d300 fd3b f8a5 9a3b da6b ca3c 36ae 3eb9
-2.5109767e-10 -0.00048397787 -0.0002601377 -1.6713154e-06 -0.01646992 -0.004063636 -2.2067838e-05 -1.338742e-10
2.3340299e-12 -0.0036972323 0.0018664841 -0.03776433 -0.005089943 -0.00042384255 -0.017520662 -1.9028006e-12
-0.0068983585 -3.2231623e-05 0.04556768 -0.00029643645 0.0004491771 -0.00026159457 0.03332781 0.003520083
0.0061746356 -0.012142038 0.062533274 0.0051288037 -0.001232533 0.039592262 0.042149723 -2.2662441e-11
9.768825e-12 0.0036449733 4.155998e-05 -6.0739053e-12 -2.9867925e-07 0.00027094546 1.1054375e-10 9.655092e-11
3.4437771e-06 -0.00086815434 7.9980373e-07 -0.0008378092 -3.4613815e-05 2.964075e-07 -0.0011397654 -1.0527394e-10
-2.8773746e-05 0.00075590785 9.723397e-06 1.7027522e-06 4.4258406e-11 7.7979123e-10 -0.0007549521 -0.0033713523
-1.0101759e-10 2.1345417e-09 6.060132e-05 -4.693162e-10 0.00025965483 0.001212711 0.0058945194 -4.760464e-11
2.7223796e-11 -1.4605579e-06 0.00078606175 3.405151e-10 -3.0030891e-05 -0.00047580636 -6.0649628e-09 -1.0475947e-11
-0.0002557577 -0.0009531465 8.9857577e-10 0.015907763 -2.8286242e-06 0.010701382 -0.0004898496 7.5363714e-06
0.0020405776 -9.469428e-06 -4.26228e-05 -1.4378121e-07 4.019334e-12 -2.2939114e-08 -0.002143135 -0.0005128726
5.5300653e-09 0.00018883226 0.0006605395 2.537992e-07 0.004569405 -0.0011927817 -0.002793555 -2.990668e-09
0.23163033 0.04325865 -0.043587945 -0.42571932 -0.04880073 -0.024484912 -0.4495782 -0.0033377053
0.042622093 0.076341264 -0.027276369 -0.12924172 -0.016378682 0.0056050615 0.023069602 -0.5190182
-0.04233504 -0.10191783 -0.03388414 0.048109278 0.28465804 -0.004179588 -0.049106084 -0.0055921455
0.30277643 -0.075174704 0.031287897 -0.080404274 0.039788548 0.05934702 0.07268569 -0.009207407
-4.0427226e-14 0.02823137 0.0022450404 -8.991482e-05 2.1878692e-05 -1.3760663e-05 2.7273024e-11 2.5567035e-11
1.3392094e-08 -0.012078048 0.0024480526 -9.49376e-08 0.0033776145 -0.00023179596 -4.0108034e-06 9.966496e-11
0.00021751235 -0.0017512492 -6.8415893e-06 0.0010379251 -1.2708961e-08 7.544308e-09 0.0034861434 0.041452635
-2.0169508e-10 5.455356e-10 0.00021740823 4.4926995e-10 0.016787715 -0.012207214 -0.00262598 -4.4279667e-12
0.285178 0.0824695 -0.0035186622 -0.41180584 -0.07626793 -0.060336743 -0.40532756 0.011561658
-0.010806343 -0.053655498 0.057256233 -0.1258393 0.015059166 0.048072275 -0.037205826 -0.4046169
-0.04214302 -0.013376937 -0.030834693 -0.009547212 0.32056743 0.0131227495 0.020845423 -0.11788635
0.41673693 -0.071272336 0.014546385 -0.10438893 -0.010391361 -0.050524548 0.04747622 0.0062473384
-0.29106498 0.03217274 -0.029176533 0.53321594 0.03853798 -0.014414154 0.49961028 0.00018470356
-0.00093515136 -0.03700123 0.01645339 0.13954212 0.02379041 -0.010758737 -0.029575262 0.57977015
-0.014447214 0.046318624 0.06492727 0.014404607 -0.32197627 0.0011830614 0.07859451 0.11806326
-0.53163177 0.092005804 0.018759357 0.061785463 -0.0055735847 0.01954646 0.04036672 3.7372956e-05
0.17494023 0.06448503 -0.005055762 -0.37090302 -0.004662156 -0.00484128 -0.33492216 -0.00015965078
-0.0073401146 0.015039424 0.0010993457 -0.11748206 -0.009779564 0.0023038168 -0.04125726 -0.43335184
0.016877612 -0.00068438397 -0.023126792 0.0069549745 0.20328121 0.00039363146 -0.03701338 -0.033712745
0.3127387 -0.029832376 -0.016000124 -0.040810008 0.0077210455 0.004719492 0.02470963 -0.0001818471

lin.0.bias f4 [16]
00000000: 0898 7dbd 5c5e 0bbb ac06 95bc 91ab 113e
00000010: 3692 1dbd 4691 e43d 36ea f63c fc40 e73d
00000020: eca8 0b3e f44a f13c e1a1 d9bb 54fd 033e
00000030: 316b 32bc 9e54 0b3d 4f6f 263d c1d2 223e
-0.061912566 -0.002126596 -0.018191658 0.14225604 -0.038469516 0.11160521 0.030140977 0.11291692
0.13638657 0.029454686 -0.006641612 0.12889606 -0.010889814 0.034016244 0.040633496 0.15900709

lin.2.weight f4 [1, 16]
00000000: 77c7 613d b2f2 afbb d83b 9dbc df71 c2be
00000010: ace3 1dbd 473c e0be eb02 e23e f5eb 93be
00000020: 4a92 743e ddd2 283f b324 1bbb 97c3 873e
00000030: 37da d3ba d58d 413f 20be 2a3f 75c1 313e
0.055121865 -0.0053695077 -0.019193575 -0.37977502 -0.038547203 -0.43795988 0.4414285 -0.28890958
0.2388393 0.6594675 -0.0023672997 0.2651641 -0.0016163056 0.75607044 0.6669636 0.17358954
