sim/models/left.onnx (onnx, 57385 bytes, 13 tensors)

conv.0.weight f4 [4, 1, 5, 5]
00000000: 76f4 79ba bb29 bb3b 1d17 bf3b b4e6 793b
00000010: 067b 923b 3f1e 41bc 8cc1 bfb9 8302 fe3a
00000020: f542 b8bb 6e4a 5aba dffc 463b bd48 51bc
00000030: f1a2 3bbc 4f42 733b b861 00bb 51de 4a3c
00000040: b014 9a3b 11e5 20bc 7728 1bbc c1e8 36ba
00000050: 2479 203a e042 fbbb 3a3f 723a bd3f 65bc
00000060: 213d 0e3c fa28 e4bb 70fe 313b fbbe 2e3c
00000070: ec25 9c3b 1a47 d3ba 38ac 2ebc 98ef aebc
00000080: ae2c 863b 0c5c 8a3b b57d 7abb 16b8 123c
00000090: 12b7 c2bc c410 223c 71bd 41bc e546 213c
000000a0: 0d7c 0e3b 7b3a 75bb 0241 a43c e25a 8abb
000000b0: 378e 9bbc 32d1 a23c bc82 c53a 3dfe e9bc
000000c0: 1259 913c 5e34 71bb b695 b1bc 390b cb3a
000000d0: 7413 ef3b c255 c138 11e7 d03b af15 99bb
000000e0: 5e17 953b 3782 3bbc 3469 453c f5e1 edbb
000000f0: 605e 6cbc e711 123c 2c34 a4bc ad89 61bb
00000100: 03ff 38bc 3a3a cb3b cb49 053c 3d39 423c
00000110: ea23 763b 4ad2 debb f4f5 443b 6109 cbbb
00000120: 6bb0 403b 0399 00bc 9e6f 633b df43 733b
00000130: 0ed3 4bbb 198c c13c 0196 e7bc 0794 dcbb
00000140: 37b0 3f3c 3351 62bb 9487 463c d6a1 fdbc
00000150: 1054 b83c 6c42 a0ba ac8d 48bc c92c eabb
00000160: 0e8e 0ebc 9d92 163b 68cb 993b 581d 983a
00000170: 57dd 203b ebc5 c93b 100a 583a 262d 6e3a
00000180: becb c9b9 8091 8dbc 451a 363b 2728 c43b
-0.0009535024 0.005711762 0.0058316127 0.0038131895 0.004470232 -0.011786996 -0.00036574563 0.0019379411
-0.0056232163 -0.0008327131 0.0030363125 -0.01277369 -0.0114524225 0.003711838 -0.0019589495 0.012382106
0.004702173 -0.009820239 -0.009470097 -0.0006977432 0.0006121567 -0.007667884 0.0009240989 -0.013992247
0.008681566 -0.0069628926 0.0027159713 0.0106656505 0.004765263 -0.0016119212 -0.010661177 -0.021354482
0.0040946817 0.0042223986 -0.00382219 0.008955022 -0.023768935 0.009891693 -0.0118249515 0.009843563
0.002174142 -0.003741889 0.02005053 -0.00422226 -0.018988712 0.019875143 0.0015068869 -0.028563613
0.017742667 -0.0036804895 -0.021677833 0.0015491016 0.00729602 9.218931e-05 0.0063752015 -0.0046717743
0.0045499047 -0.01144462 0.012049008 -0.007259602 -0.014426798 0.008915401 -0.020044409 -0.0034414337
-0.011291268 0.0062020095 0.008135269 0.011854467 0.0037558028 -0.0067999708 0.0030053826 -0.0061961864
0.0029402028 -0.007848981 0.003470398 0.0037119312 -0.003110114 0.023626374 -0.02826977 -0.0067315134
0.011699728 -0.0034533262 0.012117285 -0.030960958 0.022501022 -0.0012226827 -0.012240808 -0.007146452
-0.008700861 0.0022975572 0.0046934374 0.0011605425 0.0024545991 0.006157627 0.00082412455 0.0009085707
-0.00038489507 -0.017281294 0.0027786654 0.005986232

conv.0.bias f4 [4]
00000000: 41be 23b9 14e0 a438 5f35 a1bb 8311 cd3a
-0.00015615766 7.861867e-05 -0.0049196924 0.0015645478

conv.3.weight f4 [4]
00000000: 5464 fb3e c24e fc3e 9150 fb3e fa8d fb3e
0.49099982 0.49278837 0.49084905 0.49131757

conv.3.bias f4 [4]
00000000: f332 18b9 ed0d aabb 912b 5f3b 1099 1d39
-0.0001451483 -0.0051896484 0.0034053067 0.00015029707

conv.3.running_mean f4 [4]
00000000: 2b8b 4d3e 603a 1d3f 1e43 103e 2048 043f
0.2007262 0.614172 0.14088103 0.51672554

conv.3.running_var f4 [4]
00000000: 7fe0 243e f3d4 3e3f 9abf ea3d 5e16 073f
0.16101263 0.74543685 0.11462326 0.52768505

conv.4.weight f4 [4, 4, 5, 5]
00000000: f04d f935 14c1 49b8 2005 9cb8 c6fa a537
00000010: f32d ca37 4e3d b8b8 5a33 b9b7 fe47 d036
00000020: a09b 12b8 ca8e 7fb8 c8ab abb8 c65a 8938
00000030: 8619 95b6 4625 93b7 b1bf a7b8 e7ce d2b8
00000040: d673 1538 c815 68b7 6927 6eb7 d400 0837
00000050: cf4d 30b6 93df 0c38 34ee aab7 92fe 28b7
00000060: b77d d938 4db3 85b8 668c ce38 8510 7437
00000070: f0f4 1eb5 3c28 1d38 7778 fe38 c7ed 8bb8
00000080: 1242 7c39 9a48 e937 983b 25b7 f4ba 8537
00000090: 90c0 9238 58f8 fdb8 f063 c9b6 5a2f 4838
000000a0: 7e5f 6c38 8792 42b8 a866 b4b7 8433 c137
000000b0: b83c a836 004f 22b6 e2ca 57b7 5c29 e5b7
000000c0: eca2 7e38 8f14 32b7 2c4e 5a37 2c6d 5d35
000000d0: 88cb 9937 5e86 0637 cbf2 b8b8 27d0 eeb8
000000e0: 869d 6ab8 4c4a 08b9 990b 7137 1762 04b8
000000f0: fb32 adb8 c05d 4137 98ad c7b6 cf41 3338
00000100: f809 3637 4ccf edb7 f46d a4b8 ab86 af37
00000110: c016 cf35 38aa 6837 9eb0 3ab8 50b4 0cb5
00000120: 64cc 36b8 6841 dcb8 dc8e 4bb9 b32a 3c37
00000130: 65a2 45b8 bf8f 18b8 0c04 53b6 aad2 f537
00000140: ca5a aab8 8b93 b937 7150 8438 0ba0 cb38
00000150: f509 2d39 7caa 2c38 8c59 b4b6 0d3d 92b7
00000160: a8c2 37b8 a053 8f37 6621 1cb7 b86e e837
00000170: dc31 a1b8 c497 22b8 e2b8 7c39 13a9 36b9
00000180: fa2e 08b9 4446 1db8 82e8 b636 7654 c2b6
00000190: 14bb 21bc 5450 b1bc f8f7 e5bb 5aea 98b9
000001a0: b086 d7bc db83 b9bc 0cde e4bc ea4d 59bc
000001b0: bed3 503a f589 16ba 9d67 c4bc 0d2c 3cbb
000001c0: b051 44bc 5b69 863c 007b 4c3c fb6c a0bc
000001d0: d581 3dbb 17b0 22ba 7c49 c5bb a779 223b
000001e0: 6dd7 c4bc ba8e 993b d88b ceba f793 ea3b
000001f0: 23bc ce3b c43a 32bc e329 01bd 77a4 68bc
00000200: e12d 75bc 44a4 93bc 06e1 d4bb 4a4b c5bc
00000210: f172 f5bb 22d4 6fbc 1a08 99bc 4c37 a2bc
00000220: ccbc 9cbc a0d5 40bc 1364 1cbc 4096 31bc
00000230: 0146 7ebc f3ef 41bc 5183 19bc 080e 2ebc
00000240: eb7f ab39 778b 8bbc d359 78bc e778 34bc
00000250: 338a 3ebc 66a4 56bc 96bd b93b f5bc 14bb
00000260: 69de bfbb 8244 15bc fb35 f639 2a3e 593c
00000270: 13a4 dfbb 4295 563c d062 763c d133 693c
00000280: 5ba4 003d 12bf 013c 620e 953c 07e9 673c
00000290: a1d3 713b 5c9f c33c c43f 7f3b 57b1 293c
000002a0: 296f 913c a562 0c3c b159 e83c 41e3 933c
000002b0: 2051 323b 22dd 003c 24aa 953c ad80 e43c
000002c0: 0030 023d 673f 123a 7883 f2bb a011 6bbb
000002d0: f35c f53c 12ab bb3c 5ca0 0b3b f21f d43b
000002e0: 4b03 abbb 72a8 743c 8716 e03a 0144 71ba
000002f0: fcbd aa3a f5ef 883b 3d52 f23c 40b0 f5b7
00000300: 2c75 a73a 4070 beb6 fe15 8eba 42cf 8e3c
00000310: 7b17 debb 5c8e 69bb 4fc4 b33a 3696 623b
00000320: 6a5b dabc 0f21 87bc 5d00 38bc d442 e6bc
00000330: d720 39bc 51ae a3bc d0c1 6abc 701b 51b7
00000340: d57e c7bb aad4 833c ab07 17bd 1ac1 99bb
00000350: 92fa 08bb 7975 c2ba 2777 a63a dbb8 edbc
00000360: f66f 77bb be7e 99bb e53a 0ebc 9e9c 52ba
00000370: de7c 96bc 1a99 6c39 90ec e93a cfa2 c73b
00000380: adf5 1a3b b48f 66bb 9241 41bc 96a4 cabc
00000390: 016d a3bc 9230 d6bb 0cc3 98bc 1d92 69bc
000003a0: 8ba2 e8bb 2837 c4bb d2fb 3ebb ab0a d5ba
000003b0: 278e 85bc be81 6ebc 8bba 6abc 4e85 33bc
000003c0: 7d75 e8bb 1158 81bc 3f25 23bc 37ca 37bc
000003d0: cd24 93bb f03e 29bc 2eb7 19bc 41b3 7bbc
000003e0: d103 fcbb c6f7 25bb f2f8 1a3c 47a5 cdb9
000003f0: 3bb5 07bb 6ce5 833c 4449 073c 2bc8 013c
1.8574628e-06 -4.8101952e-05 -7.439614e-05 1.9786308e-05 2.4101673e-05 -8.7852226e-05 -2.2077631e-05 6.207264e-06
-3.495405e-05 -6.092972e-05 -8.185912e-05 6.549577e-05 -4.4435174e-06 -1.7541122e-05 -7.998886e-05 -0.00010052119
3.563225e-05 -1.3833349e-05 -1.4195081e-05 8.1064245e-06 -2.6271334e-06 3.358682e-05 -2.0376501e-05 -1.0072852e-05
0.000103707825 -6.3753316e-05 9.848997e-05 1.454738e-05 -5.921602e-07 3.7469188e-05 0.00012134102 -6.672326e-05
0.00024057206 2.7809572e-05 -9.848642e-06 1.5941892e-05 6.99769e-05 -0.00012110238 -6.001901e-06 4.7727815e-05
5.635572e-05 -4.638967e-05 -2.1505475e-05 2.3031382e-05 5.0138588e-06 -2.4185865e-06 -1.2862236e-05 -2.7318187e-05
6.0710052e-05 -1.0614413e-05 1.3012013e-05 8.248778e-07 1.8333798e-05 8.018307e-06 -8.8190274e-05 -0.00011387496
-5.5936653e-05 -0.00012997648 1.436742e-05 -3.1562606e-05 -8.258779e-05 1.1525524e-05 -5.950871e-06 4.2738215e-05
1.0850366e-05 -2.8349132e-05 -7.84061e-05 2.0924335e-05 1.5429323e-06 1.386791e-05 -4.4510343e-05 -5.2416453e-07
-4.3582535e-05 -0.000105026 -0.00019412808 1.1215615e-05 -4.71197e-05 -3.6373498e-05 -3.1443806e-06 2.9304374e-05
-8.1231425e-05 2.2122424e-05 6.309234e-05 9.709605e-05 0.00016502275 4.116677e-05 -5.3748427e-06 -1.7432985e-05
-4.3811888e-05 1.708587e-05 -9.306101e-06 2.7708113e-05 -7.686365e-05 -3.8765153e-05 0.00024101467 -0.00017419858
-0.00012987471 -3.7497157e-05 5.45109e-06 -5.791483e-06 -0.009871263 -0.021644749 -0.0070180856 -0.00029166305
-0.026309341 -0.022645881 -0.027937911 -0.013263205 0.00079661224 -0.0005742603 -0.023975188 -0.002871278
-0.011982366 0.01640766 0.012480497 -0.019583216 -0.0028916497 -0.0006206049 -0.006020723 0.0024791749
-0.024028504 0.004686204 -0.001575823 0.007158752 0.0063090487 -0.010878269 -0.031534087 -0.014199368
-0.014964552 -0.018022664 -0.0064965514 -0.024083752 -0.0074905087 -0.014637979 -0.018680621 -0.019801758
-0.019132994 -0.011769682 -0.009545344 -0.010839045 -0.01551962 -0.0118369935 -0.009369687 -0.0106234625
0.00032710968 -0.017034275 -0.0151581345 -0.0110151535 -0.011629629 -0.013100719 0.0056683524 -0.0022695635
-0.005855371 -0.009110572 0.00046960995 0.01325945 -0.006824979 0.013097109 0.015038207 0.014233545
0.03140674 0.00791909 0.018195335 0.014154679 0.0036899822 0.0238797 0.003894792 0.0103572225
0.0177532 0.008568441 0.02836308 0.018052699 0.0027208999 0.007865222 0.018269606 0.027893389
0.031784058 0.00055789057 -0.007400926 -0.003586866 0.029951548 0.022908721 0.0021305298 0.0064735347
-0.0052188984 0.014932739 0.0017096557 -0.0009203554 0.001302659 0.0041789957 0.02958023 -2.9288349e-05
0.0012776009 -5.675509e-06 -0.0010840294 0.017432813 -0.0067777014 -0.0035637831 0.0013715121 0.0034574396
-0.026654918 -0.016495256 -0.011230555 -0.028108038 -0.011299334 -0.019980581 -0.014328435 -1.2463759e-05
-0.0060881176 0.016092617 -0.036872547 -0.004692209 -0.0020901305 -0.0014836035 0.0012700305 -0.02901881
-0.0037755943 -0.0046842983 -0.008681034 -0.0008034202 -0.018370088 0.00022563749 0.001784699 0.0060924063
0.002364497 -0.0035180869 -0.011795418 -0.024736684 -0.019949438 -0.0065365518 -0.018647693 -0.0142560275
-0.0070994548 -0.0059880204 -0.0029141796 -0.001625379 -0.016303135 -0.0145573 -0.014326702 -0.010957075
-0.007094084 -0.015789064 -0.009957611 -0.011217645 -0.004490471 -0.010329947 -0.009382052 -0.015362562
-0.0076908846 -0.0025324686 0.009458767 -0.00039223788 -0.0020707387 0.016100608 0.008257214 0.007921259

conv.4.bias f4 [4]
00000000: 5128 15b8 4dcc 383c ad6c 863c 0b21 a338
-3.5561916e-05 0.011279178 0.016409243 7.7786004e-05

conv.9.weight f4 [32, 4, 5, 5]
00000000: 06ee edb7 40fa 3b38 0fb7 1db7 64bf 8438
00000010: 015d 9138 d042 ae37 bcb5 9bb8 0774 a8b8
00000020: de3a 1e38 3a4c edb7 0457 57b8 ba23 6a37
00000030: 2fc4 5038 b3b6 9eb7 bc65 eab8 0108 e237
00000040: 2c87 36b8 16dc 84b8 b2c7 43b8 99b9 9ab7
00000050: 4827 9737 0681 c937 7971 99b7 0989 8cb8
00000060: a655 64b8 62ac 8f38 a765 9438 8d7d 43b8
00000070: 08e9 1f37 6d08 7438 d8d5 aab8 1291 63b8
00000080: ce59 b3b8 ecbb 3637 5e59 98b6 3456 0338
00000090: 5075 9934 882c f9b8 8d29 07b8 6df5 16b8
000000a0: 5556 6037 b48d a336 d00c 6db8 c271 9239
000000b0: 8cbb b838 c035 7ab6 ec7c 41b9 1800 49b5
000000c0: ae58 4738 d28f 0ab9 28fa b937 3757 1e38
000000d0: 4890 6638 da56 8337 3887 3d37 48ee 2838
000000e0: 08b0 16b7 c451 6bb8 54ef 77b9 d5fd a438
000000f0: 62b6 c6b8 c0b8 6c36 d846 5636 90da 7739
00000100: 3ca1 93b7 879f f7b8 2137 1839 c481 3b37
00000110: 7b2c 7b38 e506 f638 8d30 dcb7 fa8d bfb7
00000120: 1d2f fdb8 ecdd a8b8 f284 f437 8379 a838
00000130: b8fd 1038 8c3a e938 d272 d538 ee1c 4db8
00000140: 79a4 0738 f6cb 4e38 76e0 ef38 08ee 8db8
00000150: e050 6437 4c4b 4b38 3260 b3b7 74eb 7eb7
00000160: 9061 32b8 4f76 6538 a050 7238 669a 2738
00000170: 12c4 8738 cdc6 94b8 81ad 3b38 8398 8b37
00000180: ba1e fcb7 d259 5fb8 5247 95b8 dc84 3a39
00000190: c835 26b5 ec3b 7439 13c2 0939 c862 8237
000001a0: 488a 3d38 988c 79b8 27e8 4038 42c3 adb7
000001b0: f003 0938 60f4 45b9 30c6 47b8 4e04 45b9
000001c0: 52e3 4038 e639 eb38 5e8d 01b9 2028 ac38
000001d0: a567 20b8 c089 97b8 f604 1f38 3344 5b38
000001e0: a4fe 8e37 9ca2 e0b8 a12d 30b9 17c9 11b8
000001f0: b816 9937 24c2 d639 aec3 8037 acf1 2ab9
00000200: 9041 c236 7c2a 31b9 c785 2039 9efb 94b8
00000210: 0344 a937 e232 f9b8 d0ea 5ab6 f286 36b7
00000220: 04e0 fab8 0a59 98b8 e2d9 3938 28da e538
00000230: 522d c537 203c 3736 f410 4f37 30ca a036
00000240: 00d3 2eb8 ba76 aa37 b0a0 02b8 d2e5 6039
00000250: 7cc0 4cb8 4eba 56b9 de91 4639 aa2b 22b9
00000260: 2d51 8937 020a 65b9 384a 7437 f10b ad39
00000270: 3bcc 2a38 1809 54b7 3a26 0a38 9afc 9238
00000280: c109 0839 7ae1 bab8 6269 29b9 c813 5fb7
00000290: e253 a038 9a5e 86b9 c87c 6638 4299 e436
000002a0: c67a d0b7 7263 1838 62f9 3038 afed ecb8
000002b0: 60ab 8637 482b 94b8 c951 41b8 5ffb 86b8
000002c0: a38a 6cb9 9847 ad38 a8da df37 e2ef 82b8
000002d0: 5cbe 10b7 7a9d 8338 f4c4 4ab8 6991 d837
000002e0: 7d78 59b9 8817 4538 4b22 9b38 d71e c837
000002f0: ce05 0838 9a70 6838 d58f b437 7582 e8b8
00000300: a2d1 8eb8 3bec f3b8 4a14 6938 d6bb 14b8
00000310: 7cd5 f738 e0b1 1db5 0103 06b8 1824 20b8
00000320: 4052 a238 d8f3 80b8 a805 d7b8 1fd5 8ab8
00000330: 607e acb5 d093 8136 7aca 0bb8 6850 9338
00000340: 4d69 27b9 e2d9 29b8 cc3d 4bb9 a6b8 46b8
00000350: 69c3 04b8 3e03 b3b8 9f21 9337 b41a 2bb8
00000360: d0e3 97b8 20f2 bc38 d257 93b8 3cea 4db8
00000370: 6ac7 3b38 7e22 1e38 80f7 2fb5 713e a538
00000380: 22b4 ee37 5f09 a53b 6fbb d03a 9b94 983b
00000390: 58ef e639 93fa 7fb8 e9bc 073b 9908 dd3a
000003a0: 6c1e b43a 3995 143a 2ff6 b8b9 1239 ee3a
000003b0: 6f55 9739 301f c6b7 7fe0 8d3a 70fc 8b3a
000003c0: b81f 933b f74f 1a3a 5ab7 1b3a 535d 29b9
000003d0: d442 433b 77c6 613b 3c5a e339 660e 0db9
000003e0: 53d5 763a 5543 1e39 0bef c83b e880 173b
000003f0: c0be c1b9 dcce 613a bbe7 f0b9 eb11 6b3b
-2.836344e-05 4.4817338e-05 -9.400551e-06 6.3299e-05 6.931462e-05 2.0773528e-05 -7.4248266e-05 -8.032476e-05
3.772496e-05 -2.8288097e-05 -5.1341034e-05 1.3955805e-05 4.9773775e-05 -1.8920144e-05 -0.00011176939 2.6945027e-05
-4.351807e-05 -6.335245e-05 -4.6677604e-05 -1.8444656e-05 1.8018894e-05 2.4021148e-05 -1.8291861e-05 -6.701245e-05
-5.4439202e-05 6.85088e-05 7.076124e-05 -4.660855e-05 9.531395e-06 5.818198e-05 -8.146063e-05 -5.4256125e-05
-8.5521126e-05 1.0891799e-05 -4.5403567e-06 3.1313117e-05 2.8583827e-07 -0.0001188154 -3.2225205e-05 -3.5991357e-05
1.3371541e-05 4.874275e-06 -5.6517136e-05 0.00027932046 8.808737e-05 -3.728419e-06 -0.00018452451 -7.487847e-07
4.7527887e-05 -0.00013214283 2.2170207e-05 3.775136e-05 5.4970646e-05 1.565686e-05 1.1296761e-05 4.0276238e-05
-8.981682e-06 -5.6104516e-05 -0.00023644912 7.867409e-05 -9.475347e-05 3.527428e-06 3.1929721e-06 0.00023637176
-1.7598846e-05 -0.00011807592 0.00014516387 1.1176282e-05 5.988449e-05 0.00011731478 -2.6248652e-05 -2.2835087e-05
-0.000120727556 -8.0522004e-05 2.9148974e-05 8.0334976e-05 3.456857e-05 0.00011121211 0.000101780184 -4.890275e-05
3.2339685e-05 4.930418e-05 0.00011438217 -6.767741e-05 1.3608689e-05 4.8469097e-05 -2.1383257e-05 -1.51944005e-05
-4.252937e-05 5.4708038e-05 5.7772384e-05 3.9959697e-05 6.4738226e-05 -7.0942195e-05 4.4745862e-05 1.664111e-05
-3.005505e-05 -5.3250995e-05 -7.118158e-05 0.00017787836 -6.191808e-07 0.00023291976 0.00013137636 1.5543206e-05
4.5189896e-05 -5.9497164e-05 4.5992576e-05 -2.0714131e-05 3.2667012e-05 -0.00018878421 -4.7629874e-05 -0.00018788988
4.5988076e-05 0.00011216458 -0.00012355062 8.209073e-05 -3.82435e-05 -7.225899e-05 3.7913174e-05 5.2277184e-05
1.7046295e-05 -0.00010711441 -0.00016801666 -3.4757973e-05 1.82496e-05 0.00040961907 1.534991e-05 -0.00016302493
5.789283e-06 -0.00016895862 0.00015308625 -7.104057e-05 2.017804e-05 -0.00011882723 -3.262121e-06 -1.0879465e-05
-0.00011962655 -7.2645096e-05 4.4310356e-05 0.00010960206 2.3505334e-05 2.7304122e-06 1.2342109e-05 4.7919093e-06
-4.1681342e-05 2.0320866e-05 -3.1144067e-05 0.0002144792 -4.8816655e-05 -0.00020478034 0.00018937091 -0.0001546579
1.6369473e-05 -0.0002184287 1.4560814e-05 0.00033006028 4.0721363e-05 -1.2638302e-05 3.2937365e-05 7.008873e-05
0.00012973604 -8.9111694e-05 -0.00016156354 -1.32964415e-05 7.645019e-05 -0.00025628955 5.4952485e-05 6.812771e-06
-2.4852703e-05 3.633224e-05 4.2193926e-05 -0.00011297629 1.6053848e-05 -7.065252e-05 -4.6090954e-05 -6.4364394e-05
-0.0002255836 8.262618e-05 2.6685491e-05 -6.243565e-05 -8.62739e-06 6.275899e-05 -4.834398e-05 2.5816918e-05
-0.00020739618 4.6990375e-05 7.3973635e-05 2.3856219e-05 3.2430333e-05 5.541798e-05 2.152465e-05 -0.000110869216
-6.810135e-05 -0.00011631144 5.5570425e-05 -3.5460886e-05 0.000118176424 -5.87459e-07 -3.1950887e-05 -3.8180588e-05
7.740082e-05 -6.148935e-05 -0.000102530525 -6.62005e-05 -1.2851779e-06 3.8617072e-06 -3.3328753e-05 7.024483e-05
-0.00015965589 -4.049566e-05 -0.0001938261 -4.7378846e-05 -3.1653242e-05 -8.535989e-05 1.7539422e-05 -4.0794446e-05
-7.2426745e-05 9.009638e-05 -7.025864e-05 -4.9093956e-05 4.4769993e-05 3.770226e-05 -6.555274e-07 7.879444e-05
2.8455692e-05 0.0050365175 0.0015925 0.004656387 0.00044047344 -6.1030103e-05 0.0020711964 0.0016863524
0.0013741977 0.0005667988 -0.00035278636 0.0018174967 0.00028864617 -2.3617962e-05 0.0010824351 0.0010680091
0.004489865 0.00058865495 0.0005940102 -0.00016151862 0.0029794471 0.003445057 0.00043364044 -0.00013452172
0.0009415943 0.00015093137 0.006132012 0.0023117606 -0.00036953948 0.00086138933 -0.0004594902 0.0035868834

conv.9.bias f4 [32]
00000000: da46 9238 b014 0fb9 776b 6a3a 42ea 1b3b
00000010: 5d02 bab7 d522 9e3b b3ea ef3a 28b3 c238
00000020: 2788 ecb8 2260 27b9 f7b5 0fb9 a96c 353b
00000030: c416 8038 5ce0 d03a 2764 eb38 d020 8b37
00000040: ffe4 16b9 ab2b 103b 20f4 b335 d058 3cb7
00000050: a57c f73c ff50 5f3a fff0 b63b 48c6 2e39
00000060: 29e2 5c39 590b 65b9 4ba5 703a 023c a43c
00000070: 92cd 763b 8f55 e83b 6cfd f2b8 ba7c 4d38
6.97502e-05 -0.0001364525 0.0008942405 0.0023790752 -2.2174028e-05 0.0048259296 0.0018304199 9.284011e-05
-0.00011278717 -0.00015962173 -0.0001370533 0.0027683175 6.107756e-05 0.0015936005 0.00011224328 1.658537e-05
-0.00014390422 0.0021998684 1.3407589e-06 -1.12263515e-05 0.030210802 0.0008518844 0.005582928 0.00016667799
0.00021065086 -0.00021843369 0.0009179904 0.020048145 0.003765915 0.0070902775 -0.00011586663 4.899197e-05

lin.0.weight f4 [16, 32]
00000000: c2b1 4bbd 1f79 893d eb46 65be bd43 8dbe
00000010: 4fbb 313d ceff c7be 3035 11be 7c8a 033e
00000020: ce60 5b3d fd7a d83d 1f73 0abe dfd2 8bbe
00000030: 3be7 6dbd 9625 5ebe 4ad0 7e3d 36d1 8dbd
00000040: e21a 42bc a86c 293a 693f 633d 4010 c53d
00000050: 09d8 753e 9bcf 40be 012d f8be 722b 813d
00000060: af3e 89bd 10ee 95bc a4fd 9e3b 66d2 463e
00000070: c332 a8be 8a31 cdbe d7e4 55bd 2f7e b9bd
00000080: 018c 84b7 eaf6 65aa d67e 92af fc87 02b6
00000090: 34e3 27a5 7e7a 902a ce38 e0b6 b7c1 eea7
000000a0: 0b6e dcb4 eb82 43b6 8c8e 1e30 b626 99a9
000000b0: 4274 81af ec41 87b6 0d54 2d30 ddd0 a934
000000c0: e554 0b28 6b54 3e38 8ecf b028 1a07 7b35
000000d0: 5cce dcb2 fe49 c5b5 6831 3828 172e 1238
000000e0: eb8f d1aa 7e41 14b8 ca63 8139 fa34 5bab
000000f0: 80e5 8ab7 7982 87a8 84de eaad b969 312a
00000100: f45b 41bd b9ac b2bc 0934 393d 9b0b 01bd
00000110: 136c 8dbb 37e5 71bb 430d 4abb 16c7 d6bb
00000120: 6a42 2e3a 042d 853d 5d9a 843b 745c 073d
00000130: 0488 a3bc 5363 a9bd 5700 47bd dc1d 07bd
00000140: 3cf1 31bb 8f63 033d 100e 35bb 99e9 c43d
00000150: f3d7 6ebc 8911 9cbd 440a 44bc b36c 3ebd
00000160: 9743 353d 94eb f63b 80d7 ac3d 8e68 3fbd
00000170: 070e 8f3d bdd7 f9b9 2ca2 a0bc 7a15 4a3d
00000180: 72a4 453d 987c cf3d f191 adbd ddaf 86bc
00000190: e78b a8bc 209a da3c 6803 4cbd dffb 88bc
000001a0: ce1b be3c 2aff f03d 0143 e8bc 6581 66bd
000001b0: d430 a4bb 6069 fcbc 18c8 abbc bc35 2dbd
000001c0: f513 96bb 5955 103e 9440 09bd 9d6b b93d
000001d0: 5b1f eb3d 9f6a aa3d f447 e4bc 8582 7fba
000001e0: 9f6d 6bbd ce62 39b9 d950 13be 951c 99bc
000001f0: 1cad dc3d 36ac d03c 1f56 c53b d90b 933c
00000200: 3710 8c3c 2511 f73c bf35 cebc 1a9f 193e
00000210: e60b c33c 58fd 7b3e 6f69 783e 41b2 e2bd
00000220: 22f6 47bc 3f1c f8bc 809c cabd ae03 bb3d
00000230: e574 0c3a 6adf 443d b6d6 a9bd 4dbb 0bbd
00000240: f5a4 863c d893 6f3d dec9 803d 9cea 4abd
00000250: b39e 0dbd f0a8 b43d c7d3 743e 420f a73d
00000260: 4c4a 9a3d 8829 49bb 08ef 263e 32d2 0bbe
00000270: 98da 383e 6602 8f3e 43ea 83bd 9a5f e23c
00000280: ac7c b7b6 e19b 3c3a 03ca 85be 1dc1 e0be
00000290: 8547 8aba fb56 f5be 7454 c0be 27fd b43b
000002a0: 8001 7238 1f7b e439 22fd 9fbb 97e0 ecbe
000002b0: 5880 d6ba 6119 cabe 9c33 073c 31f0 a2ba
000002c0: 63d6 5f38 3100 b83d c6d9 3038 cfbf 013a
000002d0: 4948 0c3f a671 14be 1c67 07bf 3251 5fba
000002e0: 809c d0ba da70 6d38 5d17 9cbc 2abf e23e
000002f0: 9ac6 cbbe 66b7 0bbf 390d a539 8edd 98bc
00000300: 21ad cc3d 6666 813c 9499 273e 81a6 b43d
00000310: 67bb bb3d ee84 a63e aa42 6e3e cf71 acbd
00000320: 2caa 5ebc 0f45 103e 2983 173c a361 b93b
00000330: dd29 a13d 9d95 853d 3940 103e 2ea9 cb3d
00000340: 33a0 64bd f3e0 c1bd 2e87 72bd 0578 913d
00000350: 76be 68be cf60 ca3d a839 573e c047 c0bd
00000360: d8f4 fd3d 3ef1 bcbc 5b86 cb3d 159d a43c
00000370: dddb 493e 65ab 783e 3077 72bd d7d1 53bc
00000380: 9e52 bd3d e87e 7dbd eed7 993d fa97 1d3e
00000390: 72b6 09bd c440 8d3e 0fcd 973e d828 863d
000003a0: 45fa 373d 3229 903d 6f25 98bc 184d b63e
000003b0: fd7a 21bd 26e4 2f3d 82bf 8cbd d59c 2dbd
000003c0: a686 513d b2ee dcbd 7acd 9f3d 16ad 4a3b
000003d0: 7b78 94be e44b 4dbc 570d 593e d86e 9c3d
000003e0: 9f8e 23bd 013c 983d 4ec4 8f3d eb45 a4be
000003f0: c69f 3d3e 6af8 013f c256 473d e667 223e
-0.04973007 0.06712555 -0.22390334 -0.27590743 0.043391522 -0.3906235 -0.14180446 0.12845796
0.053559117 0.10570333 -0.13520478 -0.2730932 -0.058081847 -0.21694025 0.06221036 -0.069246694
-0.01184723 0.00064630294 0.055480395 0.0962224 0.24008192 -0.18829195 -0.48471835 0.06307115
-0.06701409 -0.018301994 0.0048520137 0.19416198 -0.32851228 -0.40076858 -0.05222019 -0.09057271
-1.580082e-05 -2.0424951e-13 -2.6647368e-10 -1.9450663e-06 -1.456192e-16 2.5664535e-13 -6.682333e-06 -6.6268296e-15
-4.105826e-07 -2.9133469e-06 5.7682636e-10 -6.80128e-14 -2.354757e-10 -4.030988e-06 6.3056477e-10 3.163067e-07
7.734459e-15 4.537815e-05 1.9629938e-14 9.351512e-07 -2.5705212e-08 -1.4699178e-06 1.0224765e-14 3.4852037e-05
-3.722572e-13 -3.5346944e-05 0.00024679146 -7.787795e-13 -1.6557751e-05 -1.5044594e-14 -2.6701537e-11 1.5757438e-13
-0.047206834 -0.021810876 0.04521564 -0.03150521 -0.004315862 -0.0036910304 -0.0030830659 -0.0065544946
0.00066474697 0.06502727 0.004046722 0.033047155 -0.019962318 -0.08270898 -0.04858431 -0.03298746
-0.0027151844 0.03207737 -0.002762679 0.09614868 -0.0145778535 -0.07620532 -0.011965338 -0.046490382
0.04425391 0.0075354073 0.08439541 -0.04673057 0.069850974 -0.00047653719 -0.01960858 0.049336888
0.04825253 0.10131186 -0.08475102 -0.01644128 -0.020574523 0.02668482 -0.049807936 -0.016721664
0.023206618 0.11767419 -0.028352262 -0.056275744 -0.0050107036 -0.030811965 -0.020969436 -0.042287573
-0.004580016 0.14095058 -0.033508852 0.09053729 0.1148059 0.083211176 -0.027866341 -0.0009746927
-0.05747759 -0.00017679782 -0.1438631 -0.018690387 0.107752055 0.025472742 0.0060222293 0.017949985
0.017097576 0.030159542 -0.025172113 0.15002099 0.023809385 0.24608362 0.2425897 -0.110691555
-0.012204679 -0.030286906 -0.09893131 0.09131561 0.0005357995 0.048064627 -0.08292906 -0.03411417
0.01643608 0.058490604 0.06288503 -0.049540147 -0.034575175 0.08821285 0.23908912 0.08157207
0.07533702 -0.003069492 0.1630212 -0.13654402 0.18052137 0.27931517 -0.06441166 0.027633477
-5.4683387e-06 0.00071948586 -0.26130685 -0.43897334 -0.0010549879 -0.47917923 -0.37564433 0.005523342
5.7698693e-05 0.0004357928 -0.0048824707 -0.46265098 -0.0016365154 -0.39472488 0.008252051 -0.0012431202
5.3367006e-05 0.089844115 4.2164487e-05 0.0004949541 0.547978 -0.14496478 -0.5289171 -0.0008518874
-0.0015915781 5.6610304e-05 -0.01905411 0.44286472 -0.39799958 -0.5457672 0.00031481104 -0.018660333
0.09993959 0.015795898 0.16367179 0.088208206 0.091666035 0.32523292 0.23267618 -0.08420145
-0.013590377 0.14088844 0.00924758 0.005657391 0.07869313 0.06522677 0.14086999 0.09944378
-0.05581684 -0.09466734 -0.05921095 0.0710297 -0.22728905 0.09881746 0.21018088 -0.09388685
0.12400216 -0.023064252 0.09937736 0.020094434 0.19712777 0.24284132 -0.059195697 -0.012928448
0.092442736 -0.061888605 0.075118884 0.15390006 -0.03362126 0.27588475 0.29648635 0.06550759
0.04491641 0.070391074 -0.018572537 0.35605693 -0.03942393 0.04294219 -0.06872465 -0.042385895
0.0511538 -0.10787715 0.078028634 0.0030925921 -0.2899817 -0.012530301 0.21196495 0.07638329
-0.039930936 0.0743332 0.07019864 -0.32084593 0.1851798 0.50769675 0.048666723 0.15859947

lin.0.bias f4 [16]
00000000: 3b13 163e ea42 52b9 0260 bcbc dcad abbd
00000010: 105d cd3d 829d 443e c79a c13d def6 bd3c
00000020: 7ce2 73bd a547 2dbd 3d53 a13c 9d23 03bd
00000030: 1c35 41bc e3e3 e9bd 7d25 fc3d ce1b 22bd
0.14655773 -0.00020052088 -0.022994999 -0.083827704 0.10027516 0.1920071 0.094533496 0.023189005
-0.059542164 -0.042304654 0.019693011 -0.032016385 -0.011792447 -0.11420419 0.12311838 -0.039577298

lin.2.weight f4 [1, 16]
00000000: 2bc9 a13e 8c03 1fb9 c924 eb3d 26c7 16be
00000010: 55e7 28be 2cd4 013f a44e 8cbe 0bc2 fdbe
00000020: 1e55 133c 116f 1b3d bdde dcbe d5d5 b8bd
00000030: eca6 eabc 61dd 13be 5981 6a3e d703 4cbd
0.3159879 -0.00015164743 0.114816256 -0.14724407 -0.16494496 0.50714374 -0.27403748 -0.49562106
0.0089924615 0.037947718 -0.43138686 -0.0902516 -0.028644048 -0.14439918 0.22900905 -0.04980835
