sim/models/right.pt (torch, 39170 bytes, 17 tensors)

conv.0.weight f4 [4, 1, 5, 5]
000000 1b 29 7b 3c b3 36 8f 3c da dc 24 bd f4 6b 46 bc
       0.0153296245 0.017482137 -0.040249683 -0.012110699
000010 1c a6 23 3c a3 76 5b bc 9e 98 69 bc 42 e2 02 3b
       0.009988334 -0.013394984 -0.014257578 0.0019971286
000020 f1 fc b5 3c 46 0a 16 bb a4 8d 3b bc 84 83 8a 3c
       0.022215338 -0.0022894307 -0.011447344 0.016908415
000030 84 47 14 bb 5d f4 c9 bb 40 b6 7e 3c 38 86 5f 3c
       -0.0022625634 -0.0061631636 0.0155463815 0.01364284
000040 99 43 12 bc ac 92 87 bb 9b cc 1d 3c 6b 47 ad bc
       -0.008927249 -0.0041373577 0.009631301 -0.021152219
000050 d3 b3 d6 3a b6 8d d2 3b f3 10 a1 bb cd 31 52 bc
       0.0016380496 0.0064255847 -0.0049153506 -0.012829256
000060 fa e9 e2 3b 09 9f 97 3b ec da be bb 47 ab ea 3c
       0.006924865 0.0046271128 -0.0058244374 0.028646125
000070 6c 0c 80 bc 9e 9f 1b 3c ee ea e8 3b 94 63 07 bd
       -0.015630923 0.009498505 0.007108084 -0.03305395
000080 56 40 08 bc a1 51 b0 3c ff c2 e6 bc 91 2d 2b 3b
       -0.00831612 0.021523299 -0.028169153 0.002611969
000090 d7 31 e7 3b 13 be 06 bc 87 30 ba bb 38 30 b2 3c
       0.007055502 -0.008224028 -0.0056820544 0.021751508
0000a0 93 9f 73 3b e5 f6 21 3b 63 e5 45 3a 7a fc 84 bc
       0.003717397 0.002471381 0.0007549135 -0.016233671
0000b0 87 1f a4 3b 4b a2 81 3a 76 b3 a8 ba ab ca e4 bb
       0.005008641 0.0009890286 -0.0012870866 -0.0069821677
0000c0 c1 ef 41 3c bf b4 3c bc bd cb 2b 3b 8c 66 a7 bc
       0.011836947 -0.011517703 0.0026213967 -0.02043464
0000d0 69 f4 3d ba cc 46 0f 3c 34 50 0c 3c d8 24 dd bc
       -0.0007246198 0.008744907 0.008564044 -0.026995108
0000e0 2a 23 8d 3c ba 8d fd bb ce a3 b6 bb ae 94 88 3b
       0.017228682 -0.0077378424 -0.0055737263 0.0041681146
0000f0 86 49 a0 bc 29 93 98 3a e4 79 11 3c 76 98 9e bb
       -0.019566309 0.0011640537 0.008879159 -0.004839952
000100 be 71 05 bc 30 1f 46 bb c9 4f 6f ba d0 cd 5c 3c
       -0.008144794 -0.0030230992 -0.00091290154 0.013476804
000110 0b f7 bd bc 62 53 16 bb 32 1c af bb ca d0 38 bc
       -0.023189088 -0.0022937884 -0.0053439373 -0.011280248
000120 e6 15 87 3c 41 4e 37 3c db b7 24 3b 8a 28 91 bb
       0.016489934 0.011188091 0.0025134 -0.0044298815
000130 12 c1 8e 3c 1a d0 20 bd b4 18 ef b8 59 25 70 3c
       0.017426047 -0.03926096 -0.000114010094 0.014657342
000140 68 84 6f 3b 19 3d 2a bb 80 d9 ea bb 1b 7e 4d bc
       0.0036547426 -0.0025976358 -0.0071670413 -0.012542273
000150 80 18 76 3c d0 e1 f5 3c 2a b1 3d bb d1 cf 9c 3c
       0.01502049 0.030014902 -0.002894471 0.019142063
000160 f1 7e ac bc d0 3e 06 3d c0 51 36 3b 2c 02 1e bd
       -0.021056624 0.032774746 0.0027819723 -0.03857629
000170 88 18 36 bc 5f c5 2e bd 30 9b db bb 98 b9 f3 3b
       -0.011114247 -0.042668696 -0.0067018494 0.007437896
000180 79 34 0f bc db 67 8b 3c 03 98 54 3c ae 80 f3 39
       -0.008740538 0.017017296 0.012975696 0.00046444446

conv.0.bias f4 [4]
000000 40 2f 8c b9 6e 46 cb ba 80 f0 84 3a 95 39 fa bb
       -0.00026738085 -0.001550866 0.0010142475 -0.007636259

conv.3.weight f4 [4]
000000 22 aa 00 3e 05 4f 0f 3e 4b 91 06 3e 3f a2 0b 3e
       0.125649 0.13994987 0.13141362 0.1363611

conv.3.bias f4 [4]
000000 8b 36 a2 3b aa 2d 00 3a 9c d5 08 3a 59 0a 47 3c
       0.0049503497 0.0004889617 0.00052198186 0.012148463

conv.3.running_mean f4 [4]
000000 1b 1d 4c 3f 3c dc 5c 3f 37 d5 8c 3e f8 71 a2 3f
       0.7973191 0.8627355 0.2750642 1.269103

conv.3.running_var f4 [4]
000000 19 31 6d 3f b0 bd 68 3f 79 81 b1 3e 81 96 12 40
       0.9265304 0.9091444 0.34669092 2.290436

conv.4.weight f4 [4, 4, 5, 5]
000000 20 57 cd bb fa 92 35 3b 53 6f b1 bc 16 05 9a bc
       -0.0062664896 0.0027706013 -0.021659529 -0.018801253
000010 e3 94 86 bc 60 6a 3a bc 26 a2 ec 39 c5 78 28 ba
       -0.016428417 -0.011377901 0.00045134238 -0.00064266875
000020 da 1c 9f bb 42 0b 75 bc 02 e0 ac bc 9f fb a2 38
       -0.0048557343 -0.014956297 -0.021102909 7.77163e-05
000030 3e ac b2 bc c9 e0 12 3b b4 51 af bb 70 93 4d bb
       -0.021810647 0.0022411814 -0.005350316 -0.0031368397
000040 29 04 99 3b 6c 12 12 bc 02 4a f3 bb 7c 0a 6e 3a
       0.0046696854 -0.008915525 -0.007424594 0.0009080542
000050 dd a5 70 3c 59 9a 8d bc cc 6c b2 ba 55 cd 85 3c
       0.014687982 -0.017285513 -0.0013612746 0.016333262
000060 a6 f8 ae ba b4 91 0b bc aa 1e 77 3c e1 51 b2 3c
       -0.001334925 -0.008518625 0.0150829945 0.021767559
000070 6e d8 b2 3c ac 17 49 ba 1c 02 2c 3c 53 a6 99 ba
       0.021831717 -0.0007671069 0.01049855 -0.0011722542
000080 bf ed 11 bc d4 7e 6c 3c 9d 13 3a 3d 1e 4d 27 3d
       -0.008906781 0.014434535 0.04542886 0.04084503
000090 e0 f6 23 3c b6 73 80 3a 6a e3 b3 3b ab 76 af 3c
       0.01000759 0.000980011 0.0054897564 0.02141889
0000a0 c6 dc e3 3a cc 16 86 3c 25 c9 28 3c 4b b4 57 ba
       0.0017384521 0.016368292 0.010301863 -0.0008228465
0000b0 63 c6 39 3a e9 87 20 bc 6c 26 a1 3a 1e 40 d6 3c
       0.0007086752 -0.0097980285 0.0012294776 0.02615362
0000c0 5b c3 53 3c 82 76 66 b9 fc 05 5e 3b ee a1 9e 3c
       0.012924994 -0.00021978657 0.0033878079 0.019364323
0000d0 a4 cb 72 3c d5 1b 83 3c 95 33 4f bc 2b 02 28 3c
       0.0148190595 0.016004482 -0.012646575 0.010254423
0000e0 9b 8f be 3c 50 4d 6f 3b d8 8e c4 3b 87 69 3a 3c
       0.023261836 0.0036514588 0.0059984736 0.011377699
0000f0 57 28 e7 3b dc b8 91 3c 0c 09 ed bb f4 bb b9 3b
       0.0070543694 0.017788343 -0.0072337445 0.0056681577
000100 5f 73 f4 3c 7a 00 9d 3b 57 03 64 3b d2 1a 55 3c
       0.02984017 0.0047913166 0.003479203 0.013006883
000110 e2 7d b8 bb 81 30 06 3a fc b7 6d bc f2 49 5b bc
       -0.005630241 0.0005118922 -0.014509197 -0.013384329
000120 04 e0 76 3c a5 58 23 bb 5b 33 d6 ba 87 d7 a4 bc
       0.015068058 -0.0024924662 -0.001634221 -0.020122303
000130 de 6d 8f bb 4b f9 4f 3c 1d 62 bd ba 34 72 0e bd
       -0.004377111 0.012693713 -0.0014448796 -0.03477688
000140 4c d3 41 bc f7 78 a9 bc 73 7b 5e bb 9b d0 7d ba
       -0.011830162 -0.020687563 -0.0033948093 -0.0009682269
000150 b5 17 e2 bb 4a e3 03 bb 67 84 a8 bc f8 f4 a1 bb
       -0.0068997988 -0.0020124489 -0.020570947 -0.0049425326
000160 be fc cc bc 7a 4d ab 3b 69 23 a0 bb 40 18 2d bb
       -0.02502286 0.005227742 -0.0048870337 -0.002641216
000170 f7 75 b3 bc b1 82 9d bb 4d 70 23 39 ad ce 6a 3a
       -0.021906836 -0.0048068394 0.00015586727 0.00089571887
000180 ab f4 c9 bb ba f8 95 3b dd 03 66 bc 60 eb 68 bc
       -0.0061632 0.0045767697 -0.014039007 -0.014216274
000190 ed 7f 32 3d 45 0a 89 3c 5a 9b 10 3c e7 e3 91 bb
       0.04357903 0.01672853 0.008826101 -0.004452217
0001a0 73 40 83 ba cf e4 84 3c 59 0e 1e 3a 54 bb 2c 3b
       -0.0010013714 0.016222386 0.00060293596 0.0026356773
0001b0 93 b5 3f 3c 68 71 14 3b 14 f8 a6 3c 23 97 e5 3b
       0.0117010055 0.0022650603 0.020381965 0.0070065423
0001c0 33 ac 88 bb d1 a0 0f bc 61 11 3e ba e3 b9 25 3d
       -0.0041709184 -0.008766369 -0.00072505145 0.04046048
0001d0 14 5e a2 bb 3e b1 76 ba 94 45 99 bc 84 41 40 3b
       -0.0049550626 -0.00094105664 -0.018709935 0.0029335925
0001e0 84 87 52 3c 18 50 b2 bb da a8 c2 39 3e 06 68 3b
       0.012849692 -0.005441677 0.00037128368 0.0035404111
0001f0 46 54 72 3c ed 63 27 3c 7f 09 d7 39 46 64 54 bc
       0.0147906 0.010216695 0.0004101507 -0.01296336
000200 d4 b1 6e 39 2b b1 d6 3b 53 82 22 bc 22 e5 5d ba
       0.00022763695 0.006551882 -0.009918767 -0.00084646244
000210 11 ce 23 3c 8d 37 36 bc 5a 11 01 bd d9 2e 86 3b
       0.0099978605 -0.011121643 -0.03151069 0.00409494
000220 d0 0e 82 3b 6d 51 4a 3a 18 a3 ec bb 91 aa c4 bb
       0.003969051 0.0007717822 -0.0072215907 -0.0060017784
000230 b1 34 af bb f6 e7 2a bc 3b 3a 71 3b e4 53 f2 3b
       -0.0053468575 -0.01043128 0.003680839 0.0073952544
000240 5f 19 30 bb a2 c6 48 3c 99 a8 42 3b 20 d7 f7 3b
       -0.002687059 0.012254389 0.0029702543 0.0075634867
000250 c5 d7 9e ba 94 15 8e ba 36 6b 58 bc b9 27 3f 3c
       -0.0012118748 -0.0010840171 -0.013209155 0.011667185
000260 2f 56 34 3b 6a 3c 02 3c b8 cc 87 bc 99 7c c0 bc
       0.002751719 0.007948974 -0.01657711 -0.023496913
000270 af 74 29 3c 36 5d 8e 3c 6a fa 54 3c 93 b6 b9 3b
       0.010342761 0.01737843 0.0129991565 0.0056675165
000280 57 5c 5f 3c 35 28 26 bb 72 9a a4 3a b5 e2 48 bc
       0.013632855 -0.0025353555 0.0012558235 -0.012261082
000290 4a 8d a0 3b e5 6d ef 3b 64 33 fc 3b cc cc 15 3c
       0.0048996555 0.0073068016 0.007696556 0.009143066
0002a0 0c 41 26 3c 6d 8c 67 3b de c9 87 bc b3 db 60 3b
       0.010147344 0.0035331503 -0.01657575 0.0034310638
0002b0 54 6b ee 3a db 03 61 3c 74 dd 25 bc 3e 5e 08 bd
       0.0018189945 0.013733829 -0.010123599 -0.033293
0002c0 84 a2 d2 bc 27 cc f2 bb 49 79 14 3b 8a 2b 7b bc
       -0.02571226 -0.0074095908 0.00226553 -0.015330205
0002d0 eb 05 43 bb 52 14 43 bc 06 b3 5c bc 88 fc 03 bd
       -0.0029758166 -0.0119067 -0.013470417 -0.032223254
0002e0 0d 77 1d bc 2b 37 f0 bb 5e 1d ea 38 09 19 b2 bc
       -0.009610903 -0.0073307953 0.000111634596 -0.021740453
0002f0 44 e4 8e 3b 17 f6 d1 3a ab d6 d2 bc 70 49 fa 39
       0.0043607075 0.0016018775 -0.025737127 0.0004773843
000300 75 1a 93 bc b4 d6 b2 bb e7 af d9 bb c5 55 58 bc
       -0.017956952 -0.0054577235 -0.0066432836 -0.013204043
000310 95 6d 0d 3c ae 3d cc 3b 00 ce 38 39 19 71 d0 bc
       0.008632083 0.0062329387 0.00017624348 -0.025444554
000320 68 8f f8 3c c4 1d 23 3c 2f be bb 3c af 22 88 3b
       0.030341819 0.009955827 0.022917835 0.004154525
000330 23 ee 01 3c 1e dc 4c 3c 43 0f 91 3a c2 6c 8e 3b
       0.007930311 0.012503652 0.001106717 0.004346461
000340 79 e2 16 3c ea 63 3a 3c f9 a4 69 3c 00 0a f0 b8
       0.009209269 0.01137636 0.014260524 -0.000114459544
000350 06 02 29 bc 36 51 d3 39 03 94 83 bb 74 e4 ea 3b
       -0.010315424 0.00040305563 -0.004015447 0.007168347
000360 9d 0e d0 bb 5a e7 58 3c 7e 19 63 3c 4b c2 bc b9
       -0.0063493983 0.013238752 0.013861058 -0.00036002914
000370 ec 35 45 3b ae ac 74 3b a8 03 1f bc 38 bd 8a 3b
       0.0030091954 0.003733437 -0.009705462 0.0042339824
000380 8b 88 46 3c 1f 68 c9 bc e3 78 17 bc 98 87 e9 3a
       0.012117515 -0.024585782 -0.00924513 0.0017816899
000390 3e 48 3e 3b 4d 1e 64 3c e4 48 8e bc 7a d0 be b9
       0.002903476 0.01392324 -0.017368741 -0.0003639495
0003a0 67 3b 28 3b 83 b1 82 3c ff 4b 61 bc fc 66 af 3b
       0.0025670172 0.015953785 -0.013751029 0.005352853
0003b0 42 3b b0 bc 1a 8b 06 3c 27 37 4b 3c 15 84 28 bb
       -0.021512631 0.008211875 0.012403286 -0.0025713493
0003c0 b8 75 8e bb eb d7 a8 ba 75 a6 2b 3a 19 26 98 3b
       -0.0043475293 -0.0012881731 0.00065479364 0.0046432135
0003d0 9b 51 40 3b c2 ef d7 3b e5 4d 04 3c 59 fb b8 bb
       0.0029345516 0.0065898607 0.008075212 -0.0056451974
0003e0 4e f2 0b 3b 76 45 0f bb a7 a0 af bc ec 32 3e 3b
       0.0021354142 -0.002186147 -0.02143891 0.002902205
0003f0 5f 19 41 bd 2f d0 2b bc b7 1e c3 bc 0d 9e 1c bc
       -0.047143336 -0.010486647 -0.023818357 -0.009559167

conv.4.bias f4 [4]
000000 45 57 bd bc f9 46 31 bc 98 20 fb bb 81 b4 82 bc
       -0.023112902 -0.010820144 -0.0076637976 -0.015955212

conv.9.weight f4 [32, 4, 5, 5]
000000 ed ff 1f b8 cb 9c 89 b8 48 d1 cf 38 51 6f 3b b8
       -3.8146904e-05 -6.561874e-05 9.909511e-05 -4.4687946e-05
000010 c9 06 e3 38 1e 75 d6 b7 04 e1 04 b8 cb 0b 44 b8
       0.00010825467 -2.5565325e-05 -3.1680815e-05 -4.6741025e-05
000020 e6 f4 2b b8 23 7e e5 b7 34 44 ab 37 fd 50 d7 37
       -4.0997656e-05 -2.7357664e-05 2.0416548e-05 2.566771e-05
000030 f9 de 0a b9 98 2e df b7 10 52 d1 b6 bc 00 8e 37
       -0.0001324377 -2.6605368e-05 -6.2382387e-06 1.6928061e-05
000040 e0 85 c6 b8 4c e4 cb b7 7d 84 bc 37 40 e8 d9 37
       -9.466312e-05 -2.4305795e-05 2.2473041e-05 2.5976566e-05
000050 08 2c 87 38 a4 b7 9f b8 0a fc 65 b8 d7 12 aa b8
       6.445503e-05 -7.6159165e-05 -5.4832584e-05 -8.109741e-05
000060 ed af 2a 38 92 8d 86 37 74 ca 2d b8 bc 74 4f 37
       4.0695002e-05 1.6039969e-05 -4.1434963e-05 1.2365341e-05
000070 f9 a9 c0 38 f6 ca 52 b8 40 97 49 b6 b9 72 5f b8
       9.186933e-05 -5.0256924e-05 -3.0039373e-06 -5.3274187e-05
000080 aa 28 6a b8 fb 53 9a 37 25 71 92 37 b4 3b 52 b8
       -5.582782e-05 1.8397337e-05 1.7457243e-05 -5.0123504e-05
000090 80 1f 37 38 96 b6 cc b8 10 34 d3 36 b5 88 00 38
       4.3659937e-05 -9.761487e-05 6.294351e-06 3.0644896e-05
0000a0 0e e9 9f 37 59 cf 00 b8 00 64 db b2 09 59 96 b7
       1.9062802e-05 -3.0710686e-05 -2.554043e-08 -1.7922854e-05
0000b0 82 e9 d5 37 8d 5e d2 b7 de 85 8a 37 0c 53 84 b8
       2.5500314e-05 -2.507798e-05 1.6513219e-05 -6.309719e-05
0000c0 60 1c 41 b5 47 c6 b7 37 68 bb bd b6 63 59 60 b7
       -7.1939394e-07 2.190763e-05 -5.654456e-06 -1.3372252e-05
0000d0 66 58 d7 37 48 02 21 37 12 74 6a b7 c7 e2 33 b8
       2.5671161e-05 9.596879e-06 -1.3974512e-05 -4.288813e-05
0000e0 31 b8 82 b7 c6 22 94 37 82 5e e2 b7 ed 7d 4c b7
       -1.5582978e-05 1.7659167e-05 -2.6985308e-05 -1.2188667e-05
0000f0 0a f1 bb b7 62 bb 29 b8 cf 15 18 b7 d8 73 12 b8
       -2.240438e-05 -4.0467254e-05 -9.064984e-06 -3.4917e-05
000100 24 57 3b b7 ce 11 59 38 ea 97 97 38 28 13 13 35
       -1.1166358e-05 5.1753414e-05 7.228537e-05 5.4789643e-07
000110 fc 4c a8 37 ba 6d 1f 38 b8 b9 8e 37 eb ae 4a b7
       2.006301e-05 3.8010745e-05 1.7014201e-05 -1.20808645e-05
000120 4b 5c aa 37 16 69 41 b8 e8 03 69 b7 e3 ea af b8
       2.0308556e-05 -4.6112655e-05 -1.3888792e-05 -8.388401e-05
000130 d8 7d 96 37 b4 02 79 b7 4e 31 80 37 ae ed be b8
       1.7939994e-05 -1.4842186e-05 1.5281748e-05 -9.104177e-05
000140 46 f1 73 b8 ed f5 55 b8 5c fa 91 b5 93 c2 69 b8
       -5.8160418e-05 -5.1012194e-05 -1.0876206e-06 -5.573274e-05
000150 71 88 84 37 79 31 c4 b7 c2 c4 21 b8 2a 97 9e 37
       1.5799162e-05 -2.3388058e-05 -3.8568636e-05 1.8905459e-05
000160 e8 98 7c b8 82 50 3d b8 4a dc 54 b7 e4 d2 8f 37
       -6.0223887e-05 -4.513609e-05 -1.2687475e-05 1.7145132e-05
000170 34 41 99 b8 18 c0 94 b7 f8 81 18 b8 91 aa 4a b7
       -7.3077535e-05 -1.7732425e-05 -3.6360667e-05 -1.2079851e-05
000180 c9 79 ad 37 6d c6 ff b7 3e e9 fa 37 8b 72 45 b8
       2.0679918e-05 -3.0490768e-05 2.9910934e-05 -4.7075137e-05
000190 c5 ce 05 b9 b8 26 99 b8 e2 10 67 b8 04 8d c4 38
       -0.00012760896 -7.3028204e-05 -5.5090415e-05 9.3722745e-05
0001a0 ce fe 6e 38 83 d9 c8 b8 9b 94 41 39 cc ad 3a 39
       5.6980927e-05 -9.577258e-05 0.00018461274 0.00017803087
0001b0 d6 1e 45 b9 98 f8 bd b8 45 3d 53 b8 b3 aa 08 39
       -0.00018798871 -9.0585265e-05 -5.0363382e-05 0.00013033561
0001c0 e7 d5 0f b9 80 01 16 39 00 e0 49 38 84 18 4e b9
       -0.00013717228 0.00014305674 4.813075e-05 -0.00019654824
0001d0 c3 b6 b5 b8 ac da 4f b9 16 8e 8b 38 57 b5 8d b8
       -8.6647946e-05 -0.0001982252 6.654502e-05 -6.757181e-05
0001e0 16 aa 3f 38 55 c6 8a 38 00 db 68 38 b9 9b a1 38
       4.5696353e-05 6.617295e-05 5.551707e-05 7.706084e-05
0001f0 68 3c 85 b7 bd 27 1b b9 1f 4e 4f b9 4d 37 05 b9
       -1.5882964e-05 -0.00014796756 -0.0001977016 -0.0001270447
000200 fd 81 ac b8 f0 21 b0 38 18 98 a6 b8 16 8e 5b 38
       -8.225811e-05 8.398655e-05 -7.9438265e-05 5.2345997e-05
000210 65 95 51 b9 d0 37 b4 b8 ca 4f 62 38 b3 e6 01 b9
       -0.00019987447 -8.593465e-05 5.395691e-05 -0.00012388341
000220 6e aa df 38 60 24 c8 38 f8 6b 68 38 c6 fd 10 b9
       0.000106652136 9.5435185e-05 5.5413664e-05 -0.00013827448
000230 90 d9 3d b9 3a 08 d3 38 34 6f 15 39 d7 74 59 38
       -0.00018105493 0.00010062796 0.00014251174 5.1845647e-05
000240 08 e1 f5 38 ac 83 7b 39 cc cb 10 38 c0 51 29 b9
       0.00011724426 0.00023986277 3.4522076e-05 -0.0001614755
000250 32 2c 90 b9 cb a7 c9 38 a3 c9 e8 b8 88 2b 19 b9
       -0.00027498748 9.615681e-05 -0.0001110018 -0.00014607434
000260 a8 ae e3 38 b4 c8 75 38 7a e3 04 b9 7e 97 ee 38
       0.00010856736 5.859947e-05 -0.00012673243 0.00011376942
000270 25 4f 83 b8 7e 44 0b b9 90 45 6a b7 fa 80 4f b9
       -6.2613086e-05 -0.00013281588 -1.3963683e-05 -0.00019789106
000280 c8 f9 a9 b8 be b5 c5 b8 f4 a3 7d b8 81 84 02 b9
       -8.105073e-05 -9.427544e-05 -6.0472594e-05 -0.00012447128
000290 de 9d d1 b8 53 95 af b8 7c 33 f8 b8 60 5d 46 39
       -9.995302e-05 -8.372464e-05 -0.00011835151 0.00018917536
0002a0 de 31 85 b8 c2 8d 02 b8 9b 1f b2 b8 d4 f7 4a b9
       -6.351223e-05 -3.1126438e-05 -8.4935884e-05 -0.00019356544
0002b0 a7 b4 d0 38 cc 1e 3a 37 68 28 7b 38 67 0a 48 38
       9.951862e-05 1.1093634e-05 5.9880695e-05 4.7693404e-05
0002c0 1c c6 2b 38 90 43 33 38 40 aa 32 39 1b 9d 4e b9
       4.095408e-05 4.2739848e-05 0.00017038826 -0.00019704217
0002d0 99 9a 07 b9 0c d8 bb 38 fa c1 11 b9 21 b2 12 b9
       -0.00012932195 8.957097e-05 -0.0001390054 -0.00013990003
0002e0 ae a2 90 38 60 84 6f b8 32 4a 0c b9 a0 c2 67 b9
       6.8967565e-05 -5.7105324e-05 -0.0001337908 -0.0002210238
0002f0 e2 fd 89 38 5a b5 2c b9 59 75 7a b8 ee ec 8a 38
       6.5799584e-05 -0.00016470757 -5.9713933e-05 6.6244844e-05
000300 c7 7d 74 b8 3d a8 e1 b8 f7 3f 57 b9 36 4b 62 b8
       -5.8291273e-05 -0.00010760173 -0.00020527827 -5.3952645e-05
000310 40 ab 32 b6 04 45 55 38 9e 16 56 b8 4c b1 a1 b8
       -2.6623748e-06 5.0847433e-05 -5.104264e-05 -7.710102e-05
000320 55 f6 ad b8 81 af 5c b8 b9 13 c4 38 12 82 7e b8
       -8.295166e-05 -5.2615538e-05 9.349682e-05 -6.0679457e-05
000330 20 0a 79 36 5f 55 14 b9 ac 18 4c 39 9a 6a ba b8
       3.7109785e-06 -0.00014146183 0.00019464147 -8.889027e-05
000340 d2 8e f2 b8 78 fd 74 b8 47 0a d1 38 fe be 73 39
       -0.000115660616 -5.8410194e-05 9.967811e-05 0.00023245436
000350 01 2e c3 38 fa 49 97 b8 d0 7d 2a b7 52 78 e0 37
       9.3068935e-05 -7.21402e-05 -1.0162083e-05 2.675891e-05
000360 90 c2 8e b8 e6 81 22 39 f0 b6 90 b8 dd 3b 31 39
       -6.807328e-05 0.00015497915 -6.90053e-05 0.00016902336
000370 d4 f8 b4 b8 91 67 c5 38 b0 4c 31 b8 d3 99 c2 b8
       -8.629417e-05 9.412983e-05 -4.227151e-05 -9.279293e-05
000380 e9 6b f3 b8 6a dd 3a 38 ca f5 3e b9 2c 0e 36 38
       -0.00011607243 4.4552064e-05 -0.00018211376 4.340538e-05
000390 78 b7 da b8 94 b0 de b8 b0 06 ad 37 60 f1 4e 37
       -0.00010429224 -0.00010618675 2.0626321e-05 1.2334756e-05
0003a0 60 29 43 39 52 cc 31 b9 5d 03 f0 b8 fd 2d eb b8
       0.00018612063 -0.0001695615 -0.00011444718 -0.00011214239
0003b0 fe c9 7b b8 3a 10 ce 38 da 54 6d 38 78 d8 53 38
       -6.0031183e-05 9.825868e-05 5.6584227e-05 5.0507922e-05
0003c0 32 99 2d 39 02 10 8d b8 fb 8a 82 b9 8c de ec b8
       0.00016555635 -6.7263856e-05 -0.0002489908 -0.000112948095
0003d0 d8 e9 72 38 16 a2 11 38 5e 47 c4 38 7a 69 66 39
       5.791508e-05 3.472165e-05 9.3593015e-05 0.00021973802
0003e0 be 5e a9 b9 00 fe 18 b9 79 f2 18 38 82 5f 77 39
       -0.0003230478 -0.00014590472 3.6465444e-05 0.00023591335
0003f0 c8 24 2b 38 18 1c 11 b9 9e 9f d0 38 eb 13 d0 b8
       4.0803832e-05 -0.00013838743 9.947944e-05 -9.921923e-05

conv.9.bias f4 [32]
000000 90 24 3c ba 26 54 1c b9 84 cc 42 ba e9 9a ac b9
       -0.0007177079 -0.00014908667 -0.0007430988 -0.00032921814
000010 17 d0 96 b9 c9 21 9a b9 81 92 aa b9 02 79 d5 3b
       -0.00028765269 -0.0002939834 -0.0003253408 0.0065146694
000020 7c 20 b6 38 1e 55 0a 3a 10 ea c8 b5 f1 5e 30 37
       8.684487e-05 0.00052769657 -1.4969282e-06 1.0512523e-05
000030 10 2c a3 b9 30 be 4e 3c 01 26 a8 3b 0f 50 05 3c
       -0.00031122612 0.012618586 0.0051314835 0.008136763
000040 13 11 e4 3b 04 8f 45 b7 fa 7b b4 37 bf e6 36 ba
       0.006960043 -1.1775413e-05 2.1515403e-05 -0.0006977133
000050 b8 17 b7 36 c2 ad bd ba 93 ca 1c 3b 9c 42 28 3c
       5.456586e-06 -0.001447134 0.0023924455 0.010269787
000060 3f 4c 8a b7 29 69 c9 3b d1 75 af bb dc d7 be b9
       -1.6486387e-05 0.0061465693 -0.005354621 -0.00036400452
000070 0c ce 10 37 f7 ed 17 b8 c6 39 92 b6 0b d8 38 b8
       8.631043e-06 -3.6222827e-05 -4.357865e-06 -4.4070224e-05

lin.0.weight f4 [64, 32]
000000 1e e6 89 0b 19 f4 d2 8e cb b8 56 0d 2c cc 9a 89
       5.311672e-32 -5.2004054e-30 6.616628e-31 -3.7266154e-33
000010 ef 36 df 93 1b fc 4c 15 e3 e9 19 07 ca 04 14 97
       -5.6347283e-27 4.1396348e-26 1.1579174e-34 -4.7827424e-25
000020 da 5d 1b 8d 0e 9c 69 94 c6 6b 93 90 c1 db 86 93
       -4.787603e-31 -1.179427e-26 -5.814733e-29 -3.404305e-27
000030 a8 26 e9 87 d8 de 88 97 5a 0e 72 95 ce 87 3c 97
       -3.5080664e-34 -8.845048e-25 -4.8882832e-26 -6.0917486e-25
000040 68 61 04 97 3d 7a 5d 92 05 8f 3f 0e 1e 3f bf 09
       -4.2774444e-25 -6.9885974e-28 2.3611429e-30 4.6040933e-33
000050 cd 4d c2 93 e2 b7 fb 14 ca 44 56 96 05 c6 6a 97
       -4.9049202e-27 2.5417052e-26 -1.7308488e-25 -7.5859414e-25
000060 ff 95 34 12 9f 58 a1 96 d9 a1 a1 89 b0 2e 05 87
       5.698287e-28 -2.606688e-25 -3.891154e-33 -1.0019528e-34
000070 ec d8 7a 92 39 7a c5 91 8e 36 84 91 88 f4 a4 91
       -7.9153467e-28 -3.1156445e-28 -2.085955e-28 -2.6025342e-28
000080 c4 76 3b 3b 18 6b 12 39 37 f4 8e 3a 3c 51 2f 3b
       0.0028604725 0.0001396354 0.0010906522 0.00267513
000090 74 8c b3 bb b7 2f 17 bb f1 2e 10 3a cc 9f c0 bc
       -0.00547939 -0.0023069212 0.0005500159 -0.023513697
0000a0 b2 fd 82 b8 ed 01 86 bc dc b4 81 b6 d6 98 9a b7
       -6.2461375e-05 -0.01635834 -3.8655544e-06 -1.84294e-05
0000b0 7f aa 95 3a d0 4e 2d be 8f 82 b0 3e 55 87 d0 bc
       0.001141861 -0.16924596 0.34474608 -0.025455156
0000c0 64 fc b6 b9 ff b6 0f 39 96 73 20 b7 03 c5 ba bb
       -0.0003490179 0.00013705714 -9.563655e-06 -0.005699755
0000d0 33 29 0a 39 78 2e 25 be 6e 8c 31 3b b8 30 f7 bd
       0.00013176053 -0.16131008 0.002709176 -0.12069839
0000e0 02 6f 4d 38 0a f0 85 3e 4e ec c8 3a c4 31 d5 39
       4.8979193e-05 0.26159698 0.0015329213 0.00040663604
0000f0 2c 48 17 b8 60 fd 55 39 68 be 09 37 3d 3e d2 b7
       -3.606842e-05 0.00020407652 8.210169e-06 -2.5062933e-05
000100 0b 26 b1 bb f6 f4 0e b9 74 ea 90 ba 77 a2 f0 bb
       -0.0054061464 -0.0001363343 -0.0011056201 -0.007343586
000110 72 17 2b bc fd fe 23 3b 8c 28 8f ba 72 6a 0d 3d
       -0.0104426015 0.002502381 -0.0010922118 0.034525342
000120 2a d6 62 38 c8 47 1c bc c6 08 35 36 e1 1e 64 37
       5.4082055e-05 -0.009538598 2.6976209e-06 1.3597049e-05
000130 a0 f8 a8 ba 7d 90 b4 3d 4c 61 9f be 0b 3b 3b 3d
       -0.0012891479 0.088166215 -0.3112892 0.045710605
000140 ca 1c f0 bb 78 ae 1f b9 96 94 f7 37 a2 9e 1c bb
       -0.0073276507 -0.00015228416 2.9513885e-05 -0.0023898263
000150 2a 29 42 b9 45 c0 17 3e 99 85 11 bc 04 f4 95 3d
       -0.00018516617 0.14819439 -0.00888195 0.07321933
000160 b2 1d 3d b8 41 b3 6c be aa 94 97 ba de 9e 63 bb
       -4.5088767e-05 -0.23115255 -0.0011564691 -0.0034732143
000170 e2 df ad 37 b0 40 6d b9 13 8a 36 b7 d0 84 3e 37
       2.072746e-05 -0.00022626179 -1.0880193e-05 1.1355805e-05
000180 53 2a 59 3c 3c 94 39 39 84 b5 9b 3a 3c 39 85 bb
       0.01325472 0.00017698196 0.0011879657 -0.0040656608
000190 4d f3 99 bb 8a 74 cd ba 66 e2 8b 39 34 37 e7 bc
       -0.004698193 -0.001567499 0.00026680826 -0.028224565
0001a0 a0 b1 50 b7 26 6e b5 bc dc 47 d3 b5 ae dc a5 b7
       -1.2439123e-05 -0.02214725 -1.5741639e-06 -1.9772295e-05
0001b0 60 9a 72 3a e4 bd 31 be 37 b5 e7 3e 21 b8 4c bd
       0.0009254571 -0.17357594 0.45255443 -0.049980287
0001c0 a9 89 c4 bc e1 21 06 39 30 a4 b5 38 74 09 68 3b
       -0.023991423 0.00012791857 8.661335e-05 0.0035406025
0001d0 2c 69 95 38 66 e1 59 be 19 36 02 bd 42 eb c9 bd
       7.1244634e-05 -0.21277389 -0.031789873 -0.09859325
0001e0 ba 98 8c 38 a8 bd a5 3e 1d 38 22 3b 29 54 dd bb
       6.704168e-05 0.3237126 0.0024752684 -0.0067544174
0001f0 93 25 2b b8 4c c8 67 39 30 5e 4c 37 7f 13 b3 b7
       -4.080457e-05 0.00022104493 1.2181277e-05 -2.1347541e-05
000200 76 15 87 3b 98 ac ef 38 00 bb 8e 3a e8 ef c7 3a
       0.0041224314 0.00011428556 0.001088947 0.0015253993
000210 9e f7 b6 3b 7d a1 40 bb 1e 5c 42 3a 85 83 a0 bb
       0.0055837175 -0.002939313 0.0007414239 -0.004898491
000220 06 18 05 b9 d3 9d d5 3b 47 a3 16 b7 92 7a a6 b7
       -0.00012692818 0.0065190583 -8.978713e-06 -1.9845818e-05
000230 75 55 d9 3a a4 2e 89 bd 50 92 1a 3e 20 69 68 3b
       0.0016581254 -0.06698349 0.15094876 0.003546305
000240 9e 26 0e 3b a4 34 b9 38 dd 03 2c b9 f0 6d 89 3a
       0.0021690498 8.8312925e-05 -0.00016404637 0.0010485034
000250 b9 4b 5d 39 85 0b 9d bd 56 f5 dc 3b e9 56 b6 bc
       0.00021104411 -0.07668213 0.0067431135 -0.022258239
000260 40 c9 2b 37 9b d6 e2 3d d8 6f 62 ba 5e 86 59 3a
       1.0239251e-05 0.11076089 -0.0008637882 0.00082979153
000270 2c d8 ff b7 08 55 66 39 8c 6b 7b 35 78 b4 39 36
       -3.0499032e-05 0.00021966186 9.366129e-07 2.7672195e-06
000280 9b c8 da 3a 28 4c 39 39 31 35 8c 3a 1d bf a9 39
       0.0016691865 0.00017671345 0.0010697005 0.00032376582
000290 d0 28 44 3b f6 b5 10 bb 8d 9a dc 39 4d 10 6f 3a
       0.0029931553 -0.0022081113 0.0004207682 0.00091195555
0002a0 e2 30 fe b7 be c0 64 3b c8 ba 49 b6 ea c5 74 b7
       -3.0301922e-05 0.0034904922 -3.0060055e-06 -1.4589614e-05
0002b0 18 9a 93 3a 37 d8 b2 bc d6 ff a0 3d 18 ef 2b 3b
       0.0011261133 -0.021831615 0.07861297 0.002623504
0002c0 2f 2e 2c b8 38 be 59 38 94 d8 60 b8 38 8c 49 39
       -4.1051007e-05 5.1913987e-05 -5.3607466e-05 0.0001922109
0002d0 b1 d3 a0 38 47 20 20 bd 30 52 72 3b 8d 68 8a bb
       7.668825e-05 -0.039093282 0.0036975257 -0.004223889
0002e0 e5 62 14 b7 d4 35 68 3d 3d 3d 81 ba de 85 f7 39
       -8.844513e-06 0.05669196 -0.0009860169 0.0004721125
0002f0 92 20 02 b8 b4 af 25 39 b1 5a 93 35 67 b4 50 36
       -3.102475e-05 0.00015801081 1.0978748e-06 3.1099423e-06
000300 8c 84 e5 99 a7 be 42 16 18 5b da 11 2c d8 4b 1a
       -2.373158e-23 1.5731354e-25 3.4450476e-28 4.2154038e-23
000310 fd e8 21 1a dd 91 a0 96 73 4f 00 97 b9 30 13 1b
       3.3482226e-23 -2.5941447e-25 -4.145931e-25 1.2175298e-22
000320 24 da be 13 2e 44 19 99 fd 64 01 8c 8c 8e 32 97
       4.8177846e-27 -7.923683e-24 -9.968189e-32 -5.769482e-25
000330 be 9e 07 0d 75 e9 96 1b c4 70 b6 19 af a1 71 1b
       4.1791166e-31 2.4966286e-22 1.8863905e-23 1.9987296e-22
000340 c5 7f 45 1b d8 ce 43 92 e3 3c 6d 93 cc a0 dc 18
       1.6336743e-22 -6.1786105e-28 -2.9943625e-27 5.703103e-24
000350 96 40 80 15 72 01 02 9a ee 47 90 1a d9 7a 4b 1a
       5.180069e-26 -2.6884537e-23 5.967321e-23 4.2078652e-23
000360 9e 88 ab 17 bc ed a7 1a 48 86 65 10 e4 b5 3d 92
       1.1085103e-24 6.945366e-23 4.5265733e-29 -5.986208e-28
000370 c8 6d b8 94 8e 54 f9 95 5c f0 bf 96 8c 56 42 07
       -1.8622553e-26 -1.007037e-25 -3.1009402e-25 1.4620372e-34
000380 f8 df 50 a0 c0 e6 2a ae 58 34 b8 af c9 f9 b4 94
       -1.769239e-19 -3.8858472e-11 -3.3506597e-10 -1.8273878e-26
000390 ac bc f9 25 e1 86 a7 a2 0e c5 9a ad 7b f1 83 b0
       4.3322464e-16 -4.540825e-18 -1.7595283e-11 -9.600137e-10
0003a0 90 07 15 ad 88 fc 43 ae c9 bc ef a9 fc 9f aa aa
       -8.471349e-12 -4.456216e-11 -1.0646481e-13 -3.0309078e-13
0003b0 62 59 70 26 2c b3 e8 af aa 1d 14 b0 ce ea 09 b0
       8.3387863e-16 -4.2327863e-10 -5.388424e-10 -5.0173987e-10
0003c0 9a a5 5a b0 ba 11 b5 ac 9a 1a a9 a8 f3 38 94 16
       -7.954327e-10 -5.1462975e-12 -1.8774306e-14 2.394663e-25
0003d0 62 3e 23 ac fb b6 0a af e6 36 77 af 1a 53 5f b0
       -2.3198323e-12 -1.2616035e-10 -2.2484023e-10 -8.124502e-10
0003e0 4e 08 2b ad b0 ce c9 af 99 96 12 27 87 8b 66 1e
       -9.722069e-12 -3.6708547e-10 2.034321e-15 1.2204952e-20
0003f0 d2 48 65 a9 c5 bf 35 a7 42 a3 84 a8 ea 70 51 a8
       -5.0911376e-14 -2.5222754e-15 -1.4725746e-14 -1.1626315e-14

lin.0.bias f4 [64]
000000 3e af 30 9a 7b cf fa 3d 14 68 9e 3d 06 6d b8 3d
       -3.6537506e-23 0.12246605 0.07734695 0.090051696
000010 65 68 a4 3d da 57 43 3d f6 89 ad b6 92 c0 3a b3
       0.08027724 0.047691204 -5.1718625e-06 -4.348164e-08
000020 79 76 7a 3b 7e 4d a3 b0 d3 fe f8 3d f5 88 2f 3e
       0.0038217588 -1.1881836e-09 0.12157979 0.17142089
000030 72 c1 71 3c d3 88 5d 3d b7 83 bf 3c 0c 27 a4 8f
       0.014755594 0.054085564 0.023378236 -1.6186689e-29
000040 35 a9 25 3e ed 94 6e b9 3a bb b8 92 08 85 e9 3d
       0.16177829 -0.00022752928 -1.1658187e-27 0.11402327
000050 fa b0 0c 3e 96 5f c8 3b f9 e9 ed b9 25 ab 8d 3d
       0.13739386 0.0061149104 -0.00045378486 0.06917409
000060 42 25 00 3e e6 b1 84 3d 23 b7 11 3e 49 37 9e b5
       0.12514213 0.06479244 0.14230017 -1.1788007e-06
000070 51 36 be 3d 8d 72 65 3d 0a 8c 81 9d f0 83 05 3d
       0.09287704 0.056017447 -3.4290813e-21 0.03259653
000080 10 9b 13 9b d3 65 5e 3a 22 ea d1 3d a3 a7 c8 3c
       -1.2209658e-22 0.0008483801 0.102497354 0.024493998
000090 1f d3 2a 3e 39 a6 ca ad 35 1c 95 3d 3a 61 12 3e
       0.16682099 -2.3038559e-11 0.07280771 0.14294901
0000a0 00 2c 5a 3c 70 dd 83 3c cc 75 a8 9a 5d 76 1b 95
       0.0133161545 0.0160968 -6.967348e-23 -3.1395373e-26
0000b0 d5 04 73 ba 29 8b 17 3e 65 04 c3 3d 69 34 c0 b9
       -0.00092704344 0.14799179 0.095223226 -0.00036660142
0000c0 33 03 03 9f a1 b9 10 bc ec 1f 07 3e a7 13 a3 39
       -2.7742975e-20 -0.00883332 0.13195771 0.00031104425
0000d0 25 41 56 3d 77 cd c5 3c 9a 37 1e 93 87 4e 13 3e
       0.05230822 0.024145825 -1.9969817e-27 0.14385425
0000e0 74 e9 d3 96 d2 dd 2b 3c 03 72 07 3d c0 6d 0b 3e
       -3.4236218e-25 0.010489898 0.033067714 0.13616085
0000f0 f9 94 db ad d5 dc 7a b5 86 f7 3e af 8b d2 78 ab
       -2.4963575e-11 -9.345361e-07 -1.7368337e-10 -8.8399486e-13

lin.2.weight f4 [32, 64]
000000 0d af 51 80 e4 9f c9 b0 7f d5 88 31 52 3f a8 b2
       -7.501472e-39 -1.4670118e-09 3.9823926e-09 -1.9586569e-08
000010 0d 6c 33 32 6e cb cb 31 2e ee 74 80 0a fe 29 00
       1.0443739e-08 5.931205e-09 -1.073836e-38 3.856387e-39
000020 db e2 2a 2f 47 fc 10 00 9e 8c 87 32 87 02 c3 32
       1.5542005e-10 1.559868e-39 1.5780014e-08 2.2702137e-08
000030 cb 54 f7 30 77 d2 f0 31 5f dc 62 31 48 47 99 00
       1.7995715e-09 7.0088464e-09 3.3012595e-09 1.4076402e-38
000040 9d f1 68 32 7c 27 87 30 60 1e 39 00 c0 6b 03 b1
       1.3559114e-08 9.833765e-10 5.24552e-39 -1.9124258e-09
000050 91 52 28 32 84 df 96 30 14 43 92 82 c0 ee 1f 32
       9.7976605e-09 1.0977463e-09 -2.1491273e-37 9.3093036e-09
000060 f5 f2 4e 32 c8 8d 31 b2 3b b1 9b 32 10 f3 39 8c
       1.204602e-08 -1.0334993e-08 1.812497e-08 -1.4325026e-31
000070 b5 8b 4d 32 78 fc 00 32 70 a9 41 80 51 10 e3 b0
       1.1964336e-08 7.507985e-09 -6.03009e-39 -1.6521061e-09
000080 7a 6b 2a 00 b2 46 86 b0 e8 c6 61 32 60 40 37 b1
       3.895646e-39 -9.769876e-10 1.314195e-08 -2.6666598e-09
000090 4f ad b7 32 3b 24 07 00 21 78 91 b2 c6 2c 61 32
       2.1382816e-08 6.55846e-40 -1.693485e-08 1.3106904e-08
0000a0 e3 5e d0 30 76 ec cf 2f 1a 01 19 00 db 21 0c 80
       1.516096e-09 3.7821096e-10 2.296283e-39 -1.114171e-39
0000b0 be 8b 2d 00 41 ca 17 32 a8 b1 0a 31 8f fc 0b 00
       4.182727e-39 8.835344e-09 2.018263e-09 1.100791e-39
0000c0 d4 0c 36 80 01 6d 28 00 b7 12 36 31 66 c8 25 2e
       -4.963719e-39 3.712523e-39 2.6495124e-09 3.7694646e-11
0000d0 32 98 1e b2 12 f1 32 31 34 84 d5 80 a3 ec a1 32
       -9.231416e-09 2.6039442e-09 -1.9608386e-38 1.8850477e-08
0000e0 41 4f 1b 80 78 9b b5 30 72 5d 94 31 ee a0 a3 b0
       -2.50799e-39 1.321367e-09 4.3179904e-09 -1.190555e-09
0000f0 2f 49 53 00 6e 7e 4d 80 cd 52 32 00 4a e9 1d 80
       7.6486e-39 -7.116688e-39 4.621478e-39 -2.746918e-39
000100 99 96 93 18 f3 db ac 3d 65 d3 df bd fc 30 03 3e
       3.8150674e-24 0.084403895 -0.10928992 0.12811655
000110 b0 03 8a 3d 13 20 f7 3c 63 39 2d 1d 64 db ae 30
       0.067389846 0.030166661 2.2926028e-21 1.2722521e-09
000120 82 57 90 be 42 5b 9c 2f fb 14 1e 3b 14 83 6f bd
       -0.28191763 2.8441077e-10 0.0024121392 -0.058474615
000130 03 db 3b be ac 8a b1 bd 10 43 1e be 7f 3f 78 8d
       -0.18345265 -0.08669028 -0.1545527 -7.649733e-31
000140 3e 9f dd 3c e6 f8 8f be ca c0 e0 90 c1 7a 22 3d
       0.027053472 -0.28119582 -8.864946e-29 0.03966785
000150 4b b9 ad bd e0 4e 81 be 84 4f 0a 1c a8 45 29 be
       -0.084826075 -0.2525549 4.576314e-22 -0.16530478
000160 f6 27 ad bd 23 50 bd 3d 8f 62 cb bd a7 01 21 2b
       -0.084548876 0.092438005 -0.09930908 5.7200983e-13
000170 af 6d b1 bd 5f a2 38 be 66 56 0a 80 83 eb 61 bd
       -0.086634986 -0.1803069 -9.49349e-40 -0.055156242
000180 d1 6f ce 9a 11 4c 9d be 0c 63 24 3e c3 0f 02 be
       -8.538025e-23 -0.30722097 0.16053408 -0.12701325
000190 56 f4 0c 3d de 57 64 2b dd db f0 bd 83 19 ee bd
       0.034412704 8.112381e-13 -0.117606856 -0.1162596
0001a0 9c 3e db 3d 3b dd 59 3e 07 64 c1 08 3f 3a ab 91
       0.10705301 0.21275799 1.1639281e-33 -2.701494e-28
0001b0 f0 32 36 95 36 54 de 3d c2 35 a9 3d ed f2 22 ba
       -3.679479e-26 0.10855906 0.082622066 -0.00062160083
0001c0 a8 12 d2 1e 4d 42 e2 b9 24 ac 85 bd 9c e7 98 be
       2.2242331e-20 -0.00043155477 -0.06526974 -0.29864204
0001d0 35 ba 2b be c3 89 63 be 68 d5 a1 11 04 e3 16 bd
       -0.16770251 -0.2222052 2.5532843e-28 -0.036837593
0001e0 a2 e6 91 14 d7 f1 77 be eb b5 be 3d 21 42 57 3d
       1.4732227e-26 -0.24213348 0.09312042 0.0525533
0001f0 71 84 1e 00 2f 88 bd 32 37 fd 3d 00 0c 4b 42 00
       2.802576e-39 2.2064425e-08 5.692802e-39 6.088064e-39
000200 a5 bf 0d 80 01 da a6 32 52 58 41 31 bf 32 b1 31
       -1.26261e-39 1.942408e-08 2.81354e-09 5.157147e-09
000210 00 28 43 32 ef fa 0c b2 f6 b1 13 00 f7 62 02 80
       1.1359589e-08 -8.206128e-09 1.808715e-39 -2.19173e-40
000220 11 ec 9c 30 73 68 00 80 d2 78 7b 32 13 c8 fd b2
       1.1417588e-09 -3.747e-41 1.4637594e-08 -2.954406e-08
000230 20 0b 2e b0 02 2e 89 31 fe 6d 7f b1 50 ea 0b 00
       -6.331664e-10 3.9924553e-09 -3.7169907e-09 1.094246e-39
000240 00 50 4f b2 86 eb 96 30 82 01 29 80 5d b0 55 32
       -1.2067176e-08 1.0980876e-09 -3.765796e-39 1.2438332e-08
000250 67 f8 c4 32 e7 9f c5 30 78 bb 0f 80 d5 09 e9 31
       2.2930363e-08 1.4379083e-09 -1.444784e-39 6.7823103e-09
000260 86 84 7e 32 46 c7 c0 32 de c3 24 32 df da 28 00
       1.4814878e-08 2.244236e-08 9.590591e-09 3.751936e-39
000270 f9 49 39 32 53 21 b6 31 32 65 09 80 27 05 94 31
       1.0785237e-08 5.3006857e-09 -8.62822e-40 4.3079527e-09
000280 e9 06 50 00 28 12 b8 af e5 a3 db b2 48 a5 ef b1
       7.349319e-39 -3.3482306e-10 -2.5569486e-08 -6.974606e-09
000290 20 23 6e 2f b3 f5 03 00 eb 95 a8 b2 ed a1 f1 31
       2.1658453e-10 3.63647e-40 -1.9625949e-08 7.032432e-09
0002a0 d5 9b 0e 31 bf 97 bf 30 bc f7 32 00 a2 25 16 00
       2.07523e-09 1.3940208e-09 4.680645e-39 2.033881e-39
0002b0 5b 19 0c 80 08 d6 f6 31 be 43 c4 b0 53 b1 41 18
       -1.111122e-39 7.183875e-09 -1.428013e-09 2.5034191e-24
0002c0 b5 98 15 80 f4 bd 1a 00 76 7e be 32 72 db 81 30
       -1.983326e-39 2.455865e-39 2.2176419e-08 9.448355e-10
0002d0 50 4c b8 31 95 c1 c9 b1 2d e6 47 80 61 64 6f b1
       5.3637805e-09 -5.8718777e-09 -6.602892e-39 -3.4836136e-09
0002e0 c5 6b b3 85 1c ab 28 b1 97 d1 97 31 10 80 ea 30
       -1.6872667e-35 -2.4544482e-09 4.418506e-09 1.7062138e-09
0002f0 d5 09 12 00 0b 78 a5 84 22 e3 23 00 49 0e 28 80
       1.656566e-39 -3.8901556e-36 3.295722e-39 -3.678544e-39
000300 ab 70 44 07 8b 8e 89 ae 01 e1 77 ae 2d 7f 89 ad
       1.4778511e-34 -6.2553594e-11 -5.636114e-11 -1.5631574e-11
000310 a5 81 92 ae 3c f7 88 2e 49 30 05 00 be 1a 7d 02
       -6.662341e-11 6.2284816e-11 4.76499e-40 1.8595179e-37
000320 f0 c6 21 2d df 3d 2c 00 14 0e ba ae eb fb 1e af
       9.1959634e-12 4.062957e-39 -8.4608015e-11 -1.4459516e-10
000330 f8 1b 77 ad ea da da 2d 35 0f bc ad e0 05 3e 00
       -1.4046535e-11 2.4880948e-11 -2.1379879e-11 5.695908e-39
000340 b9 c8 10 af 95 69 a0 ac ee 49 2b 80 93 74 3d ae
       -1.3168035e-10 -4.5591955e-12 -3.975447e-39 -4.3077163e-11
000350 bc 80 fd ae 2f ae d2 ac 2a 61 28 00 1d 5a 30 ae
       -1.1527976e-10 -5.9878972e-12 3.708276e-39 -4.0097804e-11
000360 45 c6 b5 ae 9e 52 67 ae 9c fd 03 af e1 f7 24 80
       -8.266147e-11 -5.2596698e-11 -1.2004481e-10 -3.395e-39
000370 d4 ab aa ae 67 43 3a ae 2e 4a 00 80 2f e0 eb ad
       -7.761228e-11 -4.235137e-11 -2.661e-41 -2.6815964e-11
000380 21 54 0a 82 b4 50 65 ab c4 b6 22 2d 5e ff 66 2e
       -1.0162783e-37 -8.146914e-13 9.249216e-12 5.2522757e-11
000390 24 10 14 af 03 b2 15 1a ee 8a 73 2e 8e 4b ff ae
       -1.3466256e-10 3.0956275e-23 5.5375197e-11 -1.1609479e-10
0003a0 e8 7c 06 ad 89 13 4c ad fc 36 4a 80 6d 06 19 00
       -7.644753e-12 -1.1600395e-11 -6.815551e-39 2.298193e-39
0003b0 de f0 89 00 0a 07 d4 ae 4e a7 0a ae 16 54 8d 24
       1.266787e-38 -9.641894e-11 -3.1526164e-11 6.129145e-17
0003c0 ce a7 10 80 83 d0 36 a2 b8 a9 f2 ae 39 e6 a7 ac
       -1.529565e-39 -2.4775985e-18 -1.1035034e-10 -4.7719853e-12
0003d0 8f b1 9e ad c3 d8 c3 ad da e5 39 80 5b 3c b9 ae
       -1.8041372e-11 -2.2265195e-11 -5.317078e-39 -8.423547e-11
0003e0 fc 60 53 00 26 09 24 ad cb fd 8b 2e ae bf fa ae
       7.657138e-39 -9.324352e-12 6.366071e-11 -1.1402733e-10
0003f0 fc b0 4f 80 7a 04 48 1e 58 ad 2e 80 2f be 0e 00
       -7.318494e-39 1.05888376e-20 -4.286617e-39 1.353922e-39

lin.2.bias f4 [32]
000000 68 f6 91 b3 64 e3 b2 3d fe 29 84 b3 96 fa e6 af
       -6.79691e-08 0.087347776 -6.154367e-08 -4.2014808e-10
000010 67 84 3c 3c d9 f2 51 3d e0 9e 73 3c f8 26 a5 b0
       0.011506177 0.05125699 0.014869422 -1.2016406e-09
000020 bf 27 1f 8e 5f 6a a5 3d d3 64 30 b6 85 78 cd 3d
       -1.96174e-30 0.08076929 -2.628473e-06 0.10032753
000030 19 df 99 3d 99 0d 52 3d 12 4b 0a ab 6a 6f 02 af
       0.075132556 0.0512825 -4.913163e-13 -1.1863013e-10
000040 c6 19 a1 b7 6f c3 e4 3c 07 97 9f 3c 09 51 a1 3d
       -1.9204697e-05 0.027925221 0.019481195 0.07876784
000050 54 d9 5a bc 97 f0 3e 3c e1 3e c0 b9 5d e0 8b a1
       -0.013357479 0.011654041 -0.00036667942 -9.478395e-19
000060 a1 90 6f 3d c1 19 4b 3d 6d a9 b2 9d 40 d9 d3 a3
       0.05848754 0.049585108 -4.729139e-21 -2.2968675e-17
000070 84 a7 4b ac c9 e5 6c 3d 90 30 e1 3d 4b 0f 90 bd
       -2.8941025e-12 0.057836328 0.10995591 -0.07034167

lin.4.weight f4 [16, 32]
000000 96 27 3f 00 f4 8d 25 0a c3 4c 2e 00 c8 b5 51 00
       5.799837e-39 7.9711594e-33 4.25197e-39 7.503886e-39
000010 90 68 b5 08 f2 6a 9d 0a 30 54 07 09 c1 38 1e 00
       1.0918124e-33 1.5158778e-32 1.6289619e-33 2.775424e-39
000020 6e f1 20 00 7a a6 86 09 ff 55 3d 80 f3 52 d9 0a
       3.025345e-39 3.241588e-33 -5.632815e-39 2.0927542e-32
000030 38 61 92 8a 1e f0 18 89 74 58 0e 01 4f 98 2f 00
       -1.4095858e-32 -1.8409237e-33 2.6144743e-38 4.370906e-39
000040 47 a1 00 00 e0 b3 54 08 f9 fc 38 0a 56 c3 c2 09
       5.7855e-41 6.400787e-34 8.9068566e-33 4.6887494e-33
000050 05 2b 2d 09 1a 19 aa 89 a1 95 15 00 81 8c 0d 80
       2.0844345e-33 -4.0949617e-33 1.982222e-39 -1.244265e-39
000060 31 af f0 09 10 a3 50 0a 3d 15 4a 80 c1 b0 52 00
       5.7942648e-33 1.0045504e-32 -6.803446e-39 7.593918e-39
000070 5c 8b 1b 00 4a 56 b4 09 86 cb 6b 0a 26 23 af 87
       2.529551e-39 4.341457e-33 1.1353117e-32 -2.6351732e-34
000080 66 bb 69 b1 57 d0 81 3e 6c fe 88 b1 52 19 20 2d
       -3.4012486e-09 0.25354263 -3.9870454e-09 9.100569e-12
000090 50 58 82 3e 5f bf 5f bd 0f 1c 4c 3e ec 92 f0 a6
       0.25458002 -0.054625865 0.19932579 -1.6693169e-15
0000a0 1d 5e a2 8c 4b f5 75 3e 42 ec 90 0a 40 23 b4 bd
       -2.5016694e-31 0.24019353 1.3955566e-32 -0.08795786
0000b0 7f 17 55 be 4f e9 a5 3d 23 fa 35 00 98 33 16 00
       -0.20809744 0.08101141 4.957013e-39 2.038889e-39
0000c0 45 9e 50 29 77 f1 8e 3e 7e 3e 66 be f1 db 10 be
       4.6322555e-14 0.27918598 -0.22484776 -0.14146401
0000d0 61 ee 5d 3e 0a 3b 74 be 10 fa 1d b3 a5 4a 29 1e
       0.21672966 -0.23850647 -3.678184e-08 8.962222e-21
0000e0 22 9f 8b be e0 c5 37 3e 9e 05 3a 80 3c 7c 37 00
       -0.27269846 0.17946577 -5.328474e-39 5.095519e-39
0000f0 03 3b 22 aa 86 13 82 3e 2b 77 90 3e e2 88 a9 3e
       -1.4408964e-13 0.2540552 0.28215918 0.33112246
000100 38 8f 2f 00 6c 3c 25 00 7d e8 16 00 18 f5 13 80
       4.367646e-39 3.419589e-39 2.103782e-39 -1.832797e-39
000110 22 1c 42 00 f0 f4 4c 80 bc d3 12 80 8f 8e 03 80
       6.071235e-39 -7.067365e-39 -1.728995e-39 -3.26647e-40
000120 fc c6 44 00 da 08 19 00 43 92 1b 00 d0 ed 18 00
       6.316196e-39 2.299063e-39 2.532027e-39 2.289363e-39
000130 90 5b 27 80 67 7e 16 00 41 eb 21 80 e0 df 51 80
       -3.614431e-39 2.065726e-39 -3.114965e-39 -7.518986e-39
000140 91 8e 0e 80 01 a2 2a 00 e7 b3 3d 80 d1 8b 18 80
       -1.33684e-39 3.915207e-39 -5.666502e-39 -2.254209e-39
000150 54 8b 14 80 33 97 0a 80 dc be 40 00 2c fa 21 80
       -1.886691e-39 -9.72595e-40 5.945939e-39 -3.120316e-39
000160 92 f6 17 80 8d 3a 29 80 95 54 46 00 5a 4e 06 80
       -2.200669e-39 -3.78626e-39 6.458827e-39 -5.7912e-40
000170 92 0c 49 00 a5 ef 44 00 34 fc 41 00 7f 80 1c 80
       6.7085e-39 6.330782e-39 6.05978e-39 -2.61749e-39
000180 9a 3a 09 b1 7f 9a a8 be 40 8f 83 31 41 20 23 ac
       -1.9969435e-09 -0.3293037 3.8288874e-09 -2.3181598e-12
000190 43 22 b6 be aa 9b 97 3e 9b 61 94 be 15 76 10 a8
       -0.35573015 0.2961095 -0.28980717 -8.019211e-15
0001a0 26 d8 93 0b 7c 3f 85 be f0 35 43 26 99 47 66 3e
       5.6947564e-32 -0.26024997 6.7727315e-16 0.2248825
0001b0 18 ae 81 3e 9c 3d 75 bd 28 94 06 00 97 3a 05 00
       0.25328135 -0.05987321 6.04161e-40 4.80196e-40
0001c0 8e e1 db 28 e1 8b ae be 99 e8 80 3e 55 b5 4a 3e
       2.4411703e-14 -0.34091094 0.25177458 0.19795735
0001d0 e3 2d 92 be b4 38 91 3e d2 10 82 37 e6 7d 6e 9e
       -0.28550634 0.28363574 1.550504e-05 -1.262565e-20
0001e0 94 51 95 3e a5 3d 3e bc e9 8f 05 80 e7 3a 54 00
       0.29163802 -0.011611377 -5.10803e-40 7.735312e-39
0001f0 88 fc 83 2a bd 3a 78 be a1 c5 24 be 52 4b ca be
       2.3445503e-13 -0.24241157 -0.16091014 -0.3951059
000200 5b 46 11 b1 88 ae 5d 3e 2d 02 16 b3 d1 db 0e 2d
       -2.114027e-09 0.2164861 -3.4926575e-08 8.1205745e-12
000210 da 79 55 3e 7f 78 25 be 6a 6f 31 3e b6 4b d1 26
       0.20847264 -0.16159247 0.17327657 1.452281e-15
000220 69 83 5f 8c c5 c8 3d 3e 1d b9 0f 80 77 f5 03 be
       -1.721884e-31 0.18533619 -1.443939e-39 -0.12886606
000230 88 85 31 be 28 e8 ea 3d 3a f0 34 80 9b 4b 08 00
       -0.17336094 0.114700615 -4.861623e-39 7.61806e-40
000240 4a 90 a7 28 04 20 63 3e 96 f9 34 be 8c bd c3 bd
       1.86033e-14 0.22180182 -0.17673334 -0.095576376
000250 94 4f 53 3e 88 63 8e be 21 73 21 b1 6c 55 ec 1c
       0.20635825 -0.2781031 -2.3494027e-09 1.5639251e-21
000260 33 36 73 be 3e 7e d9 3d d8 7f 29 00 10 1c 30 80
       -0.23751144 0.10619782 3.811117e-39 -4.418171e-39
000270 58 ec 60 a8 25 76 35 3e d6 10 3e 3e de 89 86 3e
       -1.2485747e-14 0.1772085 0.1856111 0.2627706
000280 e4 f4 00 00 6a d9 40 20 42 13 a4 00 a9 7b 1a 80
       8.785e-41 1.6334969e-19 1.506793e-38 -2.432084e-39
000290 b4 49 ed 20 e0 1b c9 21 9e f9 13 a0 50 f0 4a 8e
       4.0198134e-19 1.3627668e-18 -1.2533976e-19 -2.5014129e-30
0002a0 71 f6 0c 00 e6 0f 57 9f 55 ed 0b 00 cc f9 65 a2
       1.190432e-39 -4.5541172e-20 1.095329e-39 -3.1167529e-18
0002b0 26 aa 87 a2 37 bd 0c 22 0e 0e 30 00 8d 6b 24 80
       -3.6771975e-18 1.9073708e-18 4.413146e-39 -3.34466e-39
0002c0 e7 e3 05 10 e2 4f ee a0 c8 22 bd 21 2c 12 08 a2
       2.6405195e-29 -4.037163e-19 1.2816345e-18 -1.8441057e-18
0002d0 35 d8 b2 20 86 3f af 21 53 cf 42 80 e8 8f 17 00
       3.0297447e-19 1.1875276e-18 -6.135517e-39 2.16384e-39
0002e0 ba 55 9f 21 31 5a be a1 c7 a9 2d 00 10 92 21 80
       1.0796951e-18 -1.2898774e-18 4.193502e-39 -3.082969e-39
0002f0 69 62 6f 80 c0 56 5c 9f 1e ba e6 a1 5f c5 23 a0
       -1.0229043e-38 -4.665857e-20 -1.5634671e-18 -1.3871942e-19
000300 e9 01 8a 31 30 61 78 be 20 c0 ad 32 86 6e a2 2b
       4.0165458e-09 -0.24255824 2.0227219e-08 1.1541469e-12
000310 9c 78 70 be a1 9b b5 3d 3f 69 4d be 13 78 1a 28
       -0.23483509 0.088675745 -0.2005968 8.574754e-15
000320 fc 71 bf 8d b3 f3 51 be ea b7 ce 09 da d4 f4 3d
       -1.1798725e-30 -0.2050312 4.9765648e-33 0.11954661
000330 6b bf 9d 3d 8e 6a a6 bd de 4d 2b 00 46 0a 0a 00
       0.07702526 -0.081257924 3.97686e-39 9.2204e-40
000340 bc e4 5b a7 e9 63 79 be 0f 23 f3 3d cc 37 d3 3d
       -3.0516352e-15 -0.24354519 0.11871921 0.10313377
000350 f7 85 5e be 7a 75 53 3e da 66 a1 34 59 96 5a 9e
       -0.21730791 0.20650283 3.006342e-07 -1.1571915e-20
000360 d4 9e 40 3e ba a3 88 bd db b0 4b 00 e7 e6 19 80
       0.18810588 -0.06671853 6.951106e-39 -2.37872e-39
000370 cc f8 3e 27 d6 db e9 bd 2f 77 de bd 17 f3 8c be
       2.650267e-15 -0.114188835 -0.10862576 -0.27529213
000380 13 32 e9 30 1b 82 b3 3e 24 a0 89 b1 a4 28 f0 2c
       1.6967213e-09 0.350602 -4.0054307e-09 6.8257223e-12
000390 76 74 b4 3e 5b 22 6e be a7 7c 93 3e 43 3d 1e a8
       0.35245103 -0.23255293 0.2880604 -8.784046e-15
0003a0 5a 34 7b 0b c0 9a 7e 3e 13 33 e6 a2 00 0c 7a be
       4.8380227e-32 0.2486372 -6.23957e-18 -0.2441864
0003b0 ce 82 7f be fc 37 82 3e fd 8e 12 00 2a cc 3c 00
       -0.24952242 0.25433338 1.704333e-39 5.58337e-39
0003c0 b0 cc 85 29 8c a1 9c 3e 3a be 5b be d9 d7 b8 bd
       5.941894e-14 0.30592 -0.21459284 -0.09025545
0003d0 ac ab ae 3e 2e e2 de be d8 44 0c b7 dc 8f 89 1e
       0.3411535 -0.43531936 -8.360679e-06 1.4564938e-20
0003e0 cf b9 d1 be d1 25 53 3e 22 f3 02 80 e5 cb 1c 80
       -0.40962073 0.20619895 -2.7089e-40 -2.644537e-39
0003f0 d0 5c 8c 29 04 43 82 3e bf 59 8d 3e 54 0f a9 3e
       6.2333493e-14 0.25441754 0.27607533 0.33019507

lin.4.bias f4 [16]
000000 a0 da 10 8b 12 ce 0b 3e 3f a3 b8 9d 17 bb 1e bc
       -2.7897866e-32 0.13652828 -4.8873187e-21 -0.00968816
000010 70 b9 d8 3d 72 ab 31 ac 81 d3 26 3d c2 c5 00 3e
       0.105822444 -2.5248384e-12 0.04072905 0.12575439
000020 ee 74 4b 86 1e 34 ac 3d 3b 93 d9 3c 98 64 c7 a8
       -3.8265963e-35 0.08408378 0.026559463 -2.2137064e-14
000030 dc 1c 55 04 ac 92 e0 3d 8b e5 1b 3d 49 bb c3 b9
       2.5051281e-36 0.109654754 0.038060706 -0.00037332837

lin.6.weight f4 [1, 16]
000000 63 8d 88 0a 0d e0 d1 3e 04 12 38 80 91 e6 34 bf
       1.3149507e-32 0.4099125 -5.14925e-39 -0.70664316
000010 86 24 bd 3e a9 97 a7 b0 2e 9a fa be 62 0e 26 3f
       0.36941928 -1.2193954e-09 -0.48945755 0.64865696
000020 9d 46 d8 85 48 25 1f bf aa 01 2d bf 9c 0f 51 27
       -2.0338482e-35 -0.6216626 -0.67580664 2.9013038e-15
000030 78 87 1e 84 2e 10 10 bf 28 fa 16 3f 41 ea 5e b9
       -1.8635015e-36 -0.5627469 0.5897546 -0.00021258836
