sim/models/round_about8001.onnx (onnx, 68786 bytes, 13 tensors)

conv.0.weight f4 [4, 1, 5, 5]
00000000: 3641 543d 9cd6 f9bd 39a0 013e 0973 d33d
00000010: 8c0d 6ebd 5f9f fb3d 29ab 97ba cdee d63d
00000020: e2d2 ee3d ba40 ee3d 29e0 86bd eff2 febd
00000030: a45d 3fbd a337 883d 5af9 233d c84a 44bd
00000040: e641 a4ba ac05 e4bc 700a 843d 0d4e fdbd
00000050: fc17 aa3d 8caa 27bd f5b7 b93d 0be1 a1bb
00000060: a7fa 06bc d45d ddbd 9f3d a1bd 83d4 c83d
00000070: 039c 92bb 4652 db3d e48d 3c3b 5e44 09bd
00000080: c522 843d fa6c e23d f949 82bd 27c3 483d
00000090: ab0c ff3d 5860 5dbd e852 5bbb ed43 babd
000000a0: a2c1 a8bd 6cd6 b33d 0221 693d 3114 5b3d
000000b0: 8263 c7bd 0abb afbd b435 67bd f965 53bd
000000c0: b2c1 68bb 2d4f e3bc f3a6 d0bd c7e5 c63b
000000d0: 4ffc b9bd 5057 21bd 1a54 213d f8f9 14bd
000000e0: 8863 d9bc 804b ffbd 6e1b b23c e4d0 8ebb
000000f0: 5521 1fbd 7860 2c3c 83fd 743d edfa afbc
00000100: 36bb bbbd f52d 373d ebb1 87bd e514 d7bb
00000110: f614 eebd a209 07bc a416 733a 0b17 12bd
00000120: 9d5d d73d 47af 1dbc af5d c1bd 0055 48bd
00000130: 4b47 f23d 96d5 773b 5e43 493d 0dd5 7abd
00000140: 1360 073d 6a1e a4bb 673b cf3a 7799 49bb
00000150: d583 19ba ad85 a03d b17c 573c 40ad ca3b
00000160: 4b74 8d3d be76 c63d e24d e83d ccd7 853c
00000170: 611c 7ebd 4ff0 ad3b cd92 803a fe54 d03d
00000180: ed9d 7b3c 2925 40bd 8994 623d 16b6 b83b
0.051820002 -0.121991366 0.12658776 0.103246756 -0.058118388 0.12286257 -0.0011571395 0.104947664
0.116613165 0.11633439 -0.06585724 -0.1244868 -0.046720162 0.06651237 0.040032722 -0.04792288
-0.0012531846 -0.027834736 0.06447303 -0.12368403 0.08305356 -0.04093413 0.0906829 -0.0049401573
-0.008238471 -0.10808912 -0.078730814 0.098061584 -0.0044741645 0.10709052 0.0028771097 -0.033512466
0.06451944 0.11055942 -0.063617654 0.049014237 0.12453588 -0.05404696 -0.0033466164 -0.09094987
-0.082400575 0.08781132 0.056916244 0.053486053 -0.097357765 -0.08580597 -0.0564477 -0.05161092
-0.0035515842 -0.027747715 -0.10188093 0.006069872 -0.09081327 -0.03938991 0.039386846 -0.0363712
-0.026536718 -0.12465572 0.021741595 -0.004358398 -0.038850147 0.010521047 0.05981208 -0.021481955
-0.09166567 0.044721562 -0.06625732 -0.00656377 -0.11625092 -0.008242043 0.0009273088 -0.035666507
0.10515902 -0.009624309 -0.09441697 -0.048909187 0.11830004 0.0037816516 0.049136512 -0.061238337
0.033050608 -0.0050085085 0.001581055 -0.0030761638 -0.00058561313 0.07837997 0.013152287 0.006185204
0.06906947 0.09690617 0.1134298 0.016338252 -0.062038783 0.005308188 0.0009809375 0.10172461
0.015357477 -0.04691044 0.055317435 0.0056369407

conv.0.bias f4 [4]
00000000: e040 a83d 9edc 963d 490b 91bd da5b 573d
0.08215499 0.07366298 -0.070822306 0.05257783

conv.3.weight f4 [4]
00000000: 11d2 6c3f 02c0 6c3f 12cd 6c3f 889f 6c3f
0.92508036 0.9248048 0.9250041 0.92430925

conv.3.bias f4 [4]
00000000: 4e36 133b bdc2 8d3b d3ee 43bb 04ad 0aba
0.0022462788 0.004326193 -0.002989699 -0.00052900636

conv.3.running_mean f4 [4]
00000000: e4e5 1042 5a97 ee40 3a3c f83c 5420 2142
36.224503 7.4559755 0.030302156 40.28157

conv.3.running_var f4 [4]
00000000: 0b7f eb43 6e1d a542 5865 f03d 224d f843
470.99252 82.55748 0.1173808 496.6026

conv.4.weight f4 [4, 4, 5, 5]
00000000: bc4e d03c bdcf e13b 27ad bb3b 950b f43c
00000010: e26b bc3c 7de5 f9bc 38ac 2e3c d3b3 633c
00000020: d15e 383c 5f6e d33c c1ea 04bc d7bd 603c
00000030: d06e 5a3c 5edf c93c 628a ad3c fa16 bbbb
00000040: 22ba 683c 7d8a bd3c 27a8 5c3c 33ec 763c
00000050: 789b 65bc 8b4f 4cbb e6e9 363c 1d26 b63b
00000060: ab6a cabc edac 8f3b d020 24bd a9c0 05bc
00000070: 40e2 8539 a15f 0f3d cd5d a5bc 7675 a7bc
00000080: ed88 98bc bad5 663c dd08 d8ba 6a1b bebc
00000090: de22 ee3b 5dac e8bc 902f 91bc 20a5 83bc
000000a0: 2bb7 aebc dcc2 b2bc ba19 b63c f3e4 2bbc
000000b0: 5536 923c ab69 f3bc b085 133d ea4a c8bc
000000c0: 728a 17bb 2121 813b e875 553b 4952 7f3b
000000d0: 2d9b 473d 0a9f 253c f666 87b9 760e f6ba
000000e0: f5f3 9a3c b277 ee3b e9c3 993c d0b1 583d
000000f0: dd26 ae3a c9b5 db3b 8a4b 92b9 0a48 73bb
00000100: 7f40 a33c 7a17 3b3d 0f07 ee3b 1662 113d
00000110: 0550 47bc 5180 a0bb 6b07 c73c 66ab 423c
00000120: 7455 c738 db7a 07bc 8074 883c ce85 c3bc
00000130: 46c4 983a d3cd c23c 98b9 d33c 1d02 4a3d
00000140: dbc3 04bd 16ae 13bb 7c0a 8bbc bdae 863c
00000150: f181 403d 4d30 75ba 9ac9 503b 14af 8a3c
00000160: cfd0 c33c 66aa cd3c 7e00 86bc 51aa ec3c
00000170: e6c8 2a3c 1b6c d33b 2b13 9cbc 51de b3bb
00000180: a412 0d3d e41c 343c 85e7 e43c f69a 8f3c
00000190: 8f8b 71bb 0b85 82bc 0fc4 143d fe5f 20bc
000001a0: 9d11 f1bc df4a 56bc 0a39 013c a5ed 343c
000001b0: ec9a 8238 660d 2e3d 8b89 d53c ce49 ce3b
000001c0: 5f96 c73c 24db 33ba 237d c83c 09f7 1f3b
000001d0: 1305 ed3c 0ab1 0d3c 1fe2 7b3c 19cc 40bc
000001e0: 85c1 39bc fdd8 ad3c c219 3f3d 9022 9d3c
000001f0: 66b2 31bb 93e7 56bc 5e5d 90bb cc9c a33c
00000200: c1e1 263d 7776 8e3c 5676 c03c 89bf a93b
00000210: db5f 823d b401 9bbc a568 8fbc d94f 5e3c
00000220: 5c20 03bd 5d8a 083d ffb5 f33b 5474 e8bc
00000230: c020 4a3c f413 feba 5899 cd3c 9a81 893b
00000240: 84f8 cc3c df37 7ebc f03e ec3b 88ff 1c3d
00000250: adb7 f53c ceb6 e83c eb11 22ba 42cf 26bb
00000260: 3db6 353d 843f a7bb cc3b ebba fc03 6b3c
00000270: a33c b93b ea47 9ebb 8669 833d 87ba 3c3d
00000280: 350d 363d 8a34 a73a d36b e9bc d104 f7ba
00000290: 3c76 323d e6f3 87bc b442 51bc fbb9 0dbd
000002a0: bcb1 c5bc 3989 833d c151 993c b3d7 0ebd
000002b0: dc14 923b f0f8 553a 38af d3ba 92b2 9aba
000002c0: ea7d 15bd eb2d 863c 1f81 3f3d 79ef 26bc
000002d0: 89f8 343c 9f63 683a 8ab2 65bc 3258 efbc
000002e0: 2166 b03c 7289 d63b 87af f23a 9419 3dbb
000002f0: 11c1 133c 4ac3 25bd 5b01 843c 393c 233d
00000300: 6020 8abb c008 31bc 7afb 7cba 9eb2 183c
00000310: 10fa 323b 998e 843c 2d12 663c 170b 9dbb
00000320: 3151 01bd e6a5 1cbb 2c13 3ab9 f1e1 eb3b
00000330: ab2c 313a 26c8 f339 bba5 6e3c f739 653c
00000340: 4419 5dbc 1c32 43bb 374c a039 1d22 cf3b
00000350: 90b4 5fbb c821 b5bc 77f4 4dbc d357 cb3a
00000360: 436f 953c ab59 0b3c f4cc 0c3a f863 783b
00000370: 36e0 1eba db65 9c3b a051 013d 6097 2bbd
00000380: f3ce 05bd b0fe 11bc 6a4d 08bd ccb3 193c
00000390: 555c 603c 9c22 4d3c 4acd ac3a 01cf 32bc
000003a0: dac0 9d3c 7e29 46bc 38c3 bd3b 033d 41bc
000003b0: 2b7f 92bc dd8e 323b 473d 78bc 9de2 e2bc
000003c0: d574 d0bb 875c 77bc 4318 283b 620f a4bc
000003d0: 6567 f5bb c4f1 363b 8364 c23b dee4 72bb
000003e0: 2e5f 813c 227b 09bb f986 ea3c 387a 6b39
000003f0: dd4a 073d 04f7 053c a52f 2a3d fea2 943c
0.025428168 0.0068912194 0.0057274285 0.029790679 0.023000661 -0.030504936 0.010661177 0.013897854
0.011253075 0.025809465 -0.00811261 0.013717136 0.013332084 0.024642643 0.02118415 -0.005709526
0.014204534 0.023137325 0.013467825 0.015070963 -0.014014117 -0.003117534 0.011164164 0.0055587427
-0.024709066 0.004384628 -0.040070355 -0.00816361 0.00025536306 0.03500331 -0.02018633 -0.020441752
-0.018619979 0.014089042 -0.0016482134 -0.023206431 0.00726734 -0.028402502 -0.017722875 -0.016069949
-0.021327576 -0.021821432 0.022229064 -0.0104915975 0.017848173 -0.029713472 0.036016166 -0.024449784
-0.0023123291 0.003940717 0.0032571498 0.0038958958 0.04873197 0.010108719 -0.00025825918 -0.001877262
0.018915156 0.0072774524 0.018770175 0.05290395 0.0013286729 0.00670502 -0.0002790357 -0.0037121796
0.019928215 0.045676686 0.007264025 0.035493933 -0.012165074 -0.004898109 0.02429553 0.011881685
9.504976e-05 -0.008269037 0.016657114 -0.023867514 0.0011655174 0.023779785 0.025845334 0.04931842
-0.032413345 -0.0022534183 -0.016972773 0.016440744 0.04699892 -0.00093532057 0.0031858445 0.016929187
0.023903279 0.025105666 -0.016357657 0.028889807 0.0104238745 0.006452096 -0.019052109 -0.0054891487
0.034441605 0.010993216 0.027942428 0.017529946 -0.0036856865 -0.01593258 0.03631979 -0.009788511
-0.029427344 -0.013079374 0.007887134 0.011042987 6.2277395e-05 0.042493246 0.026066562 0.0062954193
0.024363695 -0.00068609626 0.024473732 0.002440872 0.028933084 0.008648166 0.015373736 -0.011767411
-0.011337643 0.021221632 0.046655424 0.01918152 -0.002711439 -0.013116735 -0.0044056615 0.019972228
0.04074264 0.017390473 0.023493927 0.0051803035 0.06365939 -0.01892171 -0.017505953 0.013568842
-0.032013282 0.03333508 0.007437467 -0.028375782 0.01233691 -0.0019384609 0.025097534 0.004196358
0.025020845 -0.01551625 0.007209651 0.03832963 0.02999481 0.02840748 -0.00061824796 -0.0025453125
0.04436325 -0.005104007 -0.0017946898 0.014344212 0.0056529804 -0.00483035 0.064166114 0.046076324
0.04444619 0.0012756747 -0.028493797 -0.001884604 0.04356979 -0.016595792 -0.012772251 -0.034601193
-0.024132602 0.064226575 0.018715741 -0.034873676 0.004458053 0.00081624 -0.0016150242 -0.0011802486
-0.036497034 0.016379317 0.046754 -0.010188931 0.0110455835 0.00088649424 -0.014019618 -0.02921686
0.021533074 0.0065471465 0.0018515446 -0.0028854357 0.009018199 -0.040469445 0.016113928 0.039852355
-0.004215285 -0.010805309 -0.000965051 0.009319929 0.0027309693 0.016181277 0.014042419 -0.004792582
-0.03157157 -0.0023902594 -0.00017745484 0.007198565 0.000675867 0.00046497694 0.01456588 0.013990871
-0.013494793 -0.0029784506 0.00030574363 0.0063212053 -0.0034134723 -0.022110835 -0.012570492 0.0015513845
0.01824153 0.008505265 0.00053711166 0.0037901383 -0.0006060632 0.0047728843 0.031571984 -0.04189241
-0.032668065 -0.00891082 -0.033276953 0.009381246 0.013693889 0.012520459 0.001318374 -0.010913611
0.019256998 -0.012094853 0.005791094 -0.0117943315 -0.017882904 0.0027245798 -0.015151328 -0.027695948
-0.0063615837 -0.015097744 0.0025649227 -0.020026866 -0.007489132 0.00279151 0.005932392 -0.0037062685
0.015792456 -0.0020977934 0.028628813 0.00022456876 0.03303038 0.008176569 0.041549344 0.018144127

conv.4.bias f4 [4]
00000000: 1173 89bc 27ba 403d 2c6b c83b 1b3d 423d
-0.0167785 0.04705253 0.0061162915 0.047421556

conv.9.weight f4 [32, 4, 5, 5]
00000000: 83ee cd3c 27e8 b0bb 8ff7 503a 3c76 b8bb
00000010: 8b56 ec3a 1da1 98ba 97b7 36ba 50cb 6abb
00000020: 026e 8b3c 21a7 2abc 5e50 abbc 034f f3ba
00000030: 5a88 763a 2b33 a13a 6e0f ec3a 27eb 50bb
00000040: 852e de3a 34c6 fbbc 0059 3c3a e2b8 fb3c
00000050: 8d1b 143b e870 363b b531 483c 3726 0ebd
00000060: 8606 b3bb 170e 9c3c 8629 43bc 49bc 7bbc
00000070: e2f5 643c 464c 07bd d844 073d c6bf f13c
00000080: 4df3 133b 0aa3 e0bc b8da 58ba d295 2b3b
00000090: 8c0c 70bb 58ca f03b 6bdb e53b 34f7 743b
000000a0: 56b2 a93a c716 b2bc 71ff c93b 18c1 d53b
000000b0: 10d2 5c3a a948 123d 9694 603c 9629 283d
000000c0: 2f68 543c 9467 df3c e520 b6bc 8f4c cdbc
000000d0: b382 4ebb 8d0c 24bb c5bc cc3c 58f8 1e3c
000000e0: ca8a 943c ca3f 95ba dbde adbc 7dac 8a3b
000000f0: 2e71 e4ba 40b8 e93b 4358 013b 18e2 11bc
00000100: bf9c 68b9 470a e4bc 06ce bd3c cc89 80b9
00000110: a4d3 8d3c 76c2 b9bb 6452 22bc 5757 d83a
00000120: f655 4a3c c854 8aba 89e7 823c f040 653b
00000130: b560 ffba 4c99 393c 1280 2c3b 54e1 ee3a
00000140: 0a43 c73c 0de7 213c 0b81 c23b f107 3a3b
00000150: 9494 ba39 df9c d2bc c1f1 88bc 3403 3a3b
00000160: ac6c be3a 54f3 c9bc 2d2b dabc 37d3 7f3b
00000170: 3ae5 d03c 7357 cc3b 0f5b cf3b fb95 2b3b
00000180: c35d 31bc 7d6f 4b3c 079e 183d e46c 3f3c
00000190: 2bcb 37bc 0f53 cfba 8cb6 01ba 556a de3b
000001a0: edd6 853b 7cc0 dfbc b8f5 86ba bf8d 9cb9
000001b0: 03c2 21bb 825c 63bb f661 1dba ea4c 95b9
000001c0: 42f1 9d3c dde8 74bb 67ec 3ab9 1b61 5ebb
000001d0: 0ccb 47b9 18c8 1abb 33f2 37bc 13b2 a6bc
000001e0: a039 feb9 58cc f0b9 1d4b da3a 4c16 5f3b
000001f0: 5658 583b e854 d73c 0e16 9bbb f748 9eba
00000200: 6a70 35bb 46da 9739 8415 c83c a2bb b63b
00000210: a6fd 35bb 58d2 4db8 ebbb bf3c 6915 3f3b
00000220: fd6f 983c 9436 debc f187 51bc 7706 14ba
00000230: 8fb2 34bc 3cf1 043d 2239 b83c 6df1 aaba
00000240: c722 bebb e71d f5ba 95fa d2bc b332 f5ba
00000250: b4e4 413b 8025 cdb9 a334 7db9 2c10 79ba
00000260: d7c5 81bc ed95 12bb 4618 2e39 dc08 ba39
00000270: ae28 953a 4304 a2ba e629 a5ba ca28 94bb
00000280: c3f3 9739 262b 54bc 9d82 193b 8c6d e6ba
00000290: 6671 05ba 8dc4 5f3a acc3 053a b5b0 6d3c
000002a0: e3d7 143c c8b3 d43c 58b1 8539 8f10 50b9
000002b0: 30a2 103c 570d 48bc ad31 6c3b 8d70 493a
000002c0: 9abe 06bd 6e49 2fbb 3211 31b9 6200 c0bc
000002d0: 59fd 543b 3e0d 3f3a e4dd 79bc df12 a93c
000002e0: e5ab b1bc 2532 4cbc ebe3 ab3b 4687 c6b9
000002f0: e64a 58b9 dbee 72b9 5400 d83b 2c77 eebc
00000300: 2995 c3bc e86d adba 1413 8239 5624 a2ba
00000310: 97b4 a5ba 40c5 a13c 253d 69ba b1c4 0e3a
00000320: 2cdc 32ba 83a4 44bb 3134 33bb 55ab c7bb
00000330: 076d a4ba a514 38bc c9e5 b4bb 9724 1d3b
00000340: a347 16bb e07b c7bb 9ac5 f9b9 e01e b1bb
00000350: f0c5 973a deab 8b3c 18a7 d83c 1566 013d
00000360: 3e7a 073d 7228 44ba d468 0f3b 7799 8d39
00000370: c212 623b f673 cabc 37be 153d 6c81 3e3c
00000380: 70a4 893a 45bc 613c e5a4 88bb 1a92 623a
00000390: 54ed 043a 2b71 ccbb 1144 ab3b c272 ca3b
000003a0: 9cd7 4f3b fe0a 373c 4b6d 043d 8f98 853b
000003b0: aabd 93bb c3fa db3b 750b c6bc a9cd 9d3b
000003c0: ae36 113d f081 2d3a d181 6c3b 979f 3f3b
000003d0: b865 8d3a 509f a83b 28fd 633b aa61 b33c
000003e0: 9ada 0d3d 264d a43b 8e1d c3b9 f1d0 36bc
000003f0: ce55 efbc 2524 31bc cf78 183b d8e4 fe3b
0.025138145 -0.0053987685 0.00079714594 -0.005629329 0.0018031163 -0.0011644695 -0.0006970106 -0.003582675
0.01702023 -0.010415823 -0.020912345 -0.0018562976 0.0009404473 0.0012298574 0.001800997 -0.0031878443
0.001695112 -0.030734159 0.0007184893 0.030727807 0.002259943 0.0027838293 0.012218882 -0.034704413
-0.005463424 0.019049687 -0.011911755 -0.015364715 0.013974639 -0.033031724 0.03302464 0.02951039
0.0022575438 -0.027421493 -0.0008272338 0.002618183 -0.0036628572 0.00734834 0.007014682 0.003737879
0.0012946825 -0.021739377 0.006164484 0.0065232627 0.0008423636 0.035713825 0.013707301 0.041055284
0.012964292 0.02727107 -0.022232482 -0.02506092 -0.0031511008 -0.0025031895 0.024992356 0.009702764
0.018132586 -0.0011386808 -0.02122443 0.004231988 -0.001742875 0.00713256 0.0019736446 -0.008904003
-0.00022183637 -0.027836932 0.023169529 -0.0002451673 0.017312832 -0.0056689335 -0.009907339 0.0016505521
0.012349596 -0.0010553831 0.015979545 0.0034981333 -0.0019483777 0.011328053 0.0026321453 0.0018225112
0.024323959 0.009881747 0.0059357933 0.002838608 0.00035587384 -0.025709568 -0.01671684 0.0028383257
0.0014528236 -0.02465216 -0.026631916 0.0039035806 0.025499929 0.0062360107 0.0063279937 0.0026181925
-0.010825577 0.012416718 0.03726008 0.011683676 -0.011217873 -0.00158176 -0.0004948161 0.006787578
0.004084459 -0.027313463 -0.0010296619 -0.00029860248 -0.002468229 -0.003469259 -0.0006003672 -0.000284768
0.01928008 -0.0037370243 -0.00017826409 -0.003393239 -0.0001905376 -0.00236178 -0.011227178 -0.020348584
-0.0004848959 -0.00045928615 0.0016654466 0.003404039 0.0033011637 0.026285604 -0.0047328537 -0.0012076189
-0.0027685412 0.0002896359 0.024424322 0.005576567 -0.0027769594 -4.9071707e-05 0.023405036 0.0029157049
0.018608088 -0.027125634 -0.012788759 -0.0005646715 -0.0110289 0.03245662 0.02248818 -0.0013041921
-0.0058024856 -0.0018700928 -0.025754252 -0.0018707126 0.002958578 -0.00039128587 -0.00024147569 -0.0009501006
-0.015841408 -0.0022367195 0.00016602976 0.00035483285 0.0011379921 -0.0012360889 -0.0012600988 -0.004521464
0.0002898258 -0.0129497405 0.00234238 -0.0017580255 -0.0005090445 0.0008536063 0.0005102705 0.014507462
0.0090846745 0.025964633 0.00025499868 -0.00019842594 0.008827731 -0.012210212 0.0036040351 0.0007684313
-0.032896616 -0.0026746648 -0.00016886441 -0.023437683 0.003249964 0.0007288045 -0.015250657 0.020638881
-0.021688411 -0.012463127 0.005245676 -0.0003786629 -0.00020627267 -0.00023167899 0.006591836 -0.02910956
-0.023874836 -0.0013231607 0.00024809747 -0.0012370448 -0.0012642321 0.019747376 -0.0008897356 0.00054461794
-0.00068229693 -0.0030005283 -0.002734434 -0.0060934224 -0.00125447 -0.011235391 -0.0055205566 0.0023978108
-0.0022930882 -0.006087765 -0.00047640206 -0.005405292 0.0011579376 0.017049726 0.026446864 0.031591494
0.033075564 -0.00074828335 0.002188255 0.00027007956 0.0034496044 -0.024713498 0.036558356 0.011627536
0.0010501277 0.013777797 -0.0041700476 0.00086429866 0.0005070765 -0.0062390766 0.00522662 0.006178231
0.0031714207 0.011172054 0.032330792 0.0040770243 -0.0045086937 0.0067132427 -0.024175385 0.0048157764
0.035452537 0.00066187885 0.0036088119 0.002923941 0.0010787761 0.0051459447 0.0034788344 0.021897156
0.034632303 0.0050140796 -0.00037215318 -0.011158214 -0.02921572 -0.01081184 0.0023265367 0.007778745

conv.9.bias f4 [32]
00000000: 1fff a13b af5d c1b9 d8f6 e33b f01c 843c
00000010: 0446 dd3b a167 9e3c aadb 963b 42b6 bb3a
00000020: 9a4c 0dbc ad0b 3f3c ae59 093c 8cb5 0d3c
00000030: fbde 2dbc d3eb bcbc 440f 243c 311c 643c
00000040: 1b0b 803b 9707 533c 2208 b1bc 0b13 e73b
00000050: d420 993c 8fac 4c3c d244 8e3b 40c1 6c3c
00000060: 12be fa3c 2c9e 803c 698a 023d fb4b 88bb
00000070: 7e27 42bc 18dd 02bc bcd5 33bc 67e8 cf3c
0.004943743 -0.00036881628 0.0069569163 0.01612708 0.0067527313 0.019336523 0.0046038227 0.0014321285
-0.00862422 0.011660499 0.008383198 0.008649241 -0.010612245 -0.023061669 0.010013405 0.013922737
0.003907574 0.0128802275 -0.021610323 0.0070518306 0.018692411 0.012492313 0.0043417 0.014450371
0.03060821 0.015700422 0.03187028 -0.004159448 -0.011850236 -0.007987283 -0.010976251 0.025379373

lin.0.weight f4 [16, 32]
00000000: 30f8 a23d 8d4f 12be 1932 debc 98b1 aab8
00000010: 3e93 e8bd 2bb3 213e 1513 94bd a364 363c
00000020: 7cba e1bd bf06 8c3d 98db 473d 00d8 ac3d
00000030: 5a44 2a3e 6803 403e 5c61 a0bd 8a79 ddbc
00000040: 5def 473d 78fe eebd 575b 233e 6792 c5ba
00000050: e0a3 433d bc7f 3e3e 8db5 063e a79c 123d
00000060: 9250 07bd 2d10 d0bc a19e 9e3d c725 3d3e
00000070: 4012 503b 3aa9 203e e715 d33d 76dc fc3d
00000080: fbfa 2d3e c330 37bd 3ce0 103d 7a2f 373d
00000090: fa15 23be 1d20 34bd cf9a a3bd f89e ed3d
000000a0: 2a2f c73d 4a6d 0abe 3cab 203e 1e30 90bc
000000b0: 6bfc 92bd 4983 bb3c f4d4 053e 3f0e 203d
000000c0: 430e 8a3d e973 3abc ce06 c9bc 6caf 103d
000000d0: 9e06 1d3e eeda b43d 3cf3 29bd 8528 963d
000000e0: ac40 08bd c9b0 f4bd 41cd bd3c 638f fa3d
000000f0: 10e9 74bd e95b 703d a96c 39bd ac6f 2c3d
00000100: eaed 2f3d f9dd 29be 3af8 1bbd 346c 433d
00000110: 5543 27be 219b 0c3d 7d56 fbbd 6ecd 873d
00000120: c1ea d13d a4d5 7dbd 8877 2ebe d536 203e
00000130: 4928 afbc 64df 13be f386 183e d958 7c3d
00000140: 96c5 eb3d fe45 a1bb 5e64 c4bd db0b b23d
00000150: 1a3f 20be 6092 8d3d f791 b53d ad38 823d
00000160: 9604 77bd ca16 14be 4ab1 33bb f135 0c3e
00000170: d997 253e bfd9 0a3d 9000 0e3e 8a2d fcbd
00000180: 75ba edbd ca99 023c de40 19bc e80a 90bb
00000190: daa0 703d 2545 2fbd 8558 083e 2cb2 d23d
000001a0: bd90 8939 f5bf 89ba a500 c3bd e1d2 773c
000001b0: 83d6 d4bd 54a7 bebd e4d2 a23d b5fd dcbd
000001c0: 6943 1ebd d7d8 263d 13b0 acba 8ff2 a2bc
000001d0: cbb0 b83d 9a7c d03d 955f 123d c62a abbc
000001e0: a294 173d d010 37bd 7ae9 433b 8247 8bbd
000001f0: a08c e93c ace4 6bbd ace7 7a3d 433c 86bd
00000200: 2cbe 88bd 061d da3b 3a2f b33d 45b4 e9bd
00000210: b278 debd ffca ba3d c753 283d 12a2 543d
00000220: 29f2 89bd 1fb9 253e 25c9 f6bc dbd9 fb3d
00000230: d5e3 aa3c 150c 883d e5fc 0cbd 63c7 03bd
00000240: 1ef0 093e d0a0 123e ed90 963c ad74 96bd
00000250: 03c0 dabd 90e2 2ebc 2b8b 07bd 7e63 a73d
00000260: 4b3e 133e f678 4abd bd19 083e 0a29 44bd
00000270: dbfa 02be 5d6e 0ebe 2840 9abc 0281 d1bc
00000280: 1107 023e 6a6a 25be 93cd 9a3d a9e6 4c3e
00000290: e8e6 363e 2e3e 0bbd 9d24 b23d b702 04be
000002a0: 423b f1bd 74bf af3d 31af f2bb a7d6 c33d
000002b0: 4b7f b4bd a11d f7bd dc48 4ebd bf46 9b3c
000002c0: 9ad3 a3bd 5475 203c c0b0 413d 2a40 f23c
000002d0: cb30 cbbd 9555 e13c 90bf 80bd cec6 c1bd
000002e0: 9872 593d c009 1d3e 3bd8 0bbe 3a5f 5d3d
000002f0: 940d af3d 7534 44bd 90f8 213d 260a 373e
00000300: 78b7 943d 583e 08be eb91 4b3e 0b3d 433e
00000310: dcc7 0d3e 9689 fe3d 0022 0fbe 7bf6 1dbd
00000320: dc06 cc3d c28c 913d 704b 1b3d ff30 ba3d
00000330: 0eee fb3c f098 c83d 3387 e3bd ed85 433d
00000340: e6a7 97bd 0eb2 253e cb65 1fbe 286e 423e
00000350: 909e 1f3e 6d5a 01be 246a 253e c559 04be
00000360: 4de7 e8bc f605 86bd 5580 a0bd 500b e0bd
00000370: d547 b7bd c7fa 1ebd b97e a83d f91b 1b3d
00000380: e98c cfbc 7a69 8a3c df4a 193e 9901 293e
00000390: 9941 25bd 14c6 22bd cd0e 34be 4056 0c3e
000003a0: b7c2 efb9 e6ed 173e bad6 493d cf17 263e
000003b0: a2f2 3d3d 73a7 01be ff69 423d e861 bbbc
000003c0: d4ec 783b a578 293e e5c4 e53d 03e4 3f3e
000003d0: 7a33 b63d b03f 1fbc b143 e9bd f792 3a3d
000003e0: 52c2 a63d 1470 b2bd 3182 03be 35a3 2bbd
000003f0: 69e5 313e 1598 23be 5f83 0fbe adc0 d93d
0.07957494 -0.14288159 -0.027123498 -8.139311e-05 -0.11356209 0.15791003 -0.07230202 0.011132392
-0.11021897 0.06837224 0.048793405 0.08439636 0.16627637 0.187513 -0.0783107 -0.027035493
0.04881226 -0.1166963 0.15952812 -0.0015073539 0.047763705 0.18603414 0.13155194 0.035793927
-0.033035822 -0.025398338 0.077451 0.18471442 0.003174916 0.15689555 0.10306912 0.12346737
0.16990273 -0.044724237 0.035370097 0.04472301 -0.15926352 -0.043975938 -0.07988512 0.116025865
0.09725793 -0.13518253 0.1569032 -0.017601069 -0.07177051 0.02288975 0.13069516 0.039076086
0.067410015 -0.011380174 -0.024539378 0.035323545 0.15334556 0.0883082 -0.041491732 0.07331947
-0.0332648 -0.119477816 0.023169162 0.1223438 -0.05979258 0.058681402 -0.045269642 0.042098686
0.042951502 -0.16588582 -0.038078524 0.047710612 -0.16334279 0.03432763 -0.12272356 0.066309795
0.10249854 -0.06197132 -0.17037785 0.15645917 -0.021381514 -0.14440686 0.14895229 0.06160817
0.11512296 -0.004921674 -0.09589456 0.086936675 -0.15649071 0.069126844 0.08865731 0.06358466
-0.060307108 -0.14461818 -0.0027418905 0.13692452 0.16171207 0.033899065 0.13867402 -0.123133734
-0.116078295 0.0079712365 -0.009353844 -0.0043958314 0.05874715 -0.04279055 0.13315018 0.1028789
0.00026238515 -0.0010509478 -0.09521607 0.015125961 -0.10392477 -0.09309259 0.079503804 -0.10790578
-0.038638506 0.04073414 -0.0013175033 -0.019891052 0.090180956 0.10180016 0.035735685 -0.02089442
0.03700698 -0.044693768 0.0029893802 -0.068007484 0.028509438 -0.057591125 0.061256096 -0.06554463
-0.066768974 0.006656292 0.08749242 -0.11411337 -0.108628646 0.0912075 0.04109552 0.051912375
-0.067356415 0.161839 -0.03012521 0.12297412 0.020860592 0.066429295 -0.034420867 -0.032172572
0.13470504 0.14319158 0.018379653 -0.07346473 -0.106811546 -0.010674134 -0.033091705 0.081732735
0.14379232 -0.049431764 0.13291068 -0.0478907 -0.12791006 -0.13909288 -0.01882942 -0.025574211
0.12698008 -0.16153875 0.075587414 0.20009865 0.17861521 -0.033994846 0.0869839 -0.1289166
-0.11778881 0.08581439 -0.0074061383 0.09562426 -0.08813342 -0.12066198 -0.050362453 0.018954633
-0.07999344 0.009793598 0.047287703 0.029571611 -0.09921416 0.027506629 -0.06286538 -0.09461747
0.0530878 0.1533575 -0.13656704 0.054045893 0.08547512 -0.04790159 0.03954369 0.17874965
0.072615564 -0.13305032 0.19879882 0.19066255 0.13845772 0.12428586 -0.13977814 -0.03856514
0.09962246 0.071069255 0.03791374 0.090913765 0.030753162 0.097947955 -0.111097716 0.047735143
-0.07405071 0.16181204 -0.15566175 0.18987334 0.1558783 -0.12632151 0.1615377 -0.1292487
-0.028430605 -0.06544106 -0.078369774 -0.10939658 -0.08949248 -0.03881338 0.082272954 0.037868474
-0.025335746 0.016895998 0.14969967 0.16504516 -0.040345762 -0.039739683 -0.17583771 0.13704777
-0.00045730706 0.14836845 0.049277045 0.1622002 0.04637397 -0.12661533 0.047464367 -0.022873834
0.0037982957 0.16549928 0.11219195 0.18739323 0.08896537 -0.009719774 -0.11389864 0.045550313
0.081425324 -0.087127835 -0.12842633 -0.041903693 0.1737267 -0.15975983 -0.14014958 0.10632453

lin.0.bias f4 [16]
00000000: a851 19bd 9995 16be ba4c 36be 0b1d 13be
00000010: 2b40 75bd 5fb0 00be 7668 58bc b2b7 fcbd
00000020: 2d4c cdbc ae50 eb3d b793 463d d83a 123e
00000030: 95d0 253e 04f6 703d a2da a03d 17eb 94bd
-0.03743139 -0.14705504 -0.17802706 -0.14366548 -0.05987565 -0.1256728 -0.013208499 -0.123397246
-0.025060738 0.11489998 0.048480716 0.1428026 0.16192849 0.05882837 0.07854201 -0.07271402

lin.2.weight f4 [1, 16]
00000000: 79d6 8ebd 23a6 fb3d a81e a33d 5bd6 8cbd
00000010: 6eb8 aa3d 4b81 573e 98e8 683e c5a8 bd3d
00000020: ee8c b1bd f2c7 8abd e5ab 15be 15e7 bf3d
00000030: a706 a8bd 38dc a6bd 2eb4 13be b2af 9e3d
-0.06974501 0.122875474 0.079648316 -0.068768226 0.083359584 0.21045415 0.22744977 0.09260706
-0.08669458 -0.06776418 -0.14616354 0.09370247 -0.08204394 -0.08147472 -0.14424202 0.07748355
