sim/models/round_in.onnx (onnx, 57372 bytes, 13 tensors)

conv.0.weight f4 [4, 1, 5, 5]
0	0x3c47aa6e	0.01218663
1	0x3b87b85c	0.0041418504
2	0xbb3d128b	-0.0028850164
3	0x3bf906c2	0.0075996825
4	0x3c7ab4a5	0.015301858
5	0xbd17289e	-0.03690397
6	0xbc742d3c	-0.014903363
7	0x3cb56a4b	0.022145411
8	0x3afe77b5	0.0019414338
9	0xbc95dbd1	-0.018293293
10	0x3d00d7c9	0.03145579
11	0x3c90d1d5	0.01767818
12	0xbd0e8d4e	-0.034802727
13	0xbd5012d7	-0.050799217
14	0xbc5ab284	-0.0133482255
15	0xbd0ce941	-0.034402136
16	0xbbfce043	-0.007717164
17	0x3c2ac343	0.010422531
18	0x3c708c8e	0.014681948
19	0x3ccc3fec	0.024932824
20	0x3c1d3a14	0.009596366
21	0x3c14a114	0.009071607
22	0x3bad10dc	0.005281551
23	0xbbde2bc0	-0.0067801178
24	0xbcdd3520	-0.027002871
25	0x3ca7c44e	0.020479348
26	0xbb8a650b	-0.004223471
27	0x3c239c07	0.00998593
28	0xbb604e49	-0.003422635
29	0xbc978ccf	-0.01849976
30	0x3a2bc4b1	0.00065524416
31	0xba85b85e	-0.001020204
32	0x3bb10031	0.005401634
33	0xbd101f04	-0.03518583
34	0x3b13e784	0.0022568414
35	0xbb81ddc4	-0.003963204
36	0xbb500c36	-0.003174556
37	0xbbe2df81	-0.0069236164
38	0x3c1da93e	0.00962287
39	0xbb2c5a51	-0.002629895
40	0xbc19a169	-0.009376862
41	0x3d058bf8	0.032604188
42	0xbcb70088	-0.02233912
43	0x3cb70b24	0.02234418
44	0xbd30ecd2	-0.0431946
45	0xbcca1381	-0.024667503
46	0x3ca2fc0f	0.019895582
47	0xbcc49135	-0.023995021
48	0x3c4066c5	0.011743252
49	0xbb8129ca	-0.003941749
50	0xbcbacbd6	-0.022802275
51	0xbd039fb1	-0.032134715
52	0x3d26d5cc	0.040731236
53	0xbcae53cd	-0.021280194
54	0x3d0f0ad4	0.034922436
55	0x3c1f44a9	0.00972096
56	0xbc50348d	-0.012707842
57	0xbd3a1f2f	-0.045439895
58	0x3d0845f0	0.033269823
59	0xbd03a641	-0.032140974
60	0x3c4b9ad8	0.012427054
61	0x3c90488f	0.017612724
62	0xbb329a06	-0.002725245
63	0x3c262a86	0.010141974
64	0x3b2acd03	0.0026062138
65	0xbbd2adad	-0.006429395
66	0xbb321994	-0.002717589
67	0xbc175db3	-0.009238648
68	0xbd0457f8	-0.032310456
69	0x3c5240ea	0.0128328595
70	0xba01cb3b	-0.0004951243
71	0x3be59383	0.00700611
72	0x3bd0ae7f	0.006368458
73	0xbc79fb73	-0.015257704
74	0x3b20cd1c	0.0024536317
75	0xbd0f2c40	-0.03495431
76	0x3ce5f6cc	0.028071783
77	0xb98fa966	-0.00027401297
78	0xbc8002f5	-0.01562641
79	0x3a8ca902	0.0010731521
80	0x3c37b294	0.01121201
81	0x3cc60318	0.024171397
82	0xbd74ba4f	-0.05974799
83	0xbb47e719	-0.0030502735
84	0x3c8fa16c	0.017533027
85	0x3c3a8305	0.011383777
86	0xbca3fa5a	-0.020016838
87	0xbb80bfe8	-0.003929127
88	0xba4abe41	-0.00077340385
89	0x3b3d8050	0.0028915592
90	0x3b7e38e6	0.0038791238
91	0xbb8e97b8	-0.0043515824
92	0x3bbc1c58	0.0057406835
93	0xbbb7a0e7	-0.005603898
94	0xb93efac2	-0.00018213227
95	0xbb9ceff9	-0.004789349
96	0xbbcea272	-0.006305986
97	0xbadc02f1	-0.0016785545
98	0x3caa9f93	0.020828044
99	0xbca5e76a	-0.020251948

conv.0.bias f4 [4]
0	0xb8fcae2e	-0.0001204874
1	0xba54a676	-0.0008111963
2	0xba4d1af1	-0.0007824144
3	0xba60afd4	-0.00085711223

conv.3.weight f4 [4]
0	0x3e832f38	0.25621963
1	0x3e771178	0.24127758
2	0x3e85e83f	0.26153752
3	0x3e83e674	0.2576176

conv.3.bias f4 [4]
0	0x3a195256	0.0005848756
1	0x39507450	0.00019879756
2	0xba472423	-0.00075966323
3	0x3a5451d5	0.0008099352

conv.3.running_mean f4 [4]
0	0x3f16af29	0.58861023
1	0x3e9bb7dc	0.3041371
2	0x3f38c372	0.72173226
3	0x3ee42a72	0.44563633

conv.3.running_var f4 [4]
0	0x3f8f5dcc	1.12005
1	0x3f05366f	0.52036184
2	0x3f9f0a64	1.2425046
3	0x3f72c552	0.94832337

conv.4.weight f4 [4, 4, 5, 5]
0	0x3b68d675	0.0035528217
1	0x3b8d9c02	0.004321576
2	0x3c89bc66	0.016813468
3	0x3c0d1215	0.008610268
4	0xba26b208	-0.0006358926
5	0xbb76f7d3	-0.0037684336
6	0x3a4eb42e	0.0007885125
7	0xbba1c7e6	-0.00493716
8	0x3be6c11d	0.007042064
9	0x3a99f44a	0.0011745777
10	0xbc805b64	-0.015668578
11	0xbcc9a5ca	-0.024615187
12	0xbb1cbdd4	-0.0023916857
13	0xbbed0f09	-0.0072344583
14	0xbbecce3c	-0.0072267335
15	0xbb9f54ca	-0.0048624026
16	0xbc24a4e4	-0.010049079
17	0xbc1c8e84	-0.009555463
18	0xb9d0c49f	-0.00039819346
19	0x3bdf824c	0.0068209525
20	0xbc088064	-0.008331392
21	0xbc7d5ea1	-0.015464456
22	0x3c70fbc7	0.014708466
23	0xbbe7b1e8	-0.0070707686
24	0xbba2f02f	-0.00497248
25	0xbc48ab82	-0.012247922
26	0x3d03bebd	0.032164324
27	0x3cf06d99	0.029349135
28	0x3b8f18ae	0.0043669557
29	0x3b98aa5e	0.004658981
30	0xbadfc67e	-0.0017072705
31	0x3c4f43a6	0.012650406
32	0x3c091c46	0.008368557
33	0xbbc4ef6a	-0.0060099857
34	0xbbc3a7fb	-0.0059709526
35	0xbc7680fd	-0.015045402
36	0xbc1e7fdc	-0.009674039
37	0xbcbcdc58	-0.023054287
38	0xbb6446c4	-0.0034832219
39	0x3bd1f42c	0.0064072814
40	0x3c5acfb5	0.013355185
41	0xbc49bc45	-0.012312953
42	0xbc5c4eca	-0.013446519
43	0xbbab3c6e	-0.0052257096
44	0xbc7a165b	-0.015264119
45	0x3b2fca99	0.0026823638
46	0x3bbd914c	0.005785143
47	0x3c710043	0.014709535
48	0x3c093993	0.008375543
49	0xba4b0422	-0.0007744451
50	0xbc6a9b73	-0.014319289
51	0xb85a9e20	-5.2122516e-05
52	0xbd0c219b	-0.034211736
53	0xbca0ed4c	-0.019644402
54	0xbd0b2044	-0.033966318
55	0xbcd5bab0	-0.026089996
56	0xbc92a445	-0.017900595
57	0xbcb92030	-0.022598356
58	0xbb748111	-0.0037308375
59	0xbc7e5d2f	-0.015525146
60	0xbc46eb12	-0.012141006
61	0xbcaea440	-0.021318555
62	0xba803d99	-0.0009783983
63	0xbbcf99ac	-0.006335458
64	0xbba81c5a	-0.005130333
65	0xbc722cf3	-0.014781225
66	0x3c5e2345	0.013558214
67	0x3bec59b1	0.0072128405
68	0xbb925ef6	-0.0044668866
69	0x3c1d1ff7	0.009590141
70	0xbaffab88	-0.0019506076
71	0xbbed3b54	-0.0072397385
72	0xbabefdcb	-0.0014571486
73	0xb987761b	-0.00025837202
74	0x3ac600ae	0.0015106404
75	0x3d0143d5	0.03155883
76	0x3ce040d7	0.027374668
77	0x3c36f492	0.011166709
78	0x3d490da1	0.049085263
79	0x3a6abb2c	0.00089542824
80	0x3d5bdc77	0.05367705
81	0x3ce0f5ad	0.027460897
82	0xbb767306	-0.003760518
83	0xbc030649	-0.007997104
84	0x3bf5ab7e	0.00749725
85	0x3d586f75	0.05284067
86	0x3d440724	0.047858372
87	0xbb862d0f	-0.004094727
88	0xbb9776ed	-0.0046223314
89	0x3bc37af6	0.005965586
90	0x3d484878	0.048897237
91	0x3b839c89	0.004016463
92	0xbb4798d9	-0.0030456095
93	0x3c42652a	0.01186494
94	0xbb43813f	-0.0029831675
95	0x3d11103f	0.035415884
96	0x3c27715e	0.0102199
97	0xbc3cad51	-0.011515931
98	0xbc0d66bf	-0.008630454
99	0x3c7c4c1f	0.015399008
100	0x3c415c34	0.011801768
101	0xbc29f96c	-0.010374408
102	0xbbf1b9fb	-0.007376907
103	0xbc861b88	-0.01637055
104	0xbc330776	-0.010927072
105	0x3c5b63d4	0.0133905
106	0xbc3b96c3	-0.011449519
107	0xbc836ac5	-0.016042123
108	0xbce1149d	-0.02747565
109	0xbc2b54b5	-0.010457207
110	0x3a7c4ef2	0.0009624801
111	0xbc87a724	-0.016559191
112	0xbd1d16d4	-0.03835185
113	0xbcc6b59d	-0.024256522
114	0xbc8210e3	-0.015877193
115	0xb9b99b32	-0.0003540158
116	0xbbb28732	-0.0054482454
117	0xbc8361c7	-0.016037835
118	0xbccbc323	-0.024873322
119	0xbbe10d50	-0.006868042
120	0x3bf96c36	0.0076117767
121	0x3b805838	0.0039167665
122	0xbcdbf65a	-0.026850868
123	0xbc89645d	-0.01677149
124	0x3b0e329e	0.002169765
125	0x3992058c	0.00027851423
126	0x3ca86cba	0.020559657
127	0x3cb102d6	0.021607798
128	0xbcc71558	-0.02430217
129	0x3c600fe6	0.0136756655
130	0x3c5baee8	0.0134084
131	0x3c9c2d95	0.019064704
132	0x3d125ed8	0.03573498
133	0xbb9c3962	-0.0047675828
134	0x3cac384f	0.021022944
135	0x3c3563a5	0.01107112
136	0x3c8f730d	0.017510915
137	0x3cb9df06	0.022689354
138	0x3c858946	0.016300809
139	0x3ca28a83	0.019841438
140	0xbbecf48e	-0.0072313016
141	0x3b5186a2	0.0031971117
142	0x3caa8f2c	0.020820223
143	0x3bc6a7ad	0.006062469
144	0x3cf7f813	0.030269658
145	0xbbdc85b0	-0.006729804
146	0xb9698297	-0.0002226926
147	0x3ab46100	0.0013761818
148	0x3c442207	0.011971003
149	0x3cb0b1c4	0.02156914
150	0x3c1e8328	0.009674825
151	0x3ba149d1	0.0049221297
152	0x3ce422f5	0.0278487
153	0x3d546271	0.051851694
154	0x3ce621e4	0.028092332
155	0x3ca55454	0.020181812
156	0x3cd007dc	0.025394373
157	0x3d4a925a	0.049455978
158	0x3d498be6	0.049205683
159	0x3d079265	0.033098597
160	0x3d0fb24b	0.035082143
161	0x3cc52de0	0.024069726
162	0x3c554ba3	0.0130185215
163	0x3baeabdd	0.0053305463
164	0x3d09b4b3	0.033619594
165	0x3d2412dc	0.04005705
166	0x3b6a1f43	0.00357242
167	0x3c611e2f	0.0137401065
168	0xbacd3bae	-0.0015658045
169	0x39fc077b	0.0004807076
170	0x3d069a12	0.032861777
171	0x3ba83178	0.0051328503
172	0x3c32001b	0.010864283
173	0xbc58b4eb	-0.013226728
174	0xbc07e376	-0.008293977
175	0xbc864f83	-0.016395336
176	0xbc41621c	-0.011803176
177	0x378389e0	1.568062e-05
178	0x3b78198a	0.003785702
179	0x3cab4711	0.02090791
180	0xbb91c2f9	-0.0044482914
181	0xbbe0d344	-0.0068611223
182	0xbc4cf2cc	-0.012509059
183	0xbc16d5b4	-0.009206224
184	0x3c0eb05c	0.00870904
185	0xbb988286	-0.0046542315
186	0xbb148d06	-0.0022667064
187	0xbc478926	-0.012178695
188	0xbc5f7363	-0.01363835
189	0x3c0a2fb2	0.008434223
190	0xb830fd03	-4.2197305e-05
191	0x3ba5c2c2	0.0050586173
192	0xbc81ba6e	-0.015835967
193	0xbc35cf70	-0.01109682
194	0xbc8f3ec2	-0.01748598
195	0x3c0aaec9	0.008464524
196	0x3bf9db6a	0.007625033
197	0xb89bfc58	-7.437979e-05
198	0xbb9797a5	-0.0046262317
199	0xbca0504a	-0.019569535
200	0x3c96a186	0.018387567
201	0x3ae4eece	0.0017466189
202	0x3bc4126a	0.0059836404
203	0x3d1b1568	0.03786221
204	0x3d648088	0.05578664
205	0xba1c03bb	-0.00059514836
206	0x3c807fe9	0.015685992
207	0x3be55630	0.0069987997
208	0x3ba37484	0.004988255
209	0x3d41e78c	0.04733996
210	0x3cbdf25d	0.023186857
211	0x3c4372e7	0.01192925
212	0x3acb381e	0.0015504395
213	0xbc32d42c	-0.0109148435
214	0x3cd66249	0.026169913
215	0x3bfbe06c	0.0076866653
216	0xbb728e2a	-0.0037011006
217	0x3c802cc4	0.015646346
218	0x3c9b1864	0.018932529
219	0x3bb8cca5	0.00563963
220	0xbc567bf6	-0.013091078
221	0x3c51393c	0.012769993
222	0x3c148bf4	0.009066571
223	0x3d0433d7	0.032276
224	0x3bfb370d	0.0076664747
225	0xbc7ad2f8	-0.015309088
226	0xbba53d6e	-0.0050427234
227	0x3ba11c0c	0.0049166735
228	0x3bd877ed	0.006606093
229	0xbba4c50f	-0.005028374
230	0x393ee76c	0.00018206023
231	0xba947499	-0.0011326253
232	0xbc2c55d1	-0.010518507
233	0x3c991a34	0.018689252
234	0xbb971500	-0.0046106577
235	0xbb02956c	-0.0019925488
236	0x3bbfafdc	0.0058498215
237	0xbc71161c	-0.014714744
238	0xbc3376f0	-0.01095365
239	0xbc2fc752	-0.010728674
240	0xbc89c778	-0.016818747
241	0xbb77d91e	-0.003781862
242	0xbcaffec2	-0.021483783
243	0xba9a132e	-0.0011754984
244	0x3c695f5b	0.014243926
245	0xbcb31b06	-0.021863472
246	0xbc409a05	-0.011755471
247	0xbc17d1e9	-0.009266355
248	0x3ab29a38	0.0013626283
249	0xbc1f4158	-0.009720169
250	0xbc64c7f9	-0.013963693
251	0xbb4c0d52	-0.003113587
252	0x3aadf4ff	0.0013271867
253	0xbcd8908f	-0.026436118
254	0xbcedf276	-0.029046278
255	0xbc23acb9	-0.009989911

conv.4.bias f4 [4]
0	0xbb07b96c	-0.0020709885
1	0xbcac6f98	-0.021049306
2	0xbb23f4fd	-0.002501785
3	0xbc76a3dd	-0.0150537165

conv.9.weight f4 [32, 4, 5, 5]
0	0xb947be54	-0.00019049022
1	0xb9ddfbad	-0.00042339918
2	0xb914dbbc	-0.00014196237
3	0xb92a3e9d	-0.00016235789
4	0xb93cd878	-0.00018009718
5	0x38b8b0a8	8.8067085e-05
6	0x39e5d730	0.0004383861
7	0xba17cf37	-0.000579107
8	0xb9ae0eb6	-0.00033198827
9	0x393e8a3e	0.00018171311
10	0xb8ea3ebe	-0.00011169676
11	0xb6d6eb80	-6.405113e-06
12	0x3904e17a	0.00012672498
13	0x3854bacc	5.0718707e-05
14	0xb91b6ceb	-0.00014822527
15	0xb99877f4	-0.0002908107
16	0xb9de8c19	-0.0004244752
17	0x39b5a8a4	0.00034648657
18	0x3a2744b1	0.000638078
19	0x391cdc4a	0.00014959383
20	0xb631f653	-2.6518435e-06
21	0x3963afc6	0.00021713888
22	0x38b96324	8.839954e-05
23	0xb9428143	-0.00018549435
24	0x39595f54	0.00020730245
25	0x37b1dff9	2.120434e-05
26	0xb9a34a9c	-0.0003114537
27	0x383a80e0	4.446588e-05
28	0x37224cac	9.673804e-06
29	0x377dfb48	1.5138481e-05
30	0x399254be	0.00027910428
31	0x391a9016	0.0001474026
32	0x393bab26	0.00017897467
33	0xb8b92278	-8.827908e-05
34	0x373c5da8	1.1227479e-05
35	0x39807a2c	0.00024505088
36	0x394add8d	0.00019346755
37	0x38d9fd53	0.00010394552
38	0x3a284db8	0.00064202724
39	0x388b87c9	6.6533285e-05
40	0xba0391f7	-0.0005019004
41	0xb8717740	-5.7569938e-05
42	0xb919d7e4	-0.00014671643
43	0xba371484	-0.0006983953
44	0xba2134b8	-0.00061495183
45	0xb9d61cdc	-0.00040838763
46	0x38721030	5.7712372e-05
47	0xb9834eba	-0.00025044923
48	0xb9918294	-0.00027753843
49	0xb9c7447b	-0.0003800726
50	0xb88ac05e	-6.616184e-05
51	0x392a8d0a	0.00016265005
52	0x39be09e0	0.00036246981
53	0x388ddde9	6.764738e-05
54	0x37af0508	2.0863969e-05
55	0xba2c698a	-0.0006577006
56	0xba2423be	-0.00062614295
57	0xb9862870	-0.000255886
58	0xb7bbfd1d	-2.2410002e-05
59	0x386987ec	5.5678116e-05
60	0x39a1c34b	0.00030853818
61	0xba939621	-0.0011259952
62	0xb90aff2e	-0.00013255767
63	0x39dda37a	0.00042274204
64	0xb9ee6eda	-0.00045477488
65	0x3880615a	6.121649e-05
66	0xba46c38e	-0.00075822405
67	0xb926a444	-0.00015892187
68	0xb8ba1827	-8.87367e-05
69	0x3916985e	0.00014361876
70	0xb9903dc6	-0.00027511845
71	0xb7cf0180	-2.4677021e-05
72	0xb97e9d88	-0.00024282013
73	0x385eda50	5.3132244e-05
74	0xb8ae2d1b	-8.305368e-05
75	0x387bc518	6.002662e-05
76	0x38cf2198	9.8767865e-05
77	0xb92994dd	-0.00016172552
78	0x388e656c	6.789979e-05
79	0x39e633d3	0.0004390763
80	0xb9009c76	-0.00012265317
81	0xb8e09462	-0.00010708791
82	0xb9b05309	-0.00033631202
83	0xb9ea4963	-0.00044686635
84	0xb88e9574	-6.7989255e-05
85	0x39a062e4	0.00030591257
86	0x39e25348	0.00043168128
87	0x38ae6eb1	8.3175844e-05
88	0x399fff2d	0.00030516964
89	0x39e2ded4	0.000432721
90	0x38dad770	0.000104351784
91	0xb91280f0	-0.00013971678
92	0xb930d601	-0.0001686439
93	0xb97e1e72	-0.0002423467
94	0xba0551da	-0.0005085744
95	0x39e00fde	0.0004273643
96	0x36a742c8	4.984762e-06
97	0xb98e4c70	-0.000271413
98	0xb9441eb6	-0.00018703457
99	0x38d50ace	0.00010158644
100	0xb9da7a98	-0.0004167154
101	0x375412bc	1.2640547e-05
102	0x3804a900	3.1628646e-05
103	0xb9a38240	-0.00031186827
104	0x396af83a	0.0002240845
105	0x38d7927c	0.00010279284
106	0xb961671e	-0.00021496086
107	0x37ac8fa8	2.0570893e-05
108	0xb95b6719	-0.00020923874
109	0x375d03c0	1.31735e-05
110	0x38cc1858	9.7320124e-05
111	0xb96e14c6	-0.00022705187
112	0xb9c0a096	-0.0003674074
113	0x3991e95e	0.00027830427
114	0xb7e05d7e	-2.6746417e-05
115	0x39fb9b26	0.00047990045
116	0x39497daf	0.00019215675
117	0xb8332c4f	-4.271819e-05
118	0xb8be20bd	-9.066004e-05
119	0xb9b2cbca	-0.0003410264
120	0xba138263	-0.0005627034
121	0x391d6110	0.00015008845
122	0x394d9406	0.00019605467
123	0xb912fdb2	-0.00014018154
124	0x388d4f45	6.738169e-05
125	0xb92750ec	-0.00015956507
126	0xb9808968	-0.00024516438
127	0x37f2a7b0	2.8926734e-05
128	0xb729d460	-1.0122632e-05
129	0xb7ee8b98	-2.8436814e-05
130	0xb908e14d	-0.00013053902
131	0xb91deb56	-0.00015060356
132	0x3959e081	0.00020778367
133	0x378dbdc0	1.6896869e-05
134	0xb86a7f10	-5.5908284e-05
135	0xb880979c	-6.131755e-05
136	0x3990a51e	0.00027588842
137	0x39160852	0.00014308214
138	0xb8b2bdef	-8.523079e-05
139	0x3980589a	0.00024480076
140	0xb99858e2	-0.00029057922
141	0xb90644ec	-0.00012804911
142	0xb903859a	-0.00012542904
143	0x3996a243	0.00028731124
144	0xb9a6aca5	-0.00031790618
145	0x3760ef1c	1.3407112e-05
146	0x39fdde94	0.00048421754
147	0x35cc4200	1.5218393e-06
148	0x3914ba1a	0.00014183708
149	0xb89bc963	-7.428487e-05
150	0x3886fe2c	6.436961e-05
151	0xb9a2b269	-0.00031031974
152	0xb86b43ab	-5.6091387e-05
153	0x3909abdd	0.00013129362
154	0x363dd340	2.8286158e-06
155	0xba12f7fe	-0.0005606412
156	0x3a130f41	0.0005609878
157	0x3a6c5b25	0.0009016267
158	0xb87a07a8	-5.9611775e-05
159	0xb91d1ae1	-0.000149827
160	0x3969fcb4	0.00022314751
161	0x3904f274	0.00012678822
162	0x391dc08b	0.00015044415
163	0x390fa824	0.0001370018
164	0xb906f388	-0.00012869958
165	0xb9b79f5c	-0.00035023212
166	0x370f7eec	8.5530155e-06
167	0x38c735c1	9.499072e-05
168	0xb8b7fc06	-8.773063e-05
169	0x39d26d01	0.00040135536
170	0xb8c3c93d	-9.335808e-05
171	0xb9256f28	-0.00015777035
172	0xb8b6fffa	-8.7261156e-05
173	0xb907f9e3	-0.00012967693
174	0x39f9c53a	0.00047639926
175	0xb69ec800	-4.73205e-06
176	0xb905ab38	-0.00012747652
177	0x37166d8a	8.966201e-06
178	0x3913eae2	0.00014106513
179	0x39fc4a54	0.00048120564
180	0xb89ef888	-7.58032e-05
181	0x39880483	0.00025943303
182	0x35480040	7.450617e-07
183	0xb8aa42d8	-8.118682e-05
184	0xb94d6fe5	-0.00019592007
185	0x37f71dc0	2.9458548e-05
186	0x3a11ee85	0.0005566853
187	0xb9c07458	-0.00036707777
188	0xb906be06	-0.00012850025
189	0xb8949334	-7.084609e-05
190	0xb91352f6	-0.00014049918
191	0x39793faf	0.00023770214
192	0x39b7ea4c	0.00035079045
193	0x38935e20	7.0270384e-05
194	0x3a118821	0.0005551596
195	0xb9958346	-0.000285173
196	0xb8033c80	-3.128918e-05
197	0xb7cd0810	-2.4441659e-05
198	0x3840f3c8	4.6003406e-05
199	0x394e1eeb	0.00019657209
200	0x3a8368a4	0.0010025692
201	0xb980f64e	-0.00024597574
202	0xb9f4e12f	-0.00046707081
203	0x398c40f2	0.0002675127
204	0xb9806334	-0.00024487975
205	0x39e264c6	0.0004318116
206	0x393927c4	0.00017657789
207	0xb9b4ecad	-0.00034508613
208	0xb8924d42	-6.976213e-05
209	0x3986e457	0.00025728598
210	0x3a495369	0.00076799706
211	0x3b0aa5f2	0.002115604
212	0x3a4ab5ae	0.0007732761
213	0x399be329	0.0002973315
214	0x3938250d	0.0001756141
215	0x3b146a6a	0.0022646436
216	0x3b88cd2e	0.00417485
217	0x39b97612	0.0003537392
218	0xba378480	-0.000700064
219	0x39e7e056	0.00044226897
220	0x3b608c68	0.0034263376
221	0x3a262388	0.0006337692
222	0xb9b28f18	-0.0003405742
223	0xb9da9395	-0.00041690157
224	0xb9883fd2	-0.0002598749
225	0x3b29536a	0.0025837072
226	0x3a7f5449	0.00097400375
227	0x3a81c313	0.0009900056
228	0xb94f6f30	-0.00019782479
229	0xb9b9ad7c	-0.00035415206
230	0x3a1781ca	0.0005779533
231	0x3a73d66a	0.00093016645
232	0x382be133	4.097931e-05
233	0x3abaa7db	0.0014240699
234	0xb91b884d	-0.00014832728
235	0x3a1c0dba	0.0005952973
236	0xb9852521	-0.000253954
237	0x3aa752ea	0.0012765799
238	0x36460940	2.9509683e-06
239	0x3b2050c8	0.0024462212
240	0xba064989	-0.0005122652
241	0x39115529	0.00013860002
242	0x3a8d4116	0.0010776843
243	0x38ed47e2	0.0001131443
244	0x3aab8152	0.0013084805
245	0xbaec0ac8	-0.0018008584
246	0xb8c83a1c	-9.547567e-05
247	0xb743ff6c	-1.1682376e-05
248	0x3a567052	0.0008180189
249	0xb9649292	-0.00021798376
250	0x3b063f43	0.0020484484
251	0x3a335a51	0.00068417663
252	0xb9ba8482	-0.0003557541
253	0xb9c3376f	-0.000372346
254	0xb9c2e055	-0.00037169704
255	0x39a600c9	0.00031662572

conv.9.bias f4 [32]
0	0xba29dd01	-0.00064797705
1	0xb91ab4a4	-0.00014753878
2	0x3b08361c	0.0020784205
3	0x3c28edb1	0.010310576
4	0xba725a72	-0.0009245045
5	0x3ceece11	0.029150994
6	0x396e0d7a	0.00022702469
7	0x3b9857a9	0.004649122
8	0x3c1fe988	0.009760268
9	0x3d0945a9	0.0335137
10	0x3c365941	0.011129678
11	0xb97099da	-0.00022945498
12	0xbabe7bcf	-0.0014532747
13	0x3ba576f2	0.00504958
14	0xba6ccc8d	-0.0009033166
15	0x3a22a090	0.0006203735
16	0x3a52911f	0.0008032489
17	0xbb0e0011	-0.002166752
18	0x3b207400	0.0024483204
19	0x3812f78e	3.5039666e-05
20	0x39f079db	0.00045867157
21	0x3c952ad4	0.018208899
22	0xbb9318ee	-0.004489056
23	0xb94313a0	-0.0001860396
24	0x3cb435eb	0.021998366
25	0x3ba45738	0.00501528
26	0xb9596a35	-0.00020734298
27	0x37d71530	2.5639863e-05
28	0xb96555fe	-0.00021871176
29	0x38ae8a9c	8.3227846e-05
30	0xbaf7db54	-0.0018909969
31	0x3ac85064	0.0015282747

lin.0.weight f4 [16, 32]
0	0xbdb6f919	-0.0893423
1	0x3ca14486	0.019685995
2	0xbe242c00	-0.1603241
3	0x3ecadb9c	0.39620674
4	0x3c361130	0.011112496
5	0xbf0e3856	-0.5555471
6	0x3c783a5d	0.015150634
7	0xbbf6f256	-0.007536213
8	0x3e9174da	0.28409463
9	0xbf0982c2	-0.53715146
10	0x3dbe85d4	0.093028694
11	0x3d377fdb	0.044799667
12	0xbe039982	-0.12851527
13	0x3e4ff4b1	0.20308186
14	0x3c690b97	0.014223955
15	0xbd4b05f4	-0.049566224
16	0xbda5c623	-0.08094432
17	0xbca08205	-0.019593248
18	0xbe0fe199	-0.14050902
19	0x3be10357	0.006866853
20	0x3d545d37	0.05184671
21	0xbebc8daf	-0.36826846
22	0x3e3c1c3e	0.18370149
23	0xbd957845	-0.0729833
24	0xbe620dbd	-0.22075553
25	0xbc3c5b56	-0.011496386
26	0x3d51d5a9	0.051229153
27	0x3d662334	0.056185916
28	0xbc813315	-0.015771428
29	0xbd1a87a2	-0.037727006
30	0x3df2778f	0.1183921
31	0x3d188406	0.037235282
32	0xbd232083	-0.039825927
33	0x3c21a4ce	0.009865953
34	0xbd67d2cd	-0.05659752
35	0x3ba982e0	0.005173072
36	0x3d5f8624	0.054571286
37	0xb3365791	-4.245482e-08
38	0xbd110a52	-0.035410233
39	0x3d3eda29	0.046594772
40	0x39b7bda6	0.0003504578
41	0x3bf9aaf8	0.007619258
42	0x3d5758d0	0.052574933
43	0x3d2b6ef1	0.04185385
44	0x3d50a66f	0.050939973
45	0x3dc238a3	0.09483459
46	0x3c47af33	0.012187767
47	0xbd2852b8	-0.04109451
48	0xbd235345	-0.039874334
49	0x3dd483f5	0.10376731
50	0xbaf2b82b	-0.0018518021
51	0xbd09395a	-0.03350196
52	0x3991005a	0.00027656817
53	0xba2bc3d9	-0.0006552316
54	0xbe152a77	-0.1456698
55	0x3b5b8492	0.0033495766
56	0xbc9310f0	-0.017952412
57	0xba9d9e2c	-0.0012025288
58	0xbbadc989	-0.005303566
59	0x3a62f107	0.00086571317
60	0xbd1fce45	-0.039015073
61	0x36e5cdf6	6.848709e-06
62	0x3d8b68ce	0.06807099
63	0x3d8173df	0.06320929
64	0xbcdaadef	-0.026694266
65	0x3d89af31	0.06722868
66	0xbe0dd11b	-0.13849299
67	0x3f0b16d6	0.5433172
68	0x3d0f3815	0.034965593
69	0xbeed58eb	-0.46356902
70	0xbd46c8c7	-0.04853132
71	0x3ea61a55	0.32441965
72	0x3f0d9380	0.5530319
73	0xbea43469	-0.32071236
74	0x3ec4e38b	0.38454852
75	0x3d1b54ab	0.037922543
76	0xbdab6bd0	-0.08370173
77	0x3e843b58	0.25826526
78	0xbd8e30e9	-0.069429226
79	0x3c41289a	0.011789465
80	0x3c9622af	0.018327085
81	0xbd5e82b5	-0.05432387
82	0xbe1706b9	-0.14748658
83	0xbcf4d99c	-0.02988892
84	0xbc4b8bb0	-0.012423441
85	0xbf1ee1f5	-0.62063533
86	0x3e26bb40	0.16282368
87	0xbca1aff0	-0.019737214
88	0xbea859f4	-0.3288113
89	0x3e23d19c	0.15997928
90	0xbcb73da6	-0.022368263
91	0xbb885da0	-0.0041615516
92	0xbc89095d	-0.016728098
93	0xbc0dca8f	-0.008654251
94	0x3d67b853	0.05657227
95	0x3dc42550	0.09577429
96	0xbb666dbd	-0.0035160624
97	0x3b3512f0	0.0027629696
98	0xbbf35719	-0.0074261543
99	0x3f073207	0.5281071
100	0x3b3ec9aa	0.00291119
101	0xbf0496ed	-0.51792794
102	0x3a39bb80	0.00070851296
103	0x3e0a1691	0.13485171
104	0x3ee116ba	0.43962651
105	0xbefb2c8d	-0.49057427
106	0x3e87b50f	0.26505324
107	0xbad50218	-0.0016251234
108	0x3c279509	0.010228404
109	0x3e45a917	0.19302784
110	0x3b0dc0ce	0.0021629813
111	0x3ab1cb3c	0.0013564597
112	0xbbaf82eb	-0.005356183
113	0xbb8af287	-0.0042403373
114	0x3b1a51ef	0.0023547371
115	0xbac7cc5c	-0.0015243399
116	0x3bbeab7e	0.0058187833
117	0xbef6892c	-0.4815153
118	0x3ca6f7c2	0.020381812
119	0x3b72edde	0.003706805
120	0xbeb2e83c	-0.34942806
121	0x3e16e822	0.14736989
122	0xbb328978	-0.0027242582
123	0xba8758ea	-0.0010326181
124	0x3b0a0698	0.002106106
125	0xba85e970	-0.0010216665
126	0x3a3ff69f	0.0007322821
127	0x3d5eeed2	0.054426976
128	0xbd7e3bed	-0.06206887
129	0xbd6e8675	-0.058233697
130	0xbd9f355f	-0.077738516
131	0x3ec8e8d5	0.39240137
132	0x3e08f014	0.13372833
133	0xbef2733c	-0.47353542
134	0x3db38745	0.08766035
135	0xbbaf2603	-0.0053451075
136	0x3eb38335	0.3506104
137	0xbf0345bc	-0.5127828
138	0x3db8faaf	0.09032189
139	0x3aad03ba	0.0013199963
140	0x3dd3c11a	0.103395656
141	0x3e623f13	0.22094373
142	0xbd2741f8	-0.040834397
143	0x3d8f89ba	0.07008691
144	0xbdbb8d9e	-0.09157871
145	0x3d9adf07	0.0756207
146	0x3cccbacc	0.024991415
147	0x3ba660a4	0.0050774384
148	0xbd03eeaa	-0.03221003
149	0xbee17124	-0.44031632
150	0xbdefb23d	-0.11703918
151	0x3d1816e3	0.0371312
152	0xbe2b98a6	-0.1675745
153	0x3dfb2032	0.12262
154	0xbd2c81a8	-0.042115837
155	0x3c0196f9	0.00790953
156	0x3c7df3f5	0.015500058
157	0x3c53ea60	0.012934297
158	0x3e0849cc	0.13309401
159	0x3e3b3a46	0.18283948
160	0x3ca36ca7	0.01994927
161	0xbdd2f83e	-0.10301255
162	0x3d2ff9d2	0.042962857
163	0x3ed1ead0	0.4099946
164	0xbda91652	-0.082562104
165	0xbf130763	-0.57433146
166	0xbc988512	-0.01861814
167	0x3d68d798	0.05684623
168	0x3e8eb760	0.2787428
169	0xbec9c763	-0.39409932
170	0x3e6cda5b	0.23130171
171	0xbd8c8852	-0.068619385
172	0x3d1d6103	0.038422596
173	0xbd355652	-0.044271775
174	0xbde12ca4	-0.10994843
175	0x3db1974a	0.08671434
176	0x3dc363ef	0.09540545
177	0x3dbb619d	0.09149478
178	0xbdb7eb0d	-0.08980379
179	0x3db89ccf	0.09014284
180	0xbd92f297	-0.071751766
181	0xbef22c6f	-0.47299525
182	0x3e205714	0.15658218
183	0xbd52a0fb	-0.051423054
184	0xbe370a17	-0.17874943
185	0x3d278527	0.04089847
186	0x3c29f026	0.010372197
187	0xbcf76d29	-0.030203419
188	0xbcca7b85	-0.024717102
189	0xbc6c18fe	-0.0144102555
190	0xbd795f05	-0.060881633
191	0x3e29f1be	0.16596124
192	0x3c7862a2	0.015160235
193	0x3d27471e	0.040839307
194	0xbd9c65f3	-0.07636633
195	0x3efb4b67	0.49080965
196	0xbe051eda	-0.1300005
197	0xbf17e3ba	-0.5933186
198	0xbd485265	-0.048906703
199	0x3e445633	0.19173507
200	0x3ed8c528	0.42337918
201	0xbf07a803	-0.5299074
202	0x3ea1d2d1	0.31606153
203	0xbd1fd2c4	-0.03901936
204	0xbd956b79	-0.072958894
205	0x3e28c6de	0.16482112
206	0x3dc7af75	0.09750263
207	0xbdfb3967	-0.12266808
208	0x3de8b24c	0.113621324
209	0x3dba463e	0.09095429
210	0x3dca1517	0.09867304
211	0x3c922684	0.017840631
212	0x3bc07964	0.005873846
213	0xbf172993	-0.5904781
214	0xbd10f39d	-0.035388578
215	0x3c7aee2a	0.015315572
216	0xbed71d6d	-0.42014638
217	0x3e2dfb17	0.16990314
218	0x3caa27f0	0.020770997
219	0xbb1b2752	-0.002367456
220	0xbd7a7137	-0.061143126
221	0xbc2a7f90	-0.01040639
222	0x3dab6745	0.083693065
223	0x3e13eb6c	0.14445275
224	0xb9c09c70	-0.0003673765
225	0xb781a6a3	-1.5455595e-05
226	0xb832e069	-4.2647505e-05
227	0x34afe566	3.27632e-07
228	0xbbc7bb7d	-0.0060953484
229	0xb3a8f2b0	-7.867254e-08
230	0x3c6ef8c3	0.014585677
231	0xbc5ad41e	-0.013356237
232	0x3cd154d0	0.025553137
233	0xb455bec4	-1.9906571e-07
234	0x3d09f1bd	0.033677805
235	0x38888808	6.510323e-05
236	0x3d2463e4	0.040134326
237	0x3ca6f5e4	0.020380922
238	0xbcbd3ae8	-0.023099378
239	0xbc69ae8f	-0.014262809
240	0x3d75a139	0.059968207
241	0xbd0c8423	-0.034305703
242	0xbc05e743	-0.008172813
243	0x3ce7bf5a	0.028289486
244	0x3cd4afd4	0.025962748
245	0x36c28b8d	5.7978964e-06
246	0xbd9e9968	-0.07744104
247	0xba636892	-0.0008674945
248	0x3cb685fe	0.02228069
249	0x3c4baa0e	0.012430681
250	0x3b679ec2	0.003534243
251	0xb4401d93	-1.7892152e-07
252	0xbc8ea388	-0.017411962
253	0xb86ee07e	-5.6952696e-05
254	0x3b9918b0	0.0046721324
255	0x3d516b4c	0.051127717

lin.0.bias f4 [16]
0	0x3d977d7a	0.0739698
1	0xbdc3aba8	-0.09554225
2	0x3d80c0cb	0.06286772
3	0x3d91c9e3	0.07118585
4	0x3d82ee3e	0.06393097
5	0x3d898540	0.067148685
6	0x3da5f58b	0.08103474
7	0xbda608ba	-0.08107133
8	0xbd931f6c	-0.071837276
9	0xbca1d853	-0.019756472
10	0x3d8ab585	0.06772903
11	0xbc1f0816	-0.009706518
12	0x3d82bd5d	0.063837744
13	0x3dad6669	0.08466799
14	0x3da2765e	0.07932733
15	0xbd21f117	-0.03953656

lin.2.weight f4 [1, 16]
0	0xbeac7714	-0.336846
1	0xbd981401	-0.074256904
2	0xbf40e8b6	-0.7535509
3	0xbeac03fb	-0.33596787
4	0xbec37d35	-0.38181463
5	0xbee673cf	-0.4501023
6	0xbf0a98ca	-0.5413939
7	0x3d938f93	0.07205119
8	0x3d562be7	0.052287962
9	0xbba1c5db	-0.0049369163
10	0xbf3fed40	-0.7497139
11	0x3dfe987e	0.12431429
12	0xbefcb0d6	-0.49353665
13	0xbf08e8a8	-0.53480005
14	0xbeb70103	-0.3574296
15	0xbbe093b9	-0.0068535474
