sim/models/round_about8000.onnx (onnx, 68786 bytes, 13 tensors)

conv.0.weight f4 [4, 1, 5, 5]
0	0xbd4121b5	-0.047151286
1	0xbcc9e313	-0.02464441
2	0x3c8d1c62	0.017225448
3	0x3cbbb949	0.0229155
4	0xbda0d67c	-0.0785341
5	0xbcc1cdd0	-0.02365771
6	0xbcfa49de	-0.0305528
7	0x3ca7e11c	0.020493083
8	0xbcdd0318	-0.026979014
9	0x3d7bed8b	0.061505836
10	0x3b305ea7	0.0026911886
11	0x3a9f5668	0.0012156488
12	0x3d9bb80e	0.07603465
13	0x3d8348f6	0.064104006
14	0xbdaf3fce	-0.08557092
15	0x3adeadba	0.001698903
16	0xbcaef49e	-0.021356877
17	0x3d9c1ba5	0.0762246
18	0xbda872f8	-0.082250535
19	0x3d92e3a6	0.07172327
20	0x3d90de4b	0.07073649
21	0x3ccc5e70	0.024947375
22	0x3b0b9212	0.0021296781
23	0xbd644b68	-0.055735976
24	0x3da5add9	0.080897994
25	0xba9f1953	-0.0012138285
26	0xbd890f5b	-0.06692382
27	0x3d7bd0c7	0.061478402
28	0x3d66ab1d	0.05631553
29	0xbd8306bd	-0.063977696
30	0x3d1dd87b	0.03853653
31	0x3ba0998d	0.004901117
32	0xbd0706a7	-0.03296533
33	0x3ab220bd	0.0013590079
34	0xbdb65118	-0.08902186
35	0x3d96ed9d	0.0736954
36	0x3dc9f105	0.09860424
37	0xbc98a0fe	-0.018631455
38	0xbccfd758	-0.025371239
39	0xbdcb4fd4	-0.099273354
40	0xbd9a75ae	-0.07541977
41	0xbcd3764a	-0.02581324
42	0x3c7fb4bc	0.015607055
43	0xbb618e72	-0.003441718
44	0x3d957863	0.072983526
45	0xbd201974	-0.039086774
46	0x3d8e1677	0.069378786
47	0xbc6374f6	-0.013882866
48	0x3da1c993	0.07899775
49	0xbd5672a7	-0.052355435
50	0x3d54f887	0.051994827
51	0xb995a724	-0.00028544024
52	0xbd2f1648	-0.04274586
53	0xbb82c6f5	-0.0039910027
54	0xbcf376cd	-0.029719735
55	0xbcbbb2d6	-0.022912424
56	0x3d75d449	0.060016904
57	0x3d329d12	0.043606825
58	0xbda78693	-0.08179965
59	0x3d009334	0.031390384
60	0xbc74bd71	-0.0149377445
61	0x3d818fe3	0.06326272
62	0xbdb7ed93	-0.089808606
63	0x3d84c04d	0.06481991
64	0x3b5e3707	0.003390731
65	0x3d0cd6ea	0.034384646
66	0xbdaff65a	-0.0859191
67	0xbdbdd769	-0.09269602
68	0xbd5dff3f	-0.0541985
69	0xb9ff1344	-0.00048651744
70	0xbc3e54f0	-0.01161693
71	0xbbdc7328	-0.006727595
72	0xbd4d8f2b	-0.050185364
73	0x3d7b906d	0.061417032
74	0x3c01f7c7	0.00793261
75	0x3be7b9f0	0.007071726
76	0x3b603a04	0.0034214268
77	0xbd2cde5d	-0.04220425
78	0xbcdc752b	-0.026911339
79	0xbda85e03	-0.08221056
80	0x3d2d3322	0.042285092
81	0x3d89eed0	0.06735003
82	0xbcdf85e8	-0.027285531
83	0xbccfc21c	-0.025361113
84	0x3dcbda2a	0.09953721
85	0xbcf6da16	-0.030133288
86	0x3c958668	0.018252566
87	0xbce5ba3b	-0.028042903
88	0x3c82143f	0.015878795
89	0xbc61492c	-0.013750356
90	0x3c007936	0.007841399
91	0x3db64b50	0.089010835
92	0x3d88a090	0.0667125
93	0xbd997a88	-0.07494074
94	0xbdd0c612	-0.10194029
95	0xbc9b809e	-0.018982228
96	0xbd70a363	-0.058749568
97	0xbb0da25c	-0.0021611666
98	0xbac46c81	-0.001498595
99	0xbd79f23c	-0.06102203

conv.0.bias f4 [4]
0	0xbd479dd2	-0.048734494
1	0xb77e01b8	-1.513998e-05
2	0x3d0baf0e	0.034102492
3	0xbd81ea39	-0.063435026

conv.3.weight f4 [4]
0	0x3f5f35a4	0.87191224
1	0x3f5ee327	0.87065357
2	0x3f5f70dd	0.8728159
3	0x3f5f9dbc	0.8735006

conv.3.bias f4 [4]
0	0xbb5ee2cc	-0.0034009693
1	0x3bba8a51	0.005692758
2	0xbaba0286	-0.0014191426
3	0x3c45f205	0.012081628

conv.3.running_mean f4 [4]
0	0x418bda38	17.481552
1	0x40c31ad1	6.0970235
2	0x3fc080b2	1.5039275
3	0x40011f66	2.0175414

conv.3.running_var f4 [4]
0	0x42e1d031	112.906624
1	0x42369c59	45.652683
2	0x4102e45e	8.180754
3	0x41817810	16.183624

conv.4.weight f4 [4, 4, 5, 5]
0	0xbd1a46f7	-0.037665334
1	0xbcf27c08	-0.029600158
2	0xbbed207b	-0.007236538
3	0xbc67b710	-0.014142767
4	0xbcc7aff1	-0.024375888
5	0xb8ea5d54	-0.00011175373
6	0xbba8c4a4	-0.0051503945
7	0xbc6ca413	-0.014443415
8	0x3c444258	0.011978708
9	0xbca0778d	-0.019588256
10	0xbc255e8b	-0.010093342
11	0x3bfb322e	0.007665894
12	0x3bf18e56	0.007371704
13	0x3c99b6e8	0.018763974
14	0xba7abba6	-0.0009564705
15	0xbb81ef57	-0.003965299
16	0x3b916751	0.004437365
17	0x3afa9ebb	0.0019120792
18	0x3c700377	0.014649264
19	0xbb4462fd	-0.0029966228
20	0x3c83f2ef	0.01610705
21	0x3aac151b	0.0013128849
22	0x3c3aee23	0.011409315
23	0x3c83fe22	0.01611239
24	0x3d266e1e	0.04063236
25	0x3ba5e921	0.0050631915
26	0xbd0959e6	-0.033533
27	0x3cd6774f	0.026179938
28	0x3cbd7f68	0.023132041
29	0xbc063a61	-0.00819263
30	0xbc43b22d	-0.011944336
31	0xbc43c070	-0.011947736
32	0x3c5ef049	0.013607093
33	0x3ba55d32	0.00504651
34	0xbc31e130	-0.010856912
35	0xbbd57b4a	-0.0065149413
36	0xbd026a54	-0.031839684
37	0x3d010e3c	0.031507716
38	0x3bceb895	0.006308625
39	0xbadcf34b	-0.0016857175
40	0xbd22eeee	-0.039778642
41	0xbc17ee83	-0.009273174
42	0x3cb843be	0.02249324
43	0x3ba7b8d7	0.00511847
44	0x3c52972e	0.012853427
45	0x3cba2f0f	0.022727517
46	0xbced9372	-0.029000971
47	0xbcf83cad	-0.03030237
48	0x3d4729c7	0.048623826
49	0x3ae45b30	0.0017422196
50	0xbc753849	-0.014967033
51	0x3cde9249	0.027169364
52	0x3b3a50b3	0.0028429448
53	0xbc1f0d52	-0.009707766
54	0x3c3dcfe8	0.011585213
55	0x3cde59bf	0.027142404
56	0xbb609298	-0.0034267064
57	0x3ca16b7a	0.01970457
58	0x3d0bfbc9	0.034175668
59	0xbc13787b	-0.009000893
60	0x3d5595d7	0.05214485
61	0xbc8707ad	-0.016483152
62	0xbc09af7e	-0.008403657
63	0xbb44bb41	-0.0030018839
64	0xbd3bd0b0	-0.045853317
65	0x3c055101	0.008136989
66	0xbcd6eec9	-0.026236909
67	0x3cd57d52	0.026060734
68	0x3b0c6d66	0.0021427511
69	0x3c87a59a	0.016558457
70	0xbd26acff	-0.040692326
71	0x3c5079e0	0.01272437
72	0xbd160dc7	-0.036634233
73	0x3c281e0a	0.010261068
74	0x3c404a9d	0.011736539
75	0xbcc8683f	-0.02446377
76	0xbce957fd	-0.028484339
77	0xbd19df30	-0.037566364
78	0xbd13de3e	-0.03610062
79	0x3d2f31a8	0.042771965
80	0x3cfa1354	0.030526794
81	0x3bb7f565	0.00561397
82	0xbcc8742f	-0.024469463
83	0x3bbe7a09	0.0058128876
84	0xbc3ede4f	-0.011649682
85	0x3d77eee7	0.06053057
86	0xbcd5e9c0	-0.026112437
87	0x3c983203	0.018578535
88	0x3baf57e4	0.0053510536
89	0xbd029e86	-0.03188946
90	0x3bd20291	0.0064089973
91	0xbbba6ecb	-0.005689477
92	0x3b210f8d	0.002457592
93	0x3c2ff6fc	0.010740038
94	0xb8bd57a8	-9.0285495e-05
95	0x3d6bea7c	0.05759667
96	0x3c1669a4	0.00918046
97	0x3af7fcf8	0.0018919995
98	0x3c3a902a	0.01138691
99	0x3b9f173c	0.0048550647
100	0xbc9b5d3f	-0.018965362
101	0x3cf4e39a	0.029893685
102	0xbccd72fc	-0.025079243
103	0x3bc28ee1	0.0059374426
104	0xbc273551	-0.010205583
105	0xbbf0481c	-0.007332815
106	0x3d1abf3d	0.037780035
107	0x3c6baa2b	0.014383833
108	0xbbd1d6a2	-0.00640376
109	0x3c9effec	0.019409142
110	0x3c91e373	0.017808652
111	0xbcab9068	-0.020942882
112	0xbd11e850	-0.03562194
113	0x3c8c3049	0.017112868
114	0x3c0facb1	0.0087692
115	0x3d141e14	0.036161497
116	0xba3c55ac	-0.0007184397
117	0xbb0dbc0b	-0.0021626975
118	0xbc4a0a1d	-0.012331513
119	0x3b2def5a	0.002654037
120	0x3d07ddd7	0.033170547
121	0x3c0b10af	0.008487864
122	0x3cb0e19e	0.021591958
123	0x3a3f54ae	0.000729869
124	0x3c88cc36	0.016698938
125	0xbc7f0af0	-0.015566573
126	0xbd3e5a82	-0.046473034
127	0x3cc847b8	0.02444826
128	0xbcc518c0	-0.024059653
129	0x3bfd2684	0.0077255387
130	0xbd260941	-0.04053617
131	0xbc931183	-0.017952686
132	0xbb832521	-0.004002229
133	0xbbc11c27	-0.0058932486
134	0x3ba15981	0.004924
135	0xbccd5c3f	-0.0250684
136	0xbc55f881	-0.013059736
137	0x3d091a24	0.033472195
138	0xbc36b2ff	-0.011151074
139	0xbb2d094d	-0.0026403249
140	0x3d0f295a	0.034951545
141	0x3c6b117e	0.014347432
142	0xbc810c43	-0.015752917
143	0xbcbfa244	-0.023392804
144	0x3c2e9dc2	0.01065773
145	0x3c559953	0.013037044
146	0xbb0ca22d	-0.002145897
147	0xbc14ea05	-0.009088998
148	0x3c28aa3a	0.010294491
149	0x3c3a85ea	0.011384467
150	0xbcc19402	-0.023630146
151	0xbc7fd435	-0.015614559
152	0xbb1ba7d2	-0.0023751152
153	0xbc100200	-0.008789539
154	0xbbd87aac	-0.0066064205
155	0xbc8e900b	-0.01740267
156	0xbd1b5213	-0.03792007
157	0x3d0c1384	0.0341983
158	0x3d7e8a43	0.062143575
159	0x3b0d145a	0.0021527023
160	0xbcac9f34	-0.021072008
161	0x3d0ff905	0.035149593
162	0x3d20804f	0.039184865
163	0x3cdffb2e	0.027341451
164	0x3cbadd74	0.022810675
165	0xbbffdc49	-0.0078082425
166	0xbc956b83	-0.018239742
167	0xbbdf5c45	-0.0068164193
168	0x3c82136f	0.015878407
169	0xbc831402	-0.016000751
170	0x3c1b1546	0.009465521
171	0x3aee89ba	0.0018199005
172	0xbc250c95	-0.010073801
173	0x3d3b07c8	0.045661718
174	0x3b9db017	0.0048122513
175	0xba668d12	-0.0008794825
176	0x3bd81389	0.0065941256
177	0x3d457982	0.048211582
178	0x3ca195f6	0.019724827
179	0xbc86c217	-0.016449971
180	0xbc74faf3	-0.014952409
181	0xbb142f2e	-0.002261113
182	0xbb5518ed	-0.0032516078
183	0xbce606ce	-0.028079417
184	0xbd64081a	-0.05567179
185	0xbc4d240f	-0.012520804
186	0x3c8e45a5	0.017367193
187	0xbc6deabe	-0.014521299
188	0x3cba9b7e	0.022779223
189	0x3c5a56d0	0.013326362
190	0xbd1cbc47	-0.038265493
191	0xbccb0026	-0.024780344
192	0xbd4d1522	-0.050068982
193	0xbc7736e6	-0.015088772
194	0xbcca22ec	-0.024674855
195	0x3d05bf3d	0.032653082
196	0x3d00956b	0.031392496
197	0xbcd2e8fa	-0.025745858
198	0xbd00af8c	-0.031417415
199	0xbc558685	-0.01303256
200	0x3c932e0e	0.017966297
201	0x3ce9f459	0.028558897
202	0xb8852e38	-6.350543e-05
203	0x3b9d23e9	0.0047955406
204	0x3be204aa	0.0068975287
205	0xba98aafa	-0.0011647635
206	0x3caab8eb	0.020840129
207	0x3cd877d8	0.026424333
208	0xbc2314b5	-0.009953667
209	0xbc0734fb	-0.008252378
210	0x3b8987af	0.004197083
211	0xbc2322c2	-0.009957017
212	0xbae2937c	-0.0017286385
213	0xbceff612	-0.02929214
214	0x3bc643bc	0.006050555
215	0xbb080ac8	-0.002075838
216	0x3b83158c	0.0040003713
217	0xbb457890	-0.0030131675
218	0xbc595251	-0.013264255
219	0xbcf5c373	-0.030000424
220	0x3ca28513	0.019838845
221	0x3a8bba50	0.0010660384
222	0x3c7a2bdc	0.015269246
223	0xbc703da6	-0.014663136
224	0xbb9d9f0b	-0.004810219
225	0x3d086ea0	0.033308625
226	0x3b83c5b2	0.00402137
227	0xbc7c3fc7	-0.015396065
228	0x3c232f36	0.009959986
229	0x3b097c7a	0.0020978735
230	0xbd0b4a5d	-0.034006465
231	0x3c2d7f4d	0.010589433
232	0x3cccaa17	0.024983449
233	0xbb89671e	-0.0041932007
234	0x3c0bf0ec	0.008541327
235	0x3ca3d384	0.01999832
236	0x3c93c90d	0.018040204
237	0x39310968	0.0001688354
238	0x3c880200	0.016602516
239	0xbb753ddc	-0.0037420904
240	0x3ace7605	0.0015751725
241	0x3b1dafa2	0.0024060984
242	0x39b31cd2	0.00034163013
243	0xbc82715e	-0.015923198
244	0xbd1a2d73	-0.037641
245	0xbb749505	-0.0037320268
246	0x3cba0f01	0.022712233
247	0x3ca606dc	0.020266943
248	0x3cc9c1b9	0.024628507
249	0xbae7a542	-0.0017673152
250	0xbce8068c	-0.028323434
251	0xbcdb26f0	-0.026751965
252	0xbc6d650b	-0.014489423
253	0xbd035561	-0.032063846
254	0x3c52a60c	0.0128569715
255	0x3c0880d0	0.008331493

conv.4.bias f4 [4]
0	0x3b73617c	0.0037136963
1	0xbc1886b8	-0.009309463
2	0x3b5e2f3f	0.0033902673
3	0x3d006de9	0.03135482

conv.9.weight f4 [32, 4, 5, 5]
0	0xbc0a25dc	-0.008431878
1	0x3cacb70f	0.021083383
2	0x3bfc3fec	0.00769805
3	0x3c0a175d	0.008428422
4	0xbb9343f5	-0.004494185
5	0xbbf0464a	-0.007332598
6	0x3c85bbaf	0.016324846
7	0x3a5d739a	0.0008447707
8	0xbbc37360	-0.0059646815
9	0xbb9602a1	-0.00457795
10	0xbb3df9da	-0.0028988034
11	0xbbe0c227	-0.0068590823
12	0x3b6cc7b7	0.0036129782
13	0xbbc327f4	-0.0059556905
14	0xbbce3a8c	-0.0062936004
15	0x3be9bb4a	0.0071329223
16	0xbb9af8d5	-0.00472937
17	0x3bbdda78	0.005793866
18	0x3cbf76ef	0.023372142
19	0xbb2518a3	-0.0025191687
20	0x3c8ae6e3	0.016955798
21	0x3a8bad6a	0.001065654
22	0xbbe66f18	-0.0070322864
23	0x3cc84574	0.02444718
24	0x3be64eb6	0.007028426
25	0xbb530827	-0.0032200904
26	0x3c8549ed	0.016270602
27	0xbc99a8c9	-0.01875724
28	0x3bb2ab92	0.0054525817
29	0x3b8c2c06	0.004277709
30	0xbc145bb9	-0.0090550715
31	0x3b109442	0.0022061025
32	0xbc2a2b15	-0.010386248
33	0x3c6e4538	0.01454287
34	0x3b5ff93a	0.003417565
35	0xbad18ffe	-0.0015988348
36	0xbb28acc5	-0.0025737744
37	0xbbad1da3	-0.005283074
38	0x3c642718	0.013925336
39	0xbba4904f	-0.0050220857
40	0xbbab95ab	-0.0052363477
41	0x3cb4b019	0.022056626
42	0x3bcfeb29	0.006345172
43	0xbc87944b	-0.016550204
44	0x3c4ed0b2	0.012622999
45	0x3cc13893	0.023586547
46	0x3cb4752c	0.022028528
47	0x3ba08b3b	0.00489941
48	0xbc0d2a03	-0.008615973
49	0x3c41d29c	0.011829998
50	0xbb557723	-0.0032572232
51	0xbc72db9e	-0.014822869
52	0xbbec0a0b	-0.0072033457
53	0xbc84b921	-0.016201558
54	0xbcb00d8f	-0.02149084
55	0x3a390892	0.0007058467
56	0xbb1a335e	-0.0023529152
57	0x3bcb0926	0.006196159
58	0x3b21192b	0.0024581652
59	0x3bfc0b0e	0.0076917475
60	0x3c7e807c	0.015533563
61	0xba863df2	-0.001024185
62	0x3c3b5ead	0.011436147
63	0x3b9a793b	0.004714159
64	0x3c6311e2	0.013859244
65	0xbb95033d	-0.004547505
66	0xba8836d9	-0.0010392322
67	0xbb9a5af1	-0.004710548
68	0xbb064cf7	-0.0020492652
69	0x3c1473d3	0.009060818
70	0x3b5b00ef	0.0033417305
71	0x3ba0f203	0.0049116625
72	0x3c1c3199	0.009533309
73	0x3c6eed3c	0.014582928
74	0x3bdca958	0.0067340545
75	0xbacf6dfd	-0.0015825626
76	0x3ba5b2d3	0.005056718
77	0xb94aa9a5	-0.00019327419
78	0x3c705710	0.014669195
79	0x3c25f503	0.010129216
80	0x3a357cb6	0.00069231854
81	0x39db9333	0.00041880607
82	0xbbb64689	-0.0055626077
83	0x38b0061c	8.393472e-05
84	0xbb1ed58c	-0.002423617
85	0xbb6c7cdd	-0.0036085167
86	0x3c3fe51d	0.01171234
87	0xb7377990	-1.09359535e-05
88	0xbb8d3e86	-0.004310432
89	0xb9ba2a9f	-0.0003550844
90	0xbaa433b0	-0.0012527611
91	0xbc4539c5	-0.012037699
92	0xbbc1c0a9	-0.0059128595
93	0x3bc8c34d	0.0061267973
94	0xbc0e074d	-0.008668733
95	0xbb420b5c	-0.0029608821
96	0x3a132c6c	0.00056142244
97	0x3c0bbcf7	0.008528939
98	0x3b9ebcc1	0.0048442786
99	0x3c036887	0.008020527
100	0x3b2fd6c8	0.00268309
101	0x3b9f90a8	0.0048695393
102	0x3c08dcdc	0.008353438
103	0x3c71b033	0.014751482
104	0xbbaaa7a3	-0.005207972
105	0xbbf00c50	-0.0073256865
106	0x3c5032be	0.01270741
107	0xbbeaf71b	-0.0071705705
108	0xbbb09ed8	-0.0053900294
109	0xbb7e0a9f	-0.0038763655
110	0xbb28574b	-0.0025686796
111	0xbbc736bc	-0.006079523
112	0xbb6be03e	-0.0035991813
113	0xbbd90fc6	-0.006624195
114	0xbc03c86f	-0.008043393
115	0x3c65434b	0.013993095
116	0xbbb2e2eb	-0.0054591796
117	0x3c7c8460	0.01541242
118	0x3b0cda02	0.0021492247
119	0xbb170c55	-0.0023048122
120	0x3caa81b6	0.020813804
121	0x3b1989e8	0.0023428146
122	0xbad0b424	-0.0015922827
123	0x3cdaaa16	0.026692431
124	0xbb8c3a66	-0.0042794226
125	0xbc585679	-0.01320421
126	0xbc699618	-0.014256977
127	0x3b03fdb0	0.0020140223
128	0x3c4efd1c	0.012633588
129	0x3a11675c	0.0005546713
130	0xbc861eee	-0.01637217
131	0xba958a77	-0.0011409064
132	0x3bf307dc	0.0074167084
133	0x3c905e68	0.017623141
134	0x3bb4ac5c	0.005513711
135	0x3c027fc0	0.007965028
136	0xbb2b553a	-0.0026143328
137	0xbb7b9bed	-0.00383925
138	0x3c874ef6	0.016517144
139	0xbb88ad96	-0.0041710837
140	0xbbb14cb5	-0.0054107555
141	0x3c578c80	0.013156056
142	0xba46b383	-0.000757985
143	0xbcafc8dc	-0.021458082
144	0x3c815726	0.015788626
145	0x3c63efcc	0.0139121525
146	0x3c208253	0.009796697
147	0x3cc19e87	0.023635162
148	0xbc180aa0	-0.009279877
149	0x3c134b7f	0.008990168
150	0xbb5de118	-0.003385609
151	0xbcb98f92	-0.022651467
152	0xbc0b43c4	-0.008500043
153	0xbb7abb2a	-0.003825853
154	0xbbc03183	-0.0058652773
155	0x3a498478	0.0007687281
156	0xbb48b23b	-0.0030623812
157	0x3ce3a1c7	0.027787102
158	0x3b9f2ed6	0.004857878
159	0xbbacf7e8	-0.005278576
160	0x3c99bf27	0.018767906
161	0xbafc8676	-0.0019266147
162	0x3ce63c98	0.028105065
163	0xba15ca11	-0.0005714009
164	0x3ba92aee	0.0051625883
165	0xba0f600e	-0.00054693304
166	0x3b8119db	0.00393985
167	0xbb5cddcd	-0.003370154
168	0xbb3be321	-0.0028669315
169	0x3c5892d5	0.013218601
170	0x3cae5ef9	0.02128552
171	0x3c009cf3	0.00784992
172	0x3a55dbc2	0.00081580516
173	0x3c8b3b37	0.01699601
174	0x3ace27d2	0.001572842
175	0xbb0805f9	-0.0020755513
176	0x3c9dee07	0.01927854
177	0x3c2add66	0.010428762
178	0x3bf899da	0.0075867
179	0x3c898d22	0.01679093
180	0x3b6d3df8	0.0036200266
181	0xbb41adec	-0.0029553128
182	0xbbfc3b37	-0.0076974886
183	0x3c20cfe5	0.009815191
184	0x3b460f76	0.0030221618
185	0x3c9303d7	0.017946167
186	0xbaac03a1	-0.001312364
187	0xbaf656bb	-0.0018794158
188	0xbc20b7c6	-0.00980944
189	0xb9d86540	-0.00041274168
190	0xbb0194ab	-0.001977245
191	0xbc3e4743	-0.01161367
192	0xba9af91e	-0.001182351
193	0x3bd014f0	0.006350152
194	0xbb6f4490	-0.0036509372
195	0xba0081c2	-0.0004902148
196	0x3a1614b7	0.00057251327
197	0x3c1e331a	0.009655738
198	0x3bc1ca68	0.0059140213
199	0x3b954f3d	0.004556565
200	0x3864674b	5.4455635e-05
201	0x3b8b35f7	0.0042483765
202	0x3928d7ce	0.00016102122
203	0x3977638e	0.00023592843
204	0xba60e001	-0.0008578301
205	0xbadaeda9	-0.0016702908
206	0x3a5adfb5	0.0008349375
207	0x3b84241a	0.004032624
208	0xb9a35b4f	-0.00031157813
209	0xb9de5a3f	-0.00042410378
210	0xb9df61f1	-0.00042606847
211	0xba21bf40	-0.0006170161
212	0x3ae6fecc	0.0017623543
213	0x38cad428	9.671628e-05
214	0xbab06f44	-0.0013460894
215	0xb819935c	-3.661528e-05
216	0xba5dc09c	-0.0008459182
217	0xbb12abee	-0.002238031
218	0x3c635d73	0.0138772605
219	0xba736341	-0.00092845043
220	0x3c38cf25	0.011279856
221	0x3aa880b0	0.0012855735
222	0xbac18600	-0.0014764667
223	0x3be47338	0.006971743
224	0x3bb3ea30	0.005490564
225	0xbb85671f	-0.004071131
226	0x39e34314	0.0004334679
227	0xba9e7b1f	-0.0012091136
228	0x3b005823	0.0019583784
229	0x3952b25e	0.00020093608
230	0xbb523294	-0.0032073604
231	0x3992a2a1	0.00027968458
232	0xba84abd4	-0.001012201
233	0x3b47b0dd	0.003047041
234	0x3bcc52b4	0.006235445
235	0xba1360a0	-0.0005622003
236	0x39c10f6a	0.00036823313
237	0xb960b881	-0.00021431038
238	0x3b8b9594	0.0042597745
239	0x38f1446e	0.000115045215
240	0xba3e0301	-0.00072483724
241	0x3b19747f	0.0023415384
242	0x3c0b1a6b	0.008490185
243	0xbb0a20d2	-0.0021076691
244	0xb9bb4634	-0.00035719725
245	0x3be7b26a	0.007070829
246	0x3c5ba9d7	0.013407192
247	0x3c513bf4	0.012770642
248	0xb9ad8678	-0.00033097318
249	0x3c250aba	0.010073358
250	0xba647bb3	-0.00087159424
251	0xbba6b8cb	-0.005087947
252	0x3bab87a4	0.0052346755
253	0xbad31ab7	-0.0016105984
254	0xbbc2cb59	-0.005944651
255	0x39c70ed4	0.00037967286

conv.9.bias f4 [32]
0	0x3bd024af	0.0063520293
1	0x3c2e6d2f	0.010646149
2	0x3b7da5d7	0.0038703585
3	0x3b85d2e1	0.0040839766
4	0x3d04f61e	0.03246128
5	0xba832d91	-0.0010008087
6	0x39a7551d	0.00031916137
7	0x3bdf4243	0.006813319
8	0x3c58a649	0.013223239
9	0xbc248f67	-0.010043955
10	0xb9cdfe6c	-0.00039290206
11	0x3c7bc6b3	0.015367198
12	0x3bad3c2d	0.0052867145
13	0x3a5e9aab	0.0008491675
14	0x3b95e871	0.0045748283
15	0xbb2e7432	-0.002661955
16	0x3c9ce846	0.019153725
17	0x395801a4	0.00020599976
18	0x3bba3ef3	0.0056837737
19	0x39af2129	0.00033403307
20	0x3bc13e3d	0.005897312
21	0xba149be8	-0.0005668984
22	0x3b438263	0.0029832355
23	0x3b8f3d73	0.004371339
24	0x3c85a116	0.016312163
25	0x3c46d636	0.012136033
26	0xb8fde366	-0.00012106336
27	0x3bcf8e5c	0.006334109
28	0x3c0302f4	0.00799631
29	0x3b5633d7	0.0032684708
30	0x3c07d25f	0.0082899025
31	0x3c686b90	0.014185801

lin.0.weight f4 [16, 32]
0	0xbe2acef6	-0.16680512
1	0xbc998590	-0.018740445
2	0x3c90998a	0.017651338
3	0xbdfadb88	-0.122489035
4	0x3aee07db	0.00181603
5	0xbe11fb3a	-0.14255992
6	0x3dd9e0cf	0.10638582
7	0x3e0eb2e1	0.13935424
8	0xbdbbd48b	-0.09171399
9	0xbe12157e	-0.14266011
10	0xbdaa28cd	-0.083085634
11	0x3c67c0e9	0.014145114
12	0xbde839c1	-0.11339141
13	0xbde8a09e	-0.1135876
14	0xbde5f4e8	-0.11228353
15	0xbdadac46	-0.08480124
16	0x3d26beaa	0.040709175
17	0xbe15c666	-0.14626464
18	0xbe2eb4bd	-0.17061134
19	0x3da71ed5	0.081601776
20	0x39b7dd3a	0.00035069307
21	0xbdab2823	-0.08357265
22	0xbe3f43fb	-0.18678276
23	0xbdfe782d	-0.124252655
24	0x3d053918	0.032525152
25	0x3de153fd	0.110023476
26	0xbda002b9	-0.07813019
27	0xbe2c7296	-0.16840586
28	0xbd8fec54	-0.07027498
29	0xbd57ac45	-0.052654523
30	0xbe0ca39f	-0.13734291
31	0x3d312f74	0.043258145
32	0xba4d50f8	-0.00078321947
33	0x3e2a90e5	0.16656835
34	0x3a1810fc	0.0005800871
35	0x3e434729	0.19070114
36	0x3e29a36e	0.1656625
37	0x3d1e57af	0.03865784
38	0x3ca588c7	0.020206822
39	0x3d7227af	0.059119876
40	0x3e808cc1	0.25107387
41	0xbcdfbf41	-0.027312877
42	0xbdd0e047	-0.101990275
43	0x3e1293eb	0.14314239
44	0x3da52347	0.08063369
45	0x3d968268	0.07349092
46	0x3d3f68ac	0.046730682
47	0x3dafa804	0.08576968
48	0x3dfc00a8	0.12304813
49	0x3d5983bc	0.053104147
50	0x3d8f05bb	0.06983515
51	0xbd430c45	-0.047619123
52	0xbd5ca524	-0.053868428
53	0xbd737d70	-0.0594458
54	0x3df7a454	0.1209189
55	0x3d1f193f	0.038842436
56	0x3e052a00	0.13004303
57	0x3e402b2f	0.18766473
58	0x3d6d4a3f	0.057932135
59	0x3e018431	0.12648083
60	0x3cbd67c5	0.02312077
61	0x3d8f3298	0.06992072
62	0x3e3d48d0	0.18484807
63	0x3e2bf8e4	0.16794163
64	0x3d668b60	0.056285262
65	0x3dc951fa	0.09830089
66	0x3c3a8959	0.011385285
67	0xbc5fd5bb	-0.013661797
68	0xbdc06544	-0.09394315
69	0xbdf1a735	-0.1179947
70	0x3d85468a	0.06507595
71	0xbb0780f4	-0.0020676227
72	0xbe32b6bc	-0.1745252
73	0x3dc92f1e	0.0982344
74	0x3ddaa072	0.10675134
75	0xbe423e1a	-0.18969002
76	0x3e01403e	0.12622163
77	0x3b8219df	0.003970369
78	0xbdf3058f	-0.118662946
79	0xbd551f6f	-0.05203193
80	0xbde52027	-0.11187773
81	0x3c86efe5	0.016471813
82	0xbdea021c	-0.114261836
83	0xbda4f978	-0.08055395
84	0x3e13fee8	0.14452708
85	0xbdab7e15	-0.083736576
86	0xbd11257b	-0.035436135
87	0xbd65d4f0	-0.056111276
88	0x3e1535c2	0.14571288
89	0xbdd33c6e	-0.103142604
90	0xbcfd07d0	-0.030887514
91	0xbccbcb2f	-0.024877159
92	0xbcf1a0d1	-0.029495629
93	0xbdd09b6b	-0.101858936
94	0xbd1f5645	-0.038900632
95	0x3dd28382	0.102789894
96	0xbda0f341	-0.07858897
97	0xbddde71f	-0.108350985
98	0x3e10d991	0.14145495
99	0xbdd9de9f	-0.10638165
100	0x3d0cc8ac	0.034371063
101	0x3dabecb7	0.08394759
102	0xbdcfec93	-0.10152545
103	0x3c4a5826	0.012350118
104	0x3db04255	0.08606402
105	0xbd8f88f5	-0.07008544
106	0x3cf2da4a	0.029645104
107	0xbd8d0d11	-0.06887258
108	0x3e16020e	0.14649221
109	0xbdc40647	-0.0957151
110	0x3d80dc0e	0.06291972
111	0x3dd35196	0.10318296
112	0x3e63ce14	0.22246581
113	0x3c4f1362	0.012638899
114	0x3e0e0493	0.13868932
115	0xbde9eede	-0.114225134
116	0x3e12a57f	0.14320944
117	0x3c0c149f	0.008549838
118	0x3e180214	0.14844543
119	0xbda666ce	-0.08125077
120	0xbd96429d	-0.07336924
121	0x3cc2b072	0.023765776
122	0xbd015118	-0.031571478
123	0x3b0be2a4	0.0021344805
124	0xbdee31a8	-0.11630565
125	0x3d62c819	0.05536661
126	0xbd206f02	-0.039168365
127	0xbe0accd1	-0.13554694
128	0xbd72646e	-0.05917781
129	0x3d5d1e08	0.05398372
130	0xbd9e15ce	-0.07719003
131	0xbe0b1e70	-0.1358583
132	0x3e3f4999	0.18680419
133	0x3e228ba1	0.15873577
134	0xbddb4018	-0.10705584
135	0xbcd39417	-0.02582745
136	0x3e58f38e	0.21186659
137	0x3ddb8b86	0.10719971
138	0xbd88a363	-0.066717885
139	0x3d83ed33	0.064417265
140	0x3c7f233e	0.015572367
141	0xbd1ef25c	-0.03880535
142	0x3d983234	0.074314505
143	0x3d84f58b	0.06492146
144	0x3e02b7d7	0.12765442
145	0x3a0d17e9	0.0005382286
146	0x3e198a54	0.14994174
147	0x3d6c07bb	0.05762456
148	0xbdf38ca2	-0.11892058
149	0xbcd67e1e	-0.026183184
150	0x3cdc61c6	0.02690209
151	0x3d81d980	0.06340313
152	0xbc6d8d2d	-0.014498991
153	0x3e5bc536	0.21461949
154	0x3d8d2cd8	0.06893319
155	0x3e416841	0.18887426
156	0x3e4ffcc8	0.20311272
157	0x3e43b482	0.19111827
158	0x3e539979	0.20664014
159	0x3e208e25	0.15679224
160	0x3de29295	0.110631146
161	0x3d0ba087	0.034088638
162	0x3dc22ed6	0.094815895
163	0xbe0d97ff	-0.13827513
164	0x3e22eca8	0.1591059
165	0x3e1679d3	0.1469491
166	0x3d40434a	0.04693917
167	0xbcff1c06	-0.031141292
168	0x3d822eda	0.063565925
169	0xbe10b090	-0.14129853
170	0x3dab05b2	0.08350696
171	0x3e2c2237	0.16809927
172	0xbc6d5b1d	-0.014487055
173	0x3da2c8fb	0.0794849
174	0xbd999826	-0.07499723
175	0x3e138c0f	0.14408897
176	0x3e77c097	0.24194561
177	0x3d774509	0.06036857
178	0x3dc50149	0.09619386
179	0x3e211251	0.15729643
180	0x3d8593b6	0.06522314
181	0x3df10def	0.11770236
182	0x3e138229	0.14405121
183	0xbd82f6d9	-0.06394739
184	0xbe1e99f0	-0.1548841
185	0xbd83e66f	-0.06440436
186	0xbdce9de0	-0.10088706
187	0x3dcd9609	0.100383826
188	0x3e0c92c3	0.1372786
189	0x3e1abb37	0.1511048
190	0x3e08c4db	0.13356344
191	0x3dc0f6cb	0.09422072
192	0xbe0bf932	-0.13669279
193	0xbd159baf	-0.036525425
194	0xbd8e25f4	-0.06940833
195	0xbb775d6f	-0.00377449
196	0x3de4a955	0.1116511
197	0xbdfe8ec3	-0.124295734
198	0xbe12b758	-0.14327753
199	0x3dd536da	0.10410853
200	0xbd058cb4	-0.032604888
201	0x3d2cb2ec	0.04216282
202	0xbdd3a3e6	-0.103339955
203	0xbde2037f	-0.11035823
204	0xbd5ea55f	-0.05435693
205	0xbd2512d6	-0.040301166
206	0xbdd72956	-0.10505931
207	0x3dff094c	0.12452945
208	0xbdd19ba9	-0.10234768
209	0xbd412e5b	-0.04716335
210	0x3e34b5ee	0.17647526
211	0xbd97244a	-0.073799685
212	0xbdc24ecd	-0.09487686
213	0x3e1352f3	0.14387111
214	0x3dbd60fc	0.09247014
215	0x3d84011c	0.06445524
216	0xbe00d030	-0.12579417
217	0xbdbfd693	-0.09367099
218	0x3d3dbf78	0.046325177
219	0x3d33203c	0.043731913
220	0xbe0a2350	-0.13490033
221	0xbe147647	-0.14498244
222	0x3df58dac	0.119899124
223	0xbd75c9e9	-0.06000701
224	0x3d0e2642	0.034704454
225	0x3e4caecb	0.19988553
226	0x3df3b3ac	0.11899504
227	0xbd2203ca	-0.039554395
228	0x3da2ef72	0.07955827
229	0xbe093a38	-0.13401115
230	0x3cf7a9d4	0.030232348
231	0xba83f588	-0.0010067681
232	0x3dc31bc4	0.0952678
233	0xbd113f1f	-0.035460588
234	0xbafb1a0d	-0.0019157544
235	0x3d528cb8	0.05140373
236	0x3dd851b6	0.1056246
237	0xbdd79c9e	-0.10527919
238	0xbd8dccd1	-0.06923831
239	0x3dee402d	0.11633334
240	0x3e708da8	0.23491538
241	0xbda2299e	-0.07918094
242	0x3d7acf5a	0.061232902
243	0xbdc88ec9	-0.09792859
244	0xbdf5b1cd	-0.119968034
245	0xbda301f1	-0.07959355
246	0xbd6de366	-0.058078192
247	0x3e6bc92c	0.2302596
248	0xba37ec7a	-0.0007016134
249	0x3d02de13	0.031950068
250	0x3e145dc6	0.14488897
251	0xbd527266	-0.05137863
252	0x3dee376b	0.11631664
253	0xbdbf9440	-0.09354448
254	0xbc84ec6c	-0.016226016
255	0xba9e7d2c	-0.0012091747

lin.0.bias f4 [16]
0	0x3df1986e	0.11796652
1	0xbdb205de	-0.08692525
2	0x3dc0944b	0.09403285
3	0xbb11cab7	-0.0022246072
4	0x3c5e8bfc	0.01358318
5	0x3dc0bbf1	0.09410847
6	0x3ba962b1	0.0051692356
7	0x3e09f242	0.1347132
8	0xbdd26283	-0.10272696
9	0xbdc3080c	-0.09523019
10	0x3d639b6d	0.055568147
11	0xbdaf5957	-0.08561962
12	0x3e610d67	0.21977769
13	0x3d738a14	0.059457853
14	0x3d1e392f	0.038628753
15	0x3dbb4115	0.09143273

lin.2.weight f4 [1, 16]
0	0xbe518426	-0.20460567
1	0x3e888386	0.26662844
2	0xbdf4ff58	-0.119627655
3	0x3e3f70b3	0.18695335
4	0x3e76f051	0.24115111
5	0x3e6bee51	0.23040129
6	0xbd9ca05e	-0.07647775
7	0x3e867e9a	0.26268464
8	0xbd1f39d2	-0.0388735
9	0xbe4c1f1c	-0.19933742
10	0xbe12cb9a	-0.1433548
11	0xbd807039	-0.06271405
12	0x3e523b8e	0.20530531
13	0xbe0114ec	-0.12605637
14	0x3e1a17b2	0.15048102
15	0x3e1b40e0	0.15161467
