sim/models/round_about.onnx (onnx, 68760 bytes, 13 tensors)

conv.0.weight f4 [4, 1, 5, 5]
-0.0067587118 -0.0027627416 -0.009888012 0.009959374 -0.012164593 0.0009932494 -0.0008692266 0.0036956298
0.012419373 0.0038121243 0.008409507 -0.017304955 -0.0076541314 0.017903138 -0.023131806 0.008591609
-0.006473255 -0.012325691 0.011567203 0.005222369 -0.0124415215 -0.020464491 -0.011067298 -0.0022708043
-0.0034197888 -0.009008222 0.002529665 0.008675209 -0.03340611 0.014054784 0.0037315718 0.0027856957
-0.0029850153 0.00261983 0.00079628977 0.016422125 -0.012683815 0.0080112275 0.0030330806 -0.007822616
-0.01096903 0.011669605 -0.007571602 -0.0011083691 -0.0040484043 0.013946107 -0.0093487995 0.009779243
0.0051729754 0.003780778 0.0029887531 -0.0058981855 0.006903595 0.009639501 -0.0095830085 -0.004142744
0.0021794639 0.0034595132 -0.0046994486 -0.00025117677 0.0016099402 -0.0002151653 0.005095481 0.0021969196
-0.007642858 0.0026193508 0.004273696 0.0044528963 -0.056126226 -0.010104638 0.002126548 -0.020886987
0.0018121909 0.0001238565 0.00698058 -0.006510618 0.007483829 -0.019368665 0.032723453 0.00083176105
-0.025732325 -0.0031005493 0.0031623302 -0.0062835026 -0.028654775 0.021315377 -0.0028271521 0.0013269141
-0.00635878 0.0063992064 -0.0014158239 0.016091341 0.0060387193 0.002666973 0.0055476967 -0.0012652833
-0.011184776 0.0041178404 -0.005861146 0.001488261
00000000: 2f78 ddbb 1d0f 35bb 5401 22bc a42c 233c
00000010: 004e 47bc eb2f 823a cfdc 63ba 6132 723b
00000020: a07a 4b3c d5d4 793b 07c8 093c 1fc3 8dbc
00000030: 82cf fabb 9aa9 923c ea7e bdbc d2c3 0c3c
00000040: 991d d4bb b2f1 49bc 5e84 3d3c 6820 ab3b
00000050: 86d7 4bbc 26a5 a7bc 9d53 35bc c6d1 14bb
00000060: 891e 60bb 3997 13bc bcc8 253b 7722 0e3c
00000070: d8d4 08bd 0946 663c 638d 743b 3890 363b
00000080: 3fa0 43bb 74b1 2b3b 1abe 503a b187 863c
00000090: c7cf 4fbc 8641 033c a6c6 463b 6e2a 00bc
000000a0: 72b7 33bc df31 3f3c 331b f8bb b246 91ba
000000b0: 7aa8 84bb 367e 643c b52b 19bc 1e39 203c
000000c0: 1082 a93b eec6 773b f5de 433b 9145 c1bb
000000d0: 8d37 e23b ffee 1d3c 0d02 1dbc dbbf 87bb
000000e0: 56d5 0e3b 00b9 623b d5fd 99bb 60b0 83b9
000000f0: a104 d33a ff9d 61b9 fef7 a63b 32fa 0f3b
00000100: f170 fabb 6aa9 2b3b 5c0a 8c3b 9ae9 913b
00000110: 9de4 65bd ec8d 25bc 8e5d 0b3b 301b abbc
00000120: 0987 ed3a 7adf 0139 59bd e43b 0657 d5bb
00000130: e83a f53b 09ab 9ebc 0709 063d 8a0a 5a3a
00000140: 99cc d2bc 9632 4bbb 193f 4f3b d7e5 cdbb
00000150: 6bbd eabc 969d ae3c be47 39bb d9eb ad3a
00000160: 505d d0bb 6fb0 d13b 2b93 b9ba fdd1 833c
00000170: 73e0 c53b 62c8 2e3b 74c9 b53b ddd7 a5ba
00000180: 5a40 37bc f3ee 863b db0e c0bb c111 c33a

conv.0.bias f4 [4]
-0.003406929 4.7602287e-05 -0.0010784776 9.127677e-05
00000000: c946 5fbb 91a8 4738 b45b 8dba d86b bf38

conv.3.weight f4 [4]
0.6594847 0.67650455 0.65722436 0.6660544
00000000: fdd3 283f 672f 2d3f db3f 283f 8b82 2a3f

conv.3.bias f4 [4]
-0.0051983427 -0.00078829844 -0.004997 0.0017444007
00000000: dc56 aabb d0a5 4eba e0bd a3bb 60a4 e43a

conv.3.running_mean f4 [4]
0.06253194 1.6091224 0.055435438 1.468459
00000000: bf10 803d b9f7 cd3f 4510 633d 77f6 bb3f

conv.3.running_var f4 [4]
0.07712243 1.2558907 0.0441529 1.5936095
00000000: 5df2 9d3d 07c1 a03f acd9 343d 65fb cb3f

conv.4.weight f4 [4, 4, 5, 5]
0.015848167 0.027283803 0.0056500877 -0.0033747337 -0.002345687 0.0052692075 -0.007773141 -0.010103476
-0.011729885 -0.028359044 -0.0021256115 -0.018317768 -0.018251551 -0.012386856 -0.020443887 -0.026185235
-0.005832689 0.0014070544 -0.0034110365 -0.019691166 -0.022014992 0.0066693807 -0.023599315 0.008271676
-0.002699793 -0.012680001 -0.017378842 -0.010650277 -0.0019280254 -0.0022654047 0.004520867 -0.0037245443
-0.0034371617 0.008395644 0.0018237015 0.025831908 0.043344494 0.014620708 0.01833611 0.00937901
0.0010516063 0.009507051 0.015776653 -3.0401323e-05 0.0048883585 -0.008317935 -0.0023870238 0.01209871
0.0025925208 -0.0009262867 0.007624134 0.0187324 0.017165069 0.0008251173 -0.002562115 -0.0020255737
0.0079291165 -0.004709916 -0.011210089 0.014448118 0.0067871152 -0.00997201 0.005968791 -0.0033638545
-0.008348032 -0.008947945 0.011546226 0.02630854 0.019034505 0.018119147 0.011518377 0.013405932
0.02113728 0.031925842 0.04159399 -0.020129371 -0.032104235 -0.0046410467 -0.036660153 -0.0075861514
-0.016659345 0.012084969 -0.00261432 0.00096889754 -0.0004291778 0.021339545 0.008291074 0.01664201
0.010701046 -0.0053619016 -0.0018900436 0.013842211 0.034723196 0.0023130688 0.0056753387 -0.0096404515
0.009108132 -0.005816404 -0.012182117 -0.007935954 -0.0011062835 0.050177395 0.04798168 -0.0042612897
-4.132511e-06 0.0008342273 0.030442012 0.05619343 -0.00021480554 -0.010379826 0.0018489144 0.029949682
0.023645995 0.007068374 -0.0050010984 0.0013800943 0.016102217 -0.0024523535 0.0031953878 0.0012777848
0.0064153573 0.020650143 -0.0002582901 0.01299192 -0.0016425535 -0.0011712069 -0.0035912865 0.031030945
0.012749923 -0.0107077 0.006302015 -0.006471632 -0.015198786 0.011805148 0.0107187135 0.0035075974
-0.01774175 -0.002355461 0.022075772 0.012693205 0.008604441 0.016643856 0.012403504 -0.0011500708
0.0070326705 -0.0041268375 -0.0015404518 -0.010374233 -0.00048540207 0.013147296 -0.02805212 -0.028958254
0.0015068328 -0.0049599246 -0.0037918722 -0.00675948 -0.015202799 -0.019680273 -0.00954103 0.0063356585
-0.030350216 -0.019893821 -0.017779738 -0.020958634 -0.014192803 -0.0002616415 -0.012755584 -0.005649221
-0.0040050372 -0.0065351655 0.003101597 -0.0049241493 0.02216697 0.014258207 -0.0027996053 -0.04304645
-0.014602487 0.0020743117 0.005355472 -0.027816052 -0.0010494626 -0.0061286334 -0.013167336 -0.009771495
9.541375e-05 -0.0286258 0.000107821324 -0.017612018 -0.009745463 -0.0019677393 -0.0044081556 -0.002269466
-0.02139735 0.014410441 -0.0021597908 -0.010389028 -0.024154125 0.020201612 -0.0007991588 -0.00031244959
0.02368317 -0.00082160876 0.00277527 0.045143295 -0.0052355905 0.0011786451 0.013012008 -0.014131607
-0.011005554 -0.012905019 -0.012758185 -0.021765009 -0.010779857 -0.014675061 -0.019079821 -0.027066557
-0.014703951 0.007941491 -0.0022206288 -0.014198717 -0.027015869 -0.028181957 -0.004972567 0.0035426219
-0.011101797 -0.0028637485 -0.01702774 -0.010483389 -0.008012159 0.00045359766 0.0135662565 0.026397627
0.001684403 -0.0055241273 -0.0065249517 0.023187676 0.011961366 0.017583854 0.024784682 0.011189381
0.0019659225 0.01812187 -0.00043516714 0.013046243 0.0008570885 -0.0020548983 -0.00091418764 -2.9991294e-05
0.021333074 0.017679034 0.026402391 0.013795323 -0.0030790535 0.00094690255 -0.0019036682 0.004075989
00000000: 04d4 813c 4882 df3c 5f24 b93b a32a 5dbb
00000010: 19ba 19bb 51a9 ac3b d5b5 febb 0d89 25bc
00000020: b42e 40bc 3a51 e8bc d84d 0bbb 250f 96bc
00000030: 4784 95bc 3df2 4abc f079 a7bc 6b82 d6bc
00000040: 2420 bfbb e96c b83a b28b 5fbb 5e4f a1bc
00000050: c958 b4bc d28a da3b 5a53 c1bc ec85 073c
00000060: 03ef 30bb c7bf 4fbc 135e 8ebc 807e 2ebc
00000070: ccb5 fcba 2f77 14bb c823 943b 7c17 74bb
00000080: 0142 61bb e28d 093c 4509 ef3a 709d d33c
00000090: ff89 313d b28b 6f3c 9c35 963c 6baa 193c
000000a0: 0dd6 893a 76c3 1b3c 0a3e 813c 5806 ffb7
000000b0: 862e a03b f347 08bc 9d6f 1cbb ab39 463c
000000c0: 48e7 293b 0cd2 72ba dfd3 f93b b174 993c
000000d0: c29d 8c3c af4c 583a 28e9 27bb 7dbf 04bb
000000e0: 20e9 013c a455 9abb 85aa 37bc cdb7 6c3c
000000f0: 7366 de3b a461 23bc d995 c33b 1d74 5cbb
00000100: 2fc6 08bc 679a 12bc 622c 3d3c 0285 d73c
00000110: 40ee 9b3c 9b6e 943c 93b7 3c3c 8ea4 5b3c
00000120: 1728 ad3c acc4 023d 765e 2a3d 5ae6 a4bc
00000130: bb7f 03bd ec13 98bb f528 16bd 4095 f8bb
00000140: 2e79 88bc 0900 463c 0355 2bbb 9dfd 7d3a
00000150: 4503 e1b9 45d0 ae3c 49d7 073c d354 883c
00000160: 7153 2f3c e4b2 afbb 57bb f7ba 71ca 623c
00000170: e939 0e3d db96 173b 31f8 b93b fcf2 1dbc
00000180: 463a 153c 8897 bebb 8197 47bc ce05 02bc
00000190: b700 91ba d086 4d3d 7088 443d 4aa2 8bbb
000001a0: 00aa 8ab6 0cb0 5a3a 8761 f93c 152b 663d
000001b0: 6c3d 61b9 2510 2abc 4657 f23a 0959 f53c
000001c0: 3fb5 c13c d29d e73b 41e0 a3bb 48e4 b43a
000001d0: cce8 833c aab7 20bb b669 513b 587b a73a
000001e0: eb37 d23b 7d2a a93c 1c6b 87b9 10dc 543c
000001f0: f34a d7ba 2f83 99ba ca5b 6bbb 9c34 fe3c
00000200: 0ee5 503c 596f 2fbc 2281 ce3b fc0f d4bb
00000210: 5404 79bc 616a 413c 8b9d 2f3c b8df 653b
00000220: 2657 91bc 145e 1abb 40d8 b43c 29f7 4f3c
00000230: a4f9 0c3c b258 883c 1138 4b3c f9bd 96ba
00000240: 5172 e63b 6c3a 87bb fce8 c9ba b0f8 29bc
00000250: 907d feb9 c267 573c 8fcd e5bc dc39 edbc
00000260: eb80 c53a dd86 a2bb 0f81 78bb a17e ddbb
00000270: 2915 79bc 8638 a1bc fb51 1cbc 5b9b cf3b
00000280: 04a1 f8bc 5ef8 a2bc d0a6 91bc 71b1 abbc
00000290: ee88 68bc ed2c 89b9 ccfc 50bc 1a1d b9bb
000002a0: b03c 83bb f124 d6bb 2a44 4b3b c25a a1bb
000002b0: 8197 b53c 419b 693c 9579 37bb 7951 30bd
000002c0: 453f 6fbc 2df1 073b f57c af3b 7dde e3bc
000002d0: 1f8e 89ba b4d2 c8bb cfbb 57bc 9f18 20bc
000002e0: de18 c838 a780 eabc 221e e238 1447 90bc
000002f0: 6fab 1fbc 30f5 00bb 4a72 90bb 52bb 14bb
00000300: 7f49 afbc c519 6c3c 478b 0dbb be36 2abc
00000310: dfde c5bc da7d a53c a47e 51ba 46d0 a3b9
00000320: 3503 c23c 3b61 57ba 4ee1 353b 2de8 383d
00000330: 518f abbb c47c 9a3a 5130 553c 4188 67bc
00000340: a450 34bc 936f 53bc b507 51bc 884c b2bc
00000350: ff9d 30bc ab6f 70bc 494d 9cbc afba ddbc
00000360: d7e8 70bc 071d 023c f887 11bb bca1 68bc
00000370: 6250 ddbc d9dd e6bc eaf0 a2bb 552b 683b
00000380: 50e4 35bc baad 3bbb c27d 8bbc 85c2 2bbc
00000390: 6e45 03bc d9d0 ed39 0145 5e3c d63f d83c
000003a0: 30c7 dc3a bd03 b5bb 43cf d5bb 15f4 bd3c
000003b0: 9bf9 433c 040c 903c 3f09 cb3c aa53 373c
000003c0: b5d6 003b 5174 943c 2527 e4b9 e9bf 553c
000003d0: 3cae 603a 79ab 06bb 18a6 6fba d095 fbb7
000003e0: b3c2 ae3c 9fd3 903c d449 d83c c705 623c
000003f0: f2c9 49bb 8e39 783a 8184 f9ba e08f 853b

conv.4.bias f4 [4]
0.01286363 0.031579595 0.027918098 0.0337426
00000000: fac1 523c 9b59 013d 7fb4 e43c ae35 0a3d

conv.9.weight f4 [32, 4, 5, 5]
4.8629695e-06 1.3938297e-06 6.63478e-06 1.7081928e-05 -2.0580695e-05 1.8676064e-05 -8.148268e-06 -1.27194235e-05
-1.1459224e-05 -4.182122e-05 -3.9498645e-06 -1.1870445e-05 -1.5987349e-05 -3.5784982e-05 5.646514e-06 -3.97814e-06
3.123958e-05 3.9230697e-05 -2.6845191e-05 -2.7185617e-05 -2.0221514e-05 -9.329535e-06 -5.6974714e-06 -4.022472e-05
7.068702e-05 -1.0839115e-05 2.7339724e-05 -3.1291074e-06 -5.0351937e-06 -3.899087e-05 -1.3752626e-05 -5.6319357e-05
4.2820484e-06 6.928223e-05 -3.0514475e-05 -0.00010144627 -4.6392724e-06 -0.0012973669 -1.686257e-05 -1.9077434e-05
-1.6985952e-05 1.5318308e-05 0.0035188503 -1.2758148e-05 9.876885e-06 3.7885355e-05 2.8749215e-05 2.1230244e-06
2.7255937e-05 3.611668e-05 -1.0028984e-05 -3.8615603e-06 -3.3078388e-05 2.7538254e-06 9.524819e-06 -3.277367e-05
-9.647849e-06 1.1139545e-05 -2.3651999e-05 -2.00849e-06 1.0870617e-05 -2.2354263e-05 -6.311904e-06 -1.4280891e-05
1.685281e-05 9.535164e-06 4.048625e-05 9.2960545e-06 -3.602163e-06 -1.5879183e-05 7.861273e-05 2.8425755e-05
8.4470685e-07 2.5607796e-05 1.6474567e-05 0.0035621773 -6.4351643e-06 -4.7352758e-05 1.399465e-06 2.2655435e-05
0.00011894431 -2.682608e-05 1.3314106e-05 0.00043200998 -6.4450134e-05 1.1787259e-05 5.9598597e-06 1.0149595e-05
7.126546e-05 4.559444e-05 -4.3059972e-05 -1.6558992e-05 3.7828562e-05 0.0027748847 7.793886e-06 -3.1754826e-06
-5.9527415e-06 0.0016755714 -9.3013456e-05 -1.6587712e-05 6.307091e-05 2.3625173e-05 8.4081694e-05 1.0638081e-05
7.000093e-05 7.5500015e-05 -2.7824319e-05 -5.511367e-06 6.1961364e-05 8.555481e-05 -1.40615975e-05 -2.8777731e-05
1.2550561e-05 1.4557367e-05 -0.00011692241 -1.2635213e-05 0.00014400734 -3.413899e-05 4.1656745e-05 6.517921e-05
-5.389155e-05 7.666766e-05 -1.9391151e-05 1.9059387e-05 -1.846414e-05 2.0323929e-05 -3.7127083e-05 5.3673186e-05
-3.5581874e-05 6.244972e-05 -7.145086e-05 -2.7476075e-05 2.0873855e-05 -7.2284005e-05 -1.0074555e-05 -6.5905064e-05
4.976855e-05 8.807378e-05 8.7278095e-06 5.9830963e-05 1.7528262e-05 0.00013250223 7.8559526e-05 -5.708025e-05
1.1378241e-05 -6.7674973e-06 -1.794456e-05 4.527132e-05 7.655347e-05 4.672526e-05 7.659153e-05 6.685752e-05
6.240271e-06 -1.434579e-05 3.5874353e-05 1.1450011e-05 -4.3469994e-05 1.9957068e-05 -1.8097406e-05 -5.4794342e-05
-2.0044645e-06 6.837688e-05 4.730503e-06 0.00011782816 -1.0437733e-05 3.2567066e-05 4.4248838e-05 6.8814785e-05
-6.0059674e-06 3.0042102e-05 -3.3072592e-06 3.6400306e-05 6.772856e-05 -7.074155e-05 -2.5886415e-05 8.3721025e-06
-7.001143e-05 -1.6792392e-05 5.4681677e-05 -9.104388e-06 4.972656e-05 -2.127246e-05 4.786685e-05 -6.413936e-05
-1.8934094e-05 -6.451564e-05 1.1329734e-05 -1.45071335e-05 -0.00010686008 -0.00010795341 3.174809e-05 -3.373107e-05
-4.2158368e-05 -3.3820368e-05 7.393626e-05 9.2202754e-05 5.2016607e-05 1.0141573e-06 4.545774e-06 -4.715572e-06
4.6078276e-05 5.5850593e-05 -9.388651e-05 3.2085514e-05 0.0002185231 2.6960857e-05 -2.9569695e-05 -0.0001783883
-0.00016794796 0.00018307514 -2.3384324e-05 -2.758943e-05 -0.00011032341 0.00011628534 0.00035249343 5.8529557e-05
0.00012787801 2.0954954e-05 -2.8623788e-05 -9.167092e-06 -9.091919e-05 1.4897341e-07 0.00016117227 4.803416e-05
0.00035544668 1.680255e-05 0.0006584941 0.00013134774 9.678527e-05 0.0001798793 0.00016136176 0.00010290417
5.9397393e-05 0.00019791137 2.2532382e-05 -1.0803997e-05 0.00014405334 6.806224e-05 0.00033694907 6.623041e-05
8.266613e-05 -9.392098e-05 0.00018396297 -8.814961e-06 -0.00015052757 -4.6201305e-05 4.282894e-05 8.655999e-05
0.00010586722 -1.1398399e-05 -1.2487688e-05 1.9761206e-05 9.90817e-06 -0.000103167695 0.00031469896 0.00013916095
00000000: 972c a336 a013 bb35 54a0 de36 294b 8f37
00000010: b5a4 acb7 8baa 9c37 8bb4 08b7 8265 55b7
00000020: fe40 40b7 3169 2fb8 1489 84b6 2c27 47b7
00000030: 921c 86b7 d517 16b8 3077 bd36 f67b 85b6
00000040: 3e07 0338 a48b 2438 9c31 e1b7 ab0c e4b7
00000050: 5fa1 a9b7 0c86 1cb7 e82c bfb6 f7b6 28b8
00000060: ce3d 9438 a5d9 35b7 9c57 e537 a8fd 51b6
00000070: fcf3 a8b6 218a 23b8 14bb 66b7 7338 6cb8
00000080: 84ae 8f36 9d4b 9138 56f9 ffb7 8dbf d4b8
00000090: 0cab 9bb6 690c aaba 1874 8db7 7a08 a0b7
000000a0: 0e7d 8eb7 d17f 8037 839c 663b d40b 56b7
000000b0: e6b4 2537 17e7 1e38 782a f137 4879 0e36
000000c0: aea3 e437 fd7b 1738 2942 28b7 8d92 81b6
000000d0: a6bd 0ab8 5cce 3836 c9cc 1f37 7676 09b8
000000e0: 32dd 21b7 fbe3 3a37 4868 c6b7 98c9 06b6
000000f0: f260 3637 6a85 bbb7 d8ca d3b6 f697 6fb7
00000100: 225f 8d37 38f9 1f37 c8cf 2938 40f6 1b37
00000110: b0bc 71b6 4934 85b7 e3dc a438 d873 ee37
00000120: d0bf 6235 53d0 d637 dd32 8a37 6b73 693b
00000130: a4ed d7b6 a39c 46b8 40d5 bb35 2d0c be37
00000140: bd71 f938 9108 e1b7 a65f 5f37 667f e239
00000150: 6729 87b8 e4c1 4537 cefa c736 2e48 2a37
00000160: 5a74 9538 a83c 3f38 4b9b 34b8 2ae8 8ab7
00000170: 1caa 1e38 d7da 353b 7cc2 0237 601a 55b6
00000180: a9bd c7b6 d99e db3a 3810 c3b8 d725 8bb7
00000190: f044 8438 ac2e c637 0455 b038 367a 3237
000001a0: 77cd 9238 c355 9e38 4568 e9b7 48ee b8b6
000001b0: 41f1 8138 e46b b338 1aea 6bb7 b567 f1b7
000001c0: 4090 5237 6a3b 7437 3e34 f5b8 d4fb 53b7
000001d0: ad00 1739 7630 0fb8 97b8 2e38 d2b0 8838
000001e0: 9c09 62b8 a3c8 a038 2eaa a2b7 b9e1 9f37
000001f0: 70e3 9ab7 4e7d aa37 e7b8 1bb8 251f 6138
00000200: bf3d 15b8 70f7 8238 e3d7 95b8 6c7c e6b7
00000210: 431a af37 2e97 97b8 e205 29b7 8336 8ab8
00000220: 93be 5038 40b4 b838 a86d 1237 02f3 7a38
00000230: a809 9337 4cf0 0a39 53c0 a438 7469 6fb8
00000240: 2ce5 3e37 5c14 e3b6 a687 96b7 b6e1 3d38
00000250: 558b a038 defa 4338 c49f a038 dc35 8c38
00000260: 8563 d136 b3ae 70b7 cb77 1638 6c19 4037
00000270: 8d53 36b8 7a69 a737 e2cf 97b7 fad2 65b8
00000280: 7084 06b6 8f65 8f38 b6ba 9e36 831a f738
00000290: b91d 2fb7 9f98 0838 d497 3938 a850 9038
000002a0: de86 c9b6 ec02 fc37 48f2 5db6 88ac 1838
000002b0: 7e09 8e38 155b 94b8 a726 d9b7 e875 0c37
000002c0: 1ad3 92b8 63dd 8cb7 015a 6538 0cbf 18b7
000002d0: 7d91 5038 4372 b2b7 a4c4 4838 8f82 86b8
000002e0: a8d4 9eb7 924c 87b8 d614 3e37 aa63 73b7
000002f0: 121a e0b8 0c65 e2b8 4129 0538 767a 0db8
00000300: 34d3 30b8 58da 0db8 3a0e 9b38 fa5c c138
00000310: 682c 5a38 2e1e 8835 e787 9836 743a 9eb6
00000320: 2c44 4138 1e41 6a38 f0e4 c4b8 8f93 0638
00000330: 5923 6539 002a e237 700c f8b7 bf0d 3bb9
00000340: 301b 30b9 dcf7 3f39 7429 c4b7 da6f e7b7
00000350: 6e5d e7b8 37de f338 dece b839 a27d 7538
00000360: fe16 0639 6cc8 af37 1e1d f0b7 5ccc 19b7
00000370: deab beb8 80f5 1f34 5a00 2939 4978 4938
00000380: 3f5b ba39 34f3 8c37 ca9e 2c3a 64ba 0939
00000390: 32f9 ca38 fb9d 3c39 3833 2939 41ce d738
000003a0: 7721 7938 6e86 4f39 ec03 bd37 d042 35b7
000003b0: 060d 1739 a3bc 8e38 8aa8 b039 2ee5 8a38
000003c0: 0a5d ad38 71f7 c4b8 2fe6 4039 f8e3 13b7
000003d0: f0d6 1db9 46c8 41b8 39a3 3338 8a87 b538
000003e0: 0805 de38 c03b 3fb7 3682 51b7 dec4 a537
000003f0: 443b 2637 bc5b d8b8 2efe a439 bceb 1139

conv.9.bias f4 [32]
0.0010786342 -0.00020339174 0.00011436142 0.009116554 0.00023293562 5.3721375e-05 -0.0012878506 2.9574257e-05
4.8931724e-05 0.018562112 -5.7844e-05 -3.9064755e-05 0.010299072 -0.0009818969 -0.00040047383 -0.00023116704
-2.313473e-05 0.0067406744 0.0075993584 0.0010286305 0.007328873 -0.00091328315 0.012770067 3.3501845e-05
0.020797336 -2.4989444e-05 0.01267094 -9.84492e-05 -0.00027168193 0.017177803 0.0074083735 0.0004047631
00000000: f560 8d3a 8e45 55b9 52d5 ef38 995d 153c
00000010: 2e40 7439 e352 6138 18cd a8ba 3c16 f837
00000020: 0a3c 4d38 920f 983c 869d 72b8 76d9 23b8
00000030: 70bd 283c feb2 80ba b0f6 d1b9 6e65 72b9
00000040: 7411 c2b7 e0e0 dc3b 0a04 f93b 1dd3 863a
00000050: 0b27 f03b 6569 6fba 8b39 513c 5584 0c38
00000060: 2d5f aa3c 6ca0 d1b7 c699 4f3c 8376 ceb8
00000070: 8870 8eb9 77b8 8c3c f1c1 f23b 6236 d439

lin.0.weight f4 [16, 32]
-0.04902308 -0.16308583 -0.032175023 -0.021233663 0.115609534 -0.092711076 0.1239424 0.058448747
0.11151367 -0.10439935 -0.16552855 0.13373724 -0.111903906 0.1266199 -0.18029195 0.15888605
-0.043244626 0.013613923 0.15039465 -0.016058305 0.049416974 0.012733058 -0.06257279 -0.10161575
-0.20219235 -0.108091295 -0.087385744 0.0858736 0.121716194 -0.24009459 -0.09979808 -0.048072394
0.032715533 -0.004858256 0.004610117 -0.024710035 4.4920118e-05 -0.0007404673 -0.000683908 -0.0036017313
-8.34567e-05 1.9713375e-09 -0.0013226258 0.0014758483 -0.002066283 0.015279924 -0.0023724237 -0.00011293286
0.0004904114 0.021418136 0.012147042 1.17059336e-07 0.046433393 -0.00049119216 -0.008852654 -0.011534132
-1.1498379e-06 0.0005018029 -0.019308943 2.0505466e-09 -0.009890328 -2.2295806e-07 0.024471344 -0.005647762
-0.041816924 -0.10476424 -0.04812538 0.18017837 0.03614914 -0.0035077322 0.13505055 0.0025677027
-0.0142941335 0.41914877 -0.052807376 -0.09668897 0.0486087 0.2055664 0.1956197 -0.073013134
-0.10003339 -0.06821773 -0.008494373 -0.014294573 -0.11894444 0.19392915 0.04258828 -0.12635925
0.15229855 0.05098087 0.0006439036 -0.022284154 -0.12402612 0.32762185 0.03614382 -0.0736462
0.06332815 -0.12645866 -0.0143239135 0.1328713 -0.029413085 -0.08327829 -0.18456697 -0.042027175
0.1492436 0.025328513 -0.05255696 0.06498471 0.036028273 -0.18557142 -0.046555623 -0.042207193
-0.12167069 0.009400342 0.09395683 0.05207465 -0.012119811 -0.03174635 -0.06352524 -0.06323828
0.13162453 -0.040533744 -0.1373043 -0.06515955 -0.18521018 0.022261713 -0.20703174 -0.070343085
-0.061103065 -0.012075406 -0.0071072215 -0.037302725 7.301841e-08 -0.0027625898 -0.028780403 -0.0010103863
-0.0032646148 0.011807472 0.05131403 0.015413737 0.027239032 -0.003893529 0.02024348 0.039171863
-0.0097933365 0.08247265 -0.012510032 0.0005068326 -0.0013449468 0.05514539 -0.0048875273 0.04887757
0.018980188 0.00992251 -0.021268455 -2.5594321e-08 -0.0047946004 -0.00020782252 -0.0035747157 0.010754148
-0.16906185 0.03219444 0.01674596 -0.030081896 0.0031635333 -0.055548962 -0.08662915 -0.07006944
0.07089734 -0.009791552 -0.051815398 0.09886506 0.056730643 -0.052685663 -0.089656726 0.04545396
0.033756692 -0.010111744 -0.08284722 0.010677162 0.115899816 0.084900364 0.10911398 -0.020548282
-0.064774826 -0.069325306 -0.16420186 0.027359523 0.04167861 0.082255565 -0.10871564 -0.11154839
0.112741135 -0.11642442 -0.123427175 -0.028870417 -0.112668306 -0.07302728 -0.17155515 -0.07851504
-0.051482227 -0.09090731 -0.014951693 -0.07096359 0.09568834 -0.1160318 -0.07910624 -0.13977765
0.07777648 0.11134908 0.12937461 0.051934097 -0.11805933 -0.16091654 0.10885647 -0.0029909909
0.11513821 -0.034233026 0.08211155 0.009189295 -0.09778268 0.06309104 -0.14017934 -0.116222434
0.15553835 0.079678535 -0.00990151 0.08928864 0.040430855 -0.1028213 0.013366575 0.0059386557
-0.05140669 0.037672397 -0.087205164 -0.13684037 0.015727099 0.053980477 -0.03969231 0.049523577
0.032631166 -0.13874991 -0.112098366 0.063655704 -0.15119095 -0.06904328 0.0664729 -0.11398565
0.0027757245 0.12617806 -0.14790629 -0.010332004 -0.0969545 -0.029913956 0.11646248 0.02617874
00000000: 6dcc 48bd f9ff 26be f5c9 03bd 38f2 adbc
00000010: b1c4 ec3d 4edf bdbd 83d5 fd3d f467 6f3d
00000020: 4761 e43d 54cf d5bd 5180 29be 6af2 083e
00000030: e02d e5bd a6a8 013e 749e 38be 06b3 223e
00000040: 4721 31bd ef0c 5f3c 0e01 1a3e b58c 83bc
00000050: 7469 4a3d 519e 503c 2a26 80bd eb1b d0bd
00000060: 830b 4fbe f85e ddbd 4cf7 b2bd 7fde af3d
00000070: 5746 f93d 5bdb 75be f062 ccbd 8fe7 44bd
00000080: b900 063d 0132 9fbb 7710 973b b36c cabc
00000090: 9c68 3c38 eb1b 42ba 4a48 33ba 060b 6cbb
000000a0: 7a05 afb8 2378 0731 f55b adba 4071 c13a
000000b0: 7a6a 07bb a558 7a3c aa7a 1bbb 5ed6 ecb8
000000c0: f48e 003a 1675 af3c 6304 473c 0d62 fb33
000000d0: f130 3e3d 59c3 00ba b90a 11bc a8f9 3cbc
000000e0: 2154 9ab5 6c8b 033a ca2d 9ebc 99e9 0c31
000000f0: 0b0b 22bc 3f66 6fb4 2178 c83c dd10 b9bb
00000100: 3948 2bbd a28e d6bd 1e1f 45bd ae80 383e
00000110: 1f11 143d fbe1 65bb b14a 0a3e e746 283b
00000120: f131 6abc ab9a d63e 8c4c 58bd de04 c6bd
00000130: eb19 473d 0080 523e 8850 483e e987 95bd
00000140: 4ede ccbd bdb5 8bbd fc2b 0bbc c933 6abc
00000150: 2499 f3bd 5d95 463e 0c71 2e3d 5264 01be
00000160: 27f4 1b3e 51d1 503d a4cb 283a 428d b6bc
00000170: 6801 febd 0dbe a73e 8b0b 143d d2d3 96bd
00000180: 30b2 813d 617e 01be d9ae 6abc 6a0f 083e
00000190: b6f3 f0bc cf8d aabd 20ff 3cbe b024 2cbd
000001a0: 50d3 183e be7d cf3c f845 57bd b416 853d
000001b0: 6292 133d 6f06 3ebe 1cb1 3ebd 73e1 2cbd
000001c0: 7c2e f9bd e403 1a3c 706c c03d 3a4c 553d
000001d0: 2c92 46bc 7608 02bd 8519 82bd 1283 81bd
000001e0: 95c8 063e b606 26bd 8099 0cbe 5f72 85bd
000001f0: bda7 3dbe 325e b63c 2100 54be 0910 90bd
00000200: 3547 7abd ecd7 45bc b2e3 e8bb beca 18bd
00000210: 4cce 9c33 910c 35bb e1c4 ebbc f06e 84ba
00000220: 26f3 55bb 2174 413c a92e 523d e689 7c3c
00000230: 6424 df3c 942a 7fbb a8d5 a53c ad72 203d
00000240: 3b74 20bc 6ce7 a83d e1f6 4cbc f6dc 043a
00000250: ed48 b0ba 22e0 613d 8d27 a0bb d933 483d
00000260: 577c 9b3c 0692 223c 2f3b aebc 82da dbb2
00000270: 061c 9dbb efea 59b9 c745 6abb 2a32 303c
00000280: 8d1e 2dbe 51de 033d d32e 893c 4f6e f6bc
00000290: 4853 4f3b 4f87 63bd a06a b1bd 9180 8fbd
000002a0: a032 913d bf6c 20bc 623c 54bd c479 ca3d
000002b0: 645e 683d eccc 57bd f29d b7bd ee2d 3a3d
000002c0: 7544 0a3d baab 25bc ceab a9bd 43ef 2e3c
000002d0: e25c ed3d 3ee0 ad3d 2677 df3d df54 a8bc
000002e0: aaa8 84bd 6dfa 8dbd 8824 28be 1421 e03c
000002f0: 31b7 2a3d 9b75 a83d 4ea6 debd 7b73 e4bd
00000300: d3e4 e63d ed6f eebd 63c7 fcbd a781 ecbc
00000310: a4be e6bd 548f 95bd 27ac 2fbe 7ecc a0bd
00000320: 07df 52bd 9d2d babd f2f7 74bc 5c55 91bd
00000330: 40f8 c33d 15a2 edbd 7402 a2bd df21 0fbe
00000340: 4649 9f3d fd0a e43d c77a 043e d9b8 543d
00000350: 17c9 f1bd 4ec7 24be 24f0 de3d 8004 44bb
00000360: 95cd eb3d ee37 0cbd 1a2a a83d b28e 163c
00000370: 4942 c8bd e035 813d 2c8b 0fbe 0706 eebd
00000380: 7245 1f3e 802e a33d f139 22bc f6dc b63d
00000390: d39a 253d f993 d2bd 7bff 5a3c 0e99 c23b
000003a0: d28f 52bd 5f4e 1a3d 9f98 b2bd e21f 0cbe
000003b0: 1ed6 803c a21a 5d3d 6794 22bd 3cd9 4a3d
000003c0: 42a8 053d 7514 0ebe d493 e5bd ec5d 823d
000003d0: cdd1 1abe 9066 8dbd f222 883d 4f71 e9bd
000003e0: eee8 353b d234 013e bf74 17be 9147 29bc
000003f0: 1590 c6bd 1d0e f5bc e183 ee3d cc74 d63c

lin.0.bias f4 [16]
0.12728836 -0.02187976 0.10237082 0.019339457 -0.1245859 0.087708496 0.01926772 -0.009000963
-0.11980008 -0.018540801 0.17265655 0.10966667 0.08034002 -0.015285594 0.23770845 -0.0075785024
00000000: e157 023e 2f3d b3bc cba7 d13d c86d 9e3c
00000010: e426 ffbd 83a0 b33d 56d7 9d3c c678 13bc
00000020: bf59 f5bd e1e2 97bc e1cc 303e eb98 e03d
00000030: 4f89 a43d 6e70 7abc d869 733e 1655 f8bb

lin.2.weight f4 [1, 16]
-0.06091582 0.019393064 0.2840658 -0.22149119 -0.08092264 0.0024200527 -0.22125867 -0.0025966773
-0.05859876 -0.08696168 0.28064004 -0.1159006 0.17734583 -0.098276764 0.23708405 0.19789834
00000000: de82 79bd 34de 9e3c 1371 913e 96ce 62be
00000010: c5ba a5bd bf99 1e3b a291 62be 042d 2abb
00000020: 4105 70bd f718 b2bd 0db0 8f3e 4b5d edbd
00000030: 259a 353e 5445 c9bd 29c6 723e dda5 4a3e
