sim/models/round_out.onnx (onnx, 57372 bytes, 13 tensors)

conv.0.weight f4 [4, 1, 5, 5]
000000 20 25 24 ba 42 43 dc bc 19 a0 12 3d 3c 5a f1 bc
       -0.00062616356 -0.02688754 0.035797212 -0.029461972
000010 87 f1 c2 bc d5 dd 64 bb 7b 32 b8 3c 8b 39 e5 bc
       -0.02379681 -0.0034922261 0.022485008 -0.02798154
000020 b6 5a ed bc 9b c3 32 3d 29 d5 46 3d 0a 6f 4e bc
       -0.028973918 0.043643575 0.04854313 -0.012599716
000030 ba ca bb bd c8 ea 82 3d 02 d5 4d 3d a1 1e f4 bb
       -0.091695264 0.06392437 0.05025197 -0.0074499403
000040 bb c0 25 bd 38 61 b6 3c c2 8b 06 3d 18 b8 c4 bd
       -0.040467005 0.022263154 0.032848127 -0.096054256
000050 06 84 4c 3b 0b 15 41 bd 7a e4 38 3d ad 2d 31 bc
       0.0031206622 -0.04713921 0.045139767 -0.010814113
000060 5a 06 e2 3c 5d f1 c6 3b 01 ba 43 3d 90 bf f2 bc
       0.02759092 0.006071253 0.04778481 -0.02963236
000070 7d 95 c7 3c 3b bf cc 3c c3 06 a9 bc ac 1f cb bc
       0.024363274 0.02499353 -0.020633107 -0.024795376
000080 01 81 6f 3c 16 03 3e bd 35 c1 c4 3a 58 b4 bf 3b
       0.014618159 -0.04638966 0.0015011193 0.005850356
000090 b2 13 80 3c 3f 00 1e bd 4e cb 16 3d 4a d5 79 bc
       0.015634391 -0.038574453 0.03681498 -0.015248606
0000a0 e0 31 fa bc 22 db 16 3d e2 d7 bb bc a7 cd 08 bc
       -0.03054136 0.036830075 -0.02293009 -0.008349813
0000b0 34 3f c2 3c 3b 8b 73 bc 00 30 2d 3c 34 71 af bc
       0.023711778 -0.014864738 0.010570526 -0.021416284
0000c0 c7 b9 5c bc c7 dd c1 3c cb 7c dc 3c de 4e 98 bc
       -0.013472027 0.023665322 0.026914975 -0.018592294
0000d0 6a 6b b5 3c 5b b9 71 3c 16 f9 76 bc 2a ec c8 bc
       0.022145946 0.014753665 -0.015074035 -0.024526674
0000e0 af 09 e0 3c de fc d7 39 bb c9 c2 bb 87 bc 28 bb
       0.027348367 0.00041196396 -0.0059444583 -0.0025747137
0000f0 68 e8 d9 3c 82 cd f8 bc 35 74 16 bc eb a9 0d bb
       0.026600078 -0.030371431 -0.009182979 -0.0021616172
000100 23 9e b3 bc f9 e0 6a 3c 90 6f 07 3b 67 21 a5 ba
       -0.021925991 0.014335864 0.0020665862 -0.0012598456
000110 e4 6e c8 b9 6d 25 86 3c c4 22 90 bd 2c 28 61 3c
       -0.00038229593 0.016375268 -0.07037881 0.013742488
000120 fc c2 7c 3c 72 f0 bf bb b1 ea 28 3c 9d 86 e2 3a
       0.015427347 -0.0058575207 0.010309861 0.001728255
000130 72 7d e2 bb 6c a0 b3 3c 9c ba 56 bd 84 aa 26 bb
       -0.006911927 0.021927081 -0.05242406 -0.0025431225
000140 a3 38 3c ba 11 71 f2 3c 9e 88 fa bb f1 c2 49 3d
       -0.00071800704 0.02959493 -0.0076456806 0.049258176
000150 06 c5 96 bd 9e 71 65 bd ae 58 75 3c 02 5d 2d 3b
       -0.07361798 -0.056016557 0.014974756 0.0026453142
000160 26 6d 14 3c 63 6b d2 3c dd db 21 3c 72 d4 35 bb
       0.009059226 0.025685972 0.00987908 -0.0027745035
000170 1b 98 06 bb 2c b5 91 3b 97 15 86 bb a1 96 94 bb
       -0.002053744 0.004446646 -0.004091929 -0.004534558
000180 75 62 80 bc 06 51 20 bc 0f 96 24 3c 31 b6 6c 3c
       -0.015671948 -0.0097849425 0.010045542 0.014447735

conv.0.bias f4 [4]
000000 3d a3 8d b8 1f 5a 09 b9 99 9e 87 b9 3d 2a c2 ba
       -6.7538094e-05 -0.00013098911 -0.0002586737 -0.0014813613

conv.3.weight f4 [4]
000000 3b d5 0d 3f cf ce 0e 3f 99 35 0d 3f 41 c2 0c 3f
       0.5540349 0.55784315 0.5515991 0.5498391

conv.3.bias f4 [4]
000000 b4 60 be b9 9d 6b 9f 3b 9b 02 df bc d1 1a 93 bb
       -0.00036311673 0.0048651234 -0.027222922 -0.0044892807

conv.3.running_mean f4 [4]
000000 1e 6a 1c 40 74 41 07 40 ff 16 d3 3f a8 33 9c 3f
       2.4439769 2.11337 1.6491393 1.2203264

conv.3.running_var f4 [4]
000000 ca a9 2b 41 5a e6 87 40 d4 1f 41 40 b1 a0 80 40
       10.728952 4.246869 3.0175676 4.0196157

conv.4.weight f4 [4, 4, 5, 5]
000000 32 c1 1a 3b 7d 49 e5 3b 9b ab 47 3c fa a0 15 3c
       0.0023613689 0.006997286 0.01218691 0.009132618
000010 20 58 3e 3a e1 0b 5b ba 35 80 e9 3c c8 48 64 3c
       0.00072610565 -0.0008355957 0.028503517 0.013933368
000020 2a 38 91 3c fd ba 71 3c d6 f9 81 3c 2c 32 19 3b
       0.017726976 0.014754054 0.015866201 0.0023375852
000030 83 35 fd 3a 56 9f 15 3b 9f ab a9 3c 2d bc 53 3c
       0.0019318316 0.0022830567 0.020711718 0.012923283
000040 61 25 a6 3c 8d fc 56 3c 12 ff 02 bc 90 cc 56 bb
       0.020281496 0.013121736 -0.007995384 -0.0032775737
000050 08 3f 53 bc ae 06 0b bb 6d 67 f8 3c 4a c3 8b 3c
       -0.012893446 -0.0021213698 0.030322755 0.017060895
000060 28 7c ec 3c fa d2 f6 3c 66 8d 59 3b 68 a9 b5 3c
       0.028867796 0.030129898 0.0033195852 0.022175506
000070 98 41 14 3c 00 3f 83 3c 76 fc 97 38 20 37 82 bc
       0.009048842 0.016021252 7.2472656e-05 -0.015895426
000080 d3 04 19 bb 3b 1e ae bc b4 5e 47 39 e6 ac 4a bb
       -0.0023348823 -0.02125465 0.00019013399 -0.003092581
000090 92 fc b1 ba 56 de f7 3a e8 b1 c7 3c 11 d3 80 bc
       -0.00135793 0.0018910866 0.024376824 -0.015725644
0000a0 f7 45 0e 3c fe fa d7 bc 86 f7 22 3b 6f 21 5d bc
       0.008683673 -0.0263648 0.0024866774 -0.013496741
0000b0 82 6f 40 bc db c7 a1 bc 4b 8a 2f 3c d9 8a a4 3b
       -0.0117453355 -0.019748619 0.010714124 0.0050214347
0000c0 ba c7 d1 3a 60 e0 53 3c 2f 51 d2 bb 99 19 b1 3b
       0.0016004958 0.012931913 -0.0064183692 0.005404663
0000d0 6e b6 ab bb 29 7c e3 3c 1c 57 59 3d 3c 91 cb 3c
       -0.005240253 0.027769165 0.05306159 0.024849527
0000e0 9d dc 56 bc bb 81 5b 3c c0 aa 2d 3d 61 31 20 3c
       -0.013114122 0.013397629 0.042399168 0.009777398
0000f0 2c 91 25 3c 67 9f 7a ba b5 b7 26 3d 18 60 66 3d
       0.010105412 -0.0009560496 0.04070254 0.056243986
000100 4e 97 62 bb 8d fc c1 ba 79 78 c6 3a ea e5 3f 3c
       -0.0034575048 -0.0014799997 0.0015142105 0.011712531
000110 09 48 a8 3c 5b 9b 39 bc 6c d9 35 3a b6 f3 8d 3c
       0.020542162 -0.011328544 0.00069370004 0.017328124
000120 fe 0e 03 bd 4c 9d b1 bb 50 a3 22 bb 9b 5d 7e 3c
       -0.03199672 -0.0054203626 -0.002481658 0.015525247
000130 7d 4b d3 3c 13 96 30 bc 78 4a 47 bd 38 b7 3f bd
       0.025792832 -0.010777968 -0.048655003 -0.04680559
000140 7f 9b f8 ba d7 00 28 3c ea 7c 65 bc e9 57 62 3b
       -0.001896724 0.0102541065 -0.014006833 0.0034537262
000150 b9 33 70 bc 00 c2 0f bc b0 39 56 3c 27 96 38 ba
       -0.014660769 -0.008774281 0.013075277 -0.00070414174
000160 74 0f f4 bb 8b 64 1e bc e0 3e 18 3b 94 84 1f 3c
       -0.007448131 -0.009667526 0.0023230836 0.009736199
000170 08 41 14 bc 4a 56 73 3c 24 4a 00 bd 1e f3 8a bc
       -0.009048708 0.014852116 -0.031320706 -0.01696163
000180 eb fe ca bb dc c2 c3 bc 93 34 a0 bc 82 18 03 bd
       -0.0061949394 -0.023896627 -0.01955632 -0.032005794
000190 7c 1d b9 bc 83 b2 c3 bc 13 6d 19 bd 15 c0 5c 3c
       -0.022597067 -0.023888832 -0.037457537 0.01347353
0001a0 83 a2 95 bc 97 c5 c1 bc 41 f7 96 bc 3a 12 09 bd
       -0.018265968 -0.023653788 -0.018428447 -0.033464648
0001b0 9a b1 f0 bc 65 9c 73 3c 5e 57 5e 3c 79 8a b8 3c
       -0.029381562 0.01486883 0.013570635 0.022526966
0001c0 1f 63 a5 bb f5 8e a5 3c 74 86 30 3d 28 a0 f5 bb
       -0.0050472165 0.020209769 0.043096974 -0.0074958988
0001d0 1f d2 b9 bb 6c f1 ad 3a 84 f9 f2 3c 01 6f 71 3b
       -0.0056708003 0.0013270802 0.029659994 0.0036839845
0001e0 59 ff 89 3c d0 de 84 3c 29 cb 02 3d b4 e8 5c 3d
       0.016845392 0.016219527 0.03193203 0.05393286
0001f0 0e 75 00 bc 4d 87 ce bc a5 fa 46 3c 06 47 fd bb
       -0.007840408 -0.025211 0.012144719 -0.007729414
000200 90 b2 7b 3b a3 4d 20 bd 1f 70 ee bb 18 a5 07 3b
       0.0038405992 -0.03913654 -0.0072765495 0.0020697769
000210 3e d4 af 3a 7f c1 33 bc 78 3c 01 bb 6e 97 57 3c
       0.0013414694 -0.010971426 -0.001971988 0.013158662
000220 82 36 8f b9 6b 02 d6 3c dd f5 c9 3b 22 05 9e bc
       -0.00027315697 0.0261242 0.0061633424 -0.019289557
000230 b0 2d 9b bb c6 6f d2 bc fa ec 30 bb ef a7 80 bb
       -0.004735671 -0.025688063 -0.0026996718 -0.0039262692
000240 8f d9 2b bd 60 e2 c1 3b d5 7c 24 bb df b1 ae bc
       -0.041955527 0.0059168786 -0.002509882 -0.02132505
000250 2a d2 58 bd 80 fd 34 bd 89 b6 8e 3c 8b df 7a 3d
       -0.052934803 -0.04418707 0.017421024 0.061248343
000260 1b 23 c1 3c 83 e1 1b 3d e9 9b 8a 3c 49 5d 28 3c
       0.02357631 0.03805686 0.016920047 0.010276147
000270 a1 fe b6 3c 9b 7e 42 3c 29 1d 62 3d 10 d4 4b 3c
       0.022338213 0.011871005 0.05520359 0.012440696
000280 bb ce 58 ba ea 98 3b bc 6a 95 4d bc 95 19 99 3c
       -0.00082705513 -0.011450032 -0.01254783 0.018688956
000290 46 c9 a0 ba 0c 3a 63 bc 06 13 34 bc 11 ef 69 3c
       -0.0012267015 -0.01386882 -0.010990864 0.014278189
0002a0 f1 bf 29 bc 10 ef f6 ba 6b ef 51 3c 7f c9 e1 bb
       -0.010360704 -0.0018839557 0.012813429 -0.0068904753
0002b0 8f 90 1a 3c 6c 39 a5 3a 77 7c f2 3b a8 f0 e7 3a
       0.0094338795 0.0012605614 0.0074000913 0.0017695623
0002c0 85 7d 2b 3c 0b 95 ef 3b 04 b0 84 3b 02 6a 60 bc
       0.010466938 0.0073114685 0.004049303 -0.013697149
0002d0 bb d4 77 3c 86 c8 47 3c f6 e7 98 bc a7 62 dc bc
       0.0151264025 0.012193805 -0.018665295 -0.02690251
0002e0 5a 04 41 bc f7 6a 95 bc 71 d1 16 3c 31 f1 a9 3c
       -0.011780823 -0.018239481 0.009205208 0.020744892
0002f0 9d c1 87 bc 79 b2 2c bc f8 34 12 bb 49 b4 93 bb
       -0.016571814 -0.010540598 -0.0022309404 -0.0045075756
000300 c7 81 8d bc 72 be 59 bc 81 5d 55 3b 00 5c ff b6
       -0.017273797 -0.013290035 0.0032556953 -7.6103024e-06
000310 34 38 55 3b ac 37 02 bb f5 ae 98 bc 56 2f c0 bb
       0.003253472 -0.0019869609 -0.018638114 -0.005865018
000320 fc 50 48 3d 21 9d 4d 3d 49 64 b9 3c 42 b9 84 bb
       0.048905358 0.050198678 0.022630828 -0.0040504048
000330 ac ac 1b 3c 0f c5 cb 3c e2 9b 06 3c 6d 73 bf 3c
       0.009501617 0.024874238 0.008215876 0.023370469
000340 55 b7 5a ba 83 f4 89 3c aa 6d 31 3d 1f a1 ac 3a
       -0.00083433586 0.016840225 0.043317474 0.0013170576
000350 94 18 1a 3c 08 2e 3c 3b fc b7 f6 ba 83 fd 5e 3b
       0.009405274 0.002871396 -0.0018823142 0.0034025616
000360 38 72 2a 3c a0 b9 44 bc 76 10 4c 3b e4 65 e8 bb
       0.010403208 -0.012007147 0.0031137741 -0.0070922244
000370 ed 6e 8f ba 0a fd e1 3b 3e 61 ad 3c a8 c1 7f bc
       -0.0010943093 0.0068966197 0.021164533 -0.015610136
000380 29 09 9f bc 9f 29 10 3b 61 ea 31 bc 28 b6 17 bc
       -0.019413548 0.0021997464 -0.010859103 -0.009259738
000390 4c fc b4 bc d4 fe e4 bc 28 30 6b 3b eb 49 3d bd
       -0.02209296 -0.027953543 0.0035886858 -0.04621307
0003a0 db e0 54 3c 9d 52 0d bc 99 ed a8 bc 4a 5d 18 bc
       0.012993063 -0.008625654 -0.020621108 -0.009299586
0003b0 c5 99 38 bd 6f f4 5b bc 7e 6d 3f bc 03 12 56 bd
       -0.04506852 -0.013424977 -0.01168382 -0.05226327
0003c0 28 ab 35 b9 d5 ee a3 bb 67 1a a4 bc 96 a7 bd ba
       -0.00017325266 -0.005002836 -0.02003212 -0.00144695
0003d0 03 4d 3c bb 39 c4 95 bc b1 19 cf bc b2 80 19 bd
       -0.0028732426 -0.018282043 -0.025280805 -0.03747625
0003e0 87 9e 3b bc 0f 08 84 bc 0b d1 54 bc 9a 84 35 bc
       -0.01145137 -0.016117124 -0.012989293 -0.011078978
0003f0 88 ae d6 ba 46 f5 d4 3b 6c 9d 96 bb bc f1 88 bb
       -0.0016378919 0.0064989654 -0.004596403 -0.0041792076

conv.4.bias f4 [4]
000000 ef 34 5b bd c8 07 1c bd ad 78 8c bc 45 da 5f bd
       -0.05351728 -0.03809336 -0.017147386 -0.054651517

conv.9.weight f4 [32, 4, 5, 5]
000000 a8 c7 01 bd e0 5b ce bb 4c 3b 73 bc 10 ee aa b8
       -0.031684548 -0.0062975734 -0.01484568 -8.150574e-05
000010 ae 81 6c bc 11 b0 0e bc a5 ad 26 bb ac 85 e1 bc
       -0.014435215 -0.00870897 -0.002543309 -0.02752956
000020 bf c5 cd b9 ac 78 15 bc 61 03 a3 bc be 30 44 bc
       -0.0003924798 -0.009123009 -0.019899072 -0.011974512
000030 1e ad 03 bc a4 dd aa bc 9b 10 26 bc 46 31 3a bc
       -0.00803688 -0.02085764 -0.010135795 -0.011364287
000040 b6 e8 b3 3b 42 7b 11 3c c7 14 16 bc 19 73 e0 bc
       0.005490388 0.008879485 -0.009160227 -0.027398633
000050 ff df d2 3b d9 cf 0e 3b 61 0f 65 3a 22 3b 23 bc
       0.006435394 0.0021791367 0.00087379484 -0.009962829
000060 5c 64 8d 3c e3 bb e0 bc 05 42 4b bb 7c db 98 bc
       0.01725977 -0.027433341 -0.0031014693 -0.018659346
000070 05 fc c2 bc 94 6d f6 bb 19 26 79 bc b7 2c 71 3a
       -0.023801813 -0.007520387 -0.015206837 0.00092000834
000080 00 07 a0 bb 42 6a b0 bc c1 02 7f bc 4a a9 e6 bb
       -0.004883647 -0.021535043 -0.015564621 -0.007039224
000090 13 ce 3a bc 10 06 6a bc 61 e2 9b ba da 49 e0 3c
       -0.011401671 -0.014283672 -0.0011893028 0.027378965
0000a0 a9 6a 97 bc 4d e1 3b bc 06 a1 3e 3b 82 b5 90 bb
       -0.018483477 -0.01146729 0.0029087677 -0.0044161687
0000b0 c1 4f 09 3b fe 24 70 ba 32 bf 0c 3b 3b 56 3f 3c
       0.0020952078 -0.00091607857 0.0021476266 0.011678274
0000c0 4a a3 e6 3c 8f 7e a6 bb 05 60 56 3b 5d f0 1f bb
       0.028154034 -0.005081005 0.003271104 -0.0024404742
0000d0 80 60 53 3c c0 5a 8f 3c 7e 94 8f 3b 1a f4 8a bc
       0.012901425 0.017499328 0.0043817153 -0.0169621
0000e0 eb 8e ba bc d9 f8 78 b9 3f 21 be 3c 74 d8 0f ba
       -0.022773227 -0.00023743826 0.023209212 -0.0005487271
0000f0 34 a2 07 bd d3 6e b9 bc 1c f1 db bb b7 ce 8b bc
       -0.033113673 -0.022635853 -0.006712092 -0.017066343
000100 4a c8 e5 bc e1 87 0f bd c8 ec 9a bc 93 c6 71 bb
       -0.028049607 -0.035041694 -0.018911734 -0.003689204
000110 e6 9f f4 bc f2 b2 4a bc a3 e2 ea ba d4 4e 23 bb
       -0.029861402 -0.012371765 -0.0017920326 -0.0024918811
000120 4f 98 aa bc 89 29 51 bc 1d ed 97 bb 2a 9a b7 3c
       -0.02082458 -0.01276625 -0.0046364204 0.022412378
000130 b8 94 b6 3c 53 4a 83 3c 3f f5 f7 3b 7e ed 4e bc
       0.022287712 0.016026651 0.0075670774 -0.012629865
000140 eb 63 7c 3c 7a 1a dd 3c 51 3e 3f 3c 0c bf 19 3c
       0.015404682 0.026990164 0.011672572 0.009383928
000150 05 4e 82 bc 03 d5 a3 3b a3 2f ef 3c c2 d7 7a 3c
       -0.015906343 0.004999758 0.02919752 0.01531023
000160 6c 55 7b 3c 9b 5d ca ba ce a0 71 3a 1d 72 5d 3c
       0.01534019 -0.0015439274 0.0009217382 0.013515976
000170 73 b2 27 3d a1 f6 83 3c 53 73 2b ba a0 ce e2 b7
       0.040941667 0.016108813 -0.0006540317 -2.7037517e-05
000180 ff ed 07 3a 36 b3 36 3c 17 84 1e 3c f6 29 69 3c
       0.00051853055 0.011151126 0.009675047 0.014231196
000190 df 07 43 3b ce cb e3 bb 06 2e 33 bc 24 3b 3a 3b
       0.002975933 -0.0069517856 -0.010936266 0.0028416598
0001a0 5d a3 77 b9 5a 54 05 bb 18 8d e6 bb 13 39 99 bc
       -0.00023616613 -0.0020344467 -0.0070358627 -0.018703973
0001b0 6c 67 45 3a 03 6d 03 ba 3d 59 60 bc 1c eb b0 bb
       0.00075303647 -0.00050134974 -0.013693151 -0.005399121
0001c0 60 61 29 bb de fb 03 bc 87 98 23 bb a1 71 64 bc
       -0.0025845394 -0.008055655 -0.002496274 -0.013943107
0001d0 39 e0 38 3b 0a 30 75 3b 74 5c 31 3a 51 a3 4d bc
       0.002820982 0.0037412667 0.0006765791 -0.012551145
0001e0 47 f1 1b 3a 87 61 97 39 59 31 c1 ba 52 e4 db bb
       0.0005948734 0.00028873628 -0.0014739438 -0.0067105675
0001f0 f7 ff 22 3b 88 0d 93 bc 54 51 b5 ba 8e 79 e1 bb
       0.0024871805 -0.017950788 -0.0013833442 -0.0068809455
000200 a1 e8 37 bc 0b 5f 04 bc 3b 83 73 ba f6 d2 4c bb
       -0.011224897 -0.008079301 -0.0009289269 -0.0031253672
000210 c4 85 2f ba dd 8e 7a bc a8 be 42 bc d0 38 e1 bb
       -0.0006695653 -0.01529285 -0.011886276 -0.0068732277
000220 06 98 c5 39 00 56 45 bc a7 84 c5 bb dd 86 3c 3c
       0.00037688034 -0.01204443 -0.0060277763 0.011506763
000230 c9 7f 04 bc 6c f8 ae 3a c0 ba 32 b9 c0 a7 07 bc
       -0.008087107 0.0013349182 -0.00017044973 -0.008279741
000240 23 71 d8 ba ac 63 df 3a df 3c 69 3a 59 8d 90 3a
       -0.001651321 0.0017043254 0.0008897315 0.0011028453
000250 10 cd 5d 3c 90 4e a8 bb 81 09 25 3c 64 0a 5b ba
       0.01353766 -0.0051363185 0.010073067 -0.00083557353
000260 c4 b8 09 ba ef c5 ce 3a 4f e9 50 3c 68 b6 c3 3a
       -0.00052536675 0.0015775542 0.012750938 0.0014931681
000270 6c 7a 12 bc 31 d3 b0 bb 05 ef 3d 3b 90 b1 18 3b
       -0.00894032 -0.0053962697 0.0028981578 0.0023299195
000280 8b f6 42 bc 99 fa d6 bb bd 0f a3 ba 46 1e f1 bb
       -0.011899601 -0.0065606353 -0.0012440603 -0.007358345
000290 03 df 73 bc 92 fd 86 bc dc 4f 94 b9 e6 0e 13 3b
       -0.014884713 -0.016478334 -0.0002828826 0.00224393
0002a0 e1 0f 82 bc 11 3c 11 bc 1b c7 73 ba f0 a7 a1 ba
       -0.015876712 -0.008864419 -0.00092993834 -0.0012333374
0002b0 b4 ed 0c bc 7a bf b6 bb d7 01 07 ba ed 25 5c 3b
       -0.008601595 -0.005577025 -0.00051501155 0.0033591941
0002c0 65 ba c4 3b 4a c4 f8 3b 70 83 fa 3b ae 14 0b 3b
       0.0060036653 0.007591759 0.007645063 0.0021222043
0002d0 21 6e db 3a e8 10 f8 3b 17 1a df 3b 58 c9 a6 3c
       0.0016741195 0.0075703748 0.00680853 0.02035968
0002e0 76 b1 78 3c c9 a9 06 bb 5a bc d4 3b 88 84 8f 3b
       0.015179029 -0.0020547977 0.00649218 0.0043798126
0002f0 6d 63 22 3c b2 cf 80 3c 63 fa 8b ba 97 5a bb 3b
       0.0099114 0.015724037 -0.001067948 0.0057175863
000300 99 37 55 3c a3 a6 02 3c e7 11 3f 3c 6a 72 bf ba
       0.013013744 0.0079743 0.011661983 -0.0014606242
000310 4e fc c3 3a 09 bd db b9 ff 20 0a 3b 20 ff 95 3a
       0.0014952512 -0.00041911777 0.0021076796 0.0011443831
000320 f7 33 16 3a 53 72 84 ba 76 3e fd bb 90 7d 84 b9
       0.0005729789 -0.0010104872 -0.007728393 -0.00025270553
000330 8f 15 d2 39 1e 16 d9 bb a2 21 f1 ba c0 2c 87 bc
       0.00040070384 -0.006624951 -0.0018396864 -0.01650083
000340 a6 89 ef 39 33 60 81 39 84 82 23 bc 3a 3f 11 bc
       0.00045688188 0.0002467647 -0.009979848 -0.008865172
000350 e4 72 9b bb de 75 7a bb 52 1f 0e ba 9f e5 34 bc
       -0.0047439206 -0.0038217227 -0.0005421537 -0.011041074
000360 84 b2 87 39 8c c9 36 3a fc ca 88 b9 49 2b fe bb
       0.0002588221 0.0006972782 -0.00026091177 -0.007756625
000370 24 f5 8c 39 db 7d 46 39 09 97 76 ba 70 21 8b bb
       0.00026885525 0.00018929636 -0.0009406661 -0.0042459294
000380 86 68 ad 3b ce 0e 59 bc 6b 25 65 ba 0a 11 80 39
       0.005292001 -0.013248159 -0.00087412325 0.00024426758
000390 d4 e6 8e bb 23 4f ab bb 63 8e 33 39 73 10 b6 bb
       -0.004361013 -0.0052279397 0.00017123813 -0.00555616
0003a0 f9 5d 42 ba 51 2e 55 bc 6e 17 4b bc 04 4a 65 bb
       -0.0007414516 -0.013011531 -0.012395723 -0.0034986744
0003b0 39 68 34 bb a3 52 43 bc 11 b7 a3 bb 0e bf 0e 3c
       -0.0027527942 -0.011921558 -0.0049961885 0.008712543
0003c0 4d f4 b8 bb 21 08 55 39 ba 49 e9 39 28 e3 de bb
       -0.0056443573 0.00020316291 0.00044496154 -0.0068019815
0003d0 4b 8c 95 3a b4 25 17 ba ba d9 b7 b8 1e 45 a9 b9
       0.0011409608 -0.0005765811 -8.766675e-05 -0.00032285688
0003e0 7b 9b 55 3c 67 19 ff ba 51 9c f8 3b 72 bc 84 ba
       0.013037558 -0.0019462527 0.0075869937 -0.0010126962
0003f0 0c ae 0f ba 12 9f f4 39 18 e3 66 3c c1 e0 95 bb
       -0.0005480952 0.00046657823 0.014092229 -0.004573912

conv.9.bias f4 [32]
000000 71 f5 cf 3c cd 76 a8 3c 20 18 89 3c 90 9e 24 3c
       0.02538559 0.020564461 0.016735137 0.01004757
000010 24 d6 d9 b8 a3 33 bf 3b 28 fd 0f 3c 72 dc 05 3d
       -0.00010387253 0.005835013 0.0087883845 0.032680936
000020 90 be f9 39 74 27 50 3c eb ca f2 ba e9 e5 c2 3b
       0.0004763496 0.012704719 -0.0018523609 0.0059478176
000030 7a ef a0 3a 0d de be 39 16 b7 e3 3b 72 82 10 3b
       0.0012278401 0.00036405065 0.006949316 0.0022050408
000040 e9 4e da 38 22 fd 5d 3c 68 04 6b 3a 6e db a4 39
       0.00010409748 0.013549121 0.0008965195 0.00031444005
000050 aa 9d 71 3c 2c 0f 3c bb 4a b4 d4 3b 27 19 90 3b
       0.014747063 -0.0028695567 0.0064912187 0.0043975296
000060 c2 2a 9f 3b d9 8e c9 3b ca 71 8d 3c ee ec f0 b9
       0.004857392 0.006151062 0.017266173 -0.00045952894
000070 29 6a 05 3a 79 aa 33 39 ea a5 b4 3b d6 4a 97 3b
       0.00050893665 0.00017134276 0.0055129426 0.0046170754

lin.0.weight f4 [16, 32]
000000 6c 1b ee 3e e0 bb ee 3d b7 07 2c 3e 2a 46 b2 3d
       0.46505296 0.11656928 0.16799818 0.08704789
000010 d7 5f 23 be ec 35 8a be 22 b7 a5 be 48 37 6c 3e
       -0.15954529 -0.26994264 -0.32366282 0.23067963
000020 7a 81 af bd d8 77 22 be 5a 1a 1f 3d 18 a4 86 3e
       -0.085696176 -0.1586603 0.03884349 0.2629707
000030 42 96 55 bd 59 ae 85 3d 1e d1 ab be be 73 33 3e
       -0.05214525 0.06527395 -0.3355798 0.17524621
000040 16 1f 47 3d a1 7c e1 3d 08 ed 52 be 95 85 4f bd
       0.04861363 0.11010099 -0.20598233 -0.050664503
000050 46 91 93 3e e4 e6 0d be ff 6e 4e 3e 11 85 8a be
       0.28821772 -0.13857609 0.20159529 -0.27054647
000060 b1 33 3d 3e 06 59 b4 3c 97 8d ce bc 24 de 9a 3d
       0.1847675 0.022015106 -0.025214 0.07561901
000070 61 8a 2a be 24 99 32 3e fa 3b 05 be 91 c4 04 be
       -0.1665435 0.17441231 -0.1301116 -0.12965609
000080 08 70 05 bf 99 31 d2 be c4 67 6b be 75 03 84 3d
       -0.5212407 -0.41053465 -0.22988802 0.06445972
000090 10 98 08 3c 1d c5 2e 3e f2 03 65 3e 7d d9 01 bf
       0.008337036 0.1706738 0.22364786 -0.50722486
0000a0 0e 31 e0 ba 4a 60 9a 3e 8e 5f 6a bc 20 4b 41 be
       -0.0017104463 0.30151588 -0.014305009 -0.18876314
0000b0 9b 63 82 bd e3 a3 9d bd 11 2d 6d 3e 54 b3 ba 3c
       -0.063666545 -0.076972745 0.23161723 0.022790588
0000c0 6d 96 7a bc a2 7b 8d 3d d0 9e b6 bd b5 0c a2 ba
       -0.015294653 0.06908347 -0.0891701 -0.0012363406
0000d0 ee e9 aa be 80 98 d6 3e ae a1 66 bd 2b 4b cb 3e
       -0.333816 0.41913223 -0.056306534 0.39705786
0000e0 b3 95 58 bd 75 a3 90 ba f6 d2 e8 3d d3 7d 81 bb
       -0.05287714 -0.0011035042 0.113683626 -0.003951767
0000f0 c0 5e 61 bd c9 98 4d bd ed ae ee 3d 22 6a 47 3e
       -0.055022 -0.050194535 0.11654458 0.1947408
000100 4d 81 cf be de 50 cb be b8 ab 67 be 9a 1b fe 3d
       -0.40528336 -0.39710134 -0.22624099 0.12407608
000110 3c d4 a3 bd ce 6d 70 3e 4b 19 7a 3e 8d a7 c7 be
       -0.07999465 0.23479387 0.24423711 -0.3899502
000120 bf 02 81 bd 1a ec fe 3d fc e9 5a 3d ac b5 50 be
       -0.06299352 0.124473765 0.0534458 -0.20381802
000130 ab 05 b3 bd 57 3c 97 3d 2d 33 bc 3d 75 d2 ca 3d
       -0.087413155 0.07384556 0.091894485 0.09903423
000140 c0 e7 99 bd 84 b8 4c 3e b0 69 d5 3b 43 cb 05 bd
       -0.07514906 0.19992262 0.006512843 -0.03266455
000150 51 83 89 be ef 30 ad 3e ce a1 2a bd 7a ca c7 3e
       -0.26858 0.33826396 -0.041658215 0.39021665
000160 4b d9 2d 3c d2 e8 e5 3d 12 65 9c 3d f9 61 04 bd
       0.010610889 0.112260476 0.07636465 -0.032319997
000170 2d 46 d2 bd da dd 1a bc c1 00 15 3e cc 1e 72 3e
       -0.10267291 -0.009452308 0.14551069 0.2364456
000180 32 9c a0 be ff 21 89 bd bf af 1f be d1 1a 2d bd
       -0.31369168 -0.06695937 -0.15594386 -0.042261902
000190 0b 5a 79 3d 51 4f 53 3e 4f ca 2e 3e c5 5a 76 be
       0.060876887 0.20635726 0.17069362 -0.24058063
0001a0 cf cc 82 3d 19 d5 2a bc 44 d7 e8 bd 4d c8 07 bd
       0.063867204 -0.010426783 -0.11369184 -0.033150006
0001b0 e1 c7 0d be e5 2c 6d 3d 8f 3e 5e bd 53 f9 4f 3d
       -0.13845779 0.057904143 -0.05425888 0.050774883
0001c0 81 55 af ba 4c 8b ae bb c2 5c 1c 3c 0a 93 9a 3d
       -0.0013376923 -0.005326664 0.0095436 0.07547577
0001d0 5a 46 35 be b4 b2 11 3e 42 c4 e1 3d 07 68 b1 3e
       -0.17702618 0.14228326 0.11023761 0.3464968
0001e0 92 b4 33 be 2e 1a fe bd 47 3c fe 3d 51 2c 21 bc
       -0.17549351 -0.12407337 0.12413841 -0.009837226
0001f0 28 fb a8 3d 7d 47 dc 3b 81 af 25 3e e0 04 5a 3d
       0.08251029 0.0067223893 0.1618023 0.053227305
000200 27 c2 ed be e9 f5 b2 bd 31 ca d4 bb fa 04 e7 3d
       -0.4643719 -0.0873831 -0.0064938297 0.11280246
000210 41 3b 97 bd da 82 68 3e e3 c7 15 3e 28 96 8a be
       -0.07384349 0.22706166 0.14627032 -0.27067685
000220 96 5a a3 bc 2b 57 c8 3d c6 7d 08 3c fd 0f 28 be
       -0.019940656 0.09782251 0.008330768 -0.16412349
000230 2c 7d d2 bd 1e 5e 0a be d3 0c 42 3d cb 03 da 3c
       -0.10277781 -0.13512465 0.04737551 0.026613137
000240 e8 7f 07 3d 45 7e 5d 3d 3c 1e 98 bd 7b f3 28 3b
       0.033080965 0.054075498 -0.07427642 0.0025779891
000250 be 90 3e be f1 f0 7a 3e 16 14 4b bd af 86 e5 3e
       -0.18609902 0.24505974 -0.049579702 0.44829318
000260 d3 2f e1 bd 42 57 28 3e 73 ae 48 bd f5 53 05 3d
       -0.1099545 0.16439536 -0.048994493 0.03255077
000270 fa 84 8b bd 9a c9 14 bd 04 29 00 bd 39 77 06 3d
       -0.06812473 -0.036325075 -0.031289116 0.032828543
000280 6a 00 51 2a 9b 7e fc b8 0f d9 29 b6 94 8e f4 30
       1.8563073e-13 -0.000120398785 -2.5309307e-06 1.779386e-09
000290 9b a6 cd b7 f7 41 5e 3b 42 7a 6c b2 a7 79 58 2a
       -2.4515486e-05 0.003391383 -1.3764806e-08 1.922686e-13
0002a0 3b 30 c5 37 c6 8e 33 b9 a6 96 54 3b 28 75 39 b0
       2.350669e-05 -0.00017123958 0.0032438426 -6.7469097e-10
0002b0 0f 26 6b 3a b0 9a 53 a8 79 c1 4c b7 b6 5b 61 b5
       0.000897021 -1.1746395e-14 -1.2204394e-05 -8.395249e-07
0002c0 ab 15 d0 3a 13 0d 23 af 52 d6 6c ad 42 ad 35 b4
       0.0015875598 -1.4829409e-10 -1.34626355e-11 -1.691997e-07
0002d0 6a 2f 2c 31 9d 46 50 b8 3d 26 11 38 49 20 22 38
       2.5056246e-09 -4.965683e-05 3.4606306e-05 3.8653878e-05
0002e0 6f b3 03 ad d5 a7 8d b0 ec a9 b7 ba 44 ca 47 b9
       -7.48633e-12 -1.0306801e-09 -0.0014012433 -0.00019053469
0002f0 b1 55 f8 39 73 6a a9 39 2d e7 86 ba 1b 49 3c 38
       0.0004736609 0.00032313503 -0.0010292284 4.4890778e-05
000300 02 ef 54 bd 91 ee 17 bd 29 16 e2 bd c5 7a 4e be
       -0.051985748 -0.03709275 -0.11039383 -0.2016402
000310 96 b2 35 bd 4e da 3f bc f9 32 40 3e cd 04 af bc
       -0.044359766 -0.011709763 0.18769445 -0.021364594
000320 16 55 2f 3c bd 60 62 3e f9 a7 92 3c 5e 63 5c bd
       0.010701438 0.22107215 0.017902361 -0.0538057
000330 4a 02 21 3e 4d 6e c5 bc 8f cf b4 3e 51 05 d0 bd
       0.1572353 -0.024100447 0.35314605 -0.10157264
000340 a3 c8 c1 bc fa b1 f2 bd a7 d6 ba 3e 7a 79 e1 3d
       -0.023655241 -0.118503526 0.36491892 0.11009498
000350 ff 70 37 3c 83 9b ed bd c1 7b d4 bd 30 a3 98 3d
       0.011196374 -0.11601927 -0.10375167 0.074530005
000360 97 85 f5 bc 07 4e 40 bd 29 c2 30 3e 06 75 60 bd
       -0.029970927 -0.046949413 0.17261566 -0.054799102
000370 d1 c0 10 3e 80 f0 ce bd d5 b6 26 3e dd 6d 26 3e
       0.14136054 -0.101044655 0.16280682 0.16252847
000380 21 c9 50 be b2 75 6b be 8b 9c bd 3c 2d 85 56 3e
       -0.20389225 -0.22994116 0.023145935 0.2094924
000390 05 1d 36 bd 07 72 81 3e 65 66 9f 3d 72 54 ca be
       -0.04446127 0.25282308 0.07783202 -0.39517552
0003a0 ec f8 20 bd 44 30 8a 3e 64 44 0f be 9a a7 20 be
       -0.03929989 0.2698995 -0.13990933 -0.15688935
0003b0 ec 5b b8 3d db d5 28 be 81 6f 8a 3e aa 2c aa 3d
       0.09001908 -0.1648783 0.27038196 0.083093
0003c0 7d bc 77 bd 4d a3 7c 3e 19 50 15 be 46 c1 05 bd
       -0.06048249 0.2467167 -0.14581336 -0.032655023
0003d0 4d ec 0b be 44 02 8d 3e 8a 75 c8 3d 34 ed a4 3e
       -0.1366436 0.2754079 0.09788044 0.32212222
0003e0 7e 4e 92 3d 2e 4d 32 3e 12 75 59 3e b6 89 96 bd
       0.071438774 0.17412254 0.21236065 -0.07350485
0003f0 d3 3e 96 bd be 72 5b bd 09 79 0f 3e c9 98 00 3e
       -0.073362015 -0.053576224 0.14011015 0.12558283

lin.0.bias f4 [16]
000000 91 f9 90 3d c6 3c c4 3d 02 a5 83 3d e3 f7 51 3d
       0.07078851 0.09581904 0.06427957 0.051261794
000010 c5 22 72 3d aa d7 33 bc 7a 20 3e bd ad 34 d4 3c
       0.05911519 -0.010976711 -0.04641769 0.025904024
000020 24 cc 91 3d 92 8b 92 ba 7e cc ef bb 07 72 c9 3d
       0.07119015 -0.0011180511 -0.0073180785 0.09836202
000030 55 01 da bd 9e 40 85 3d 9d e8 1b 3e fb 45 d4 3d
       -0.10644785 0.065064654 0.15225454 0.1036491

lin.2.weight f4 [1, 16]
000000 de 31 e0 3e 32 cb 6c be 4f 15 21 bf ba 32 72 be
       0.43788046 -0.23124388 -0.6292314 -0.23652163
000010 6c 9c 89 be fc 45 63 bc 05 a3 00 3f 09 21 da be
       -0.26877153 -0.013871666 0.5024875 -0.4260333
000020 7f 3e 5b 3e f6 cd 91 be 40 95 04 3d 5e 9f 2d 3f
       0.21410559 -0.28477448 0.0323689 0.678213
000030 93 5f d9 bd 0b 84 a0 3e 22 d6 cb 3e 2d b6 d5 be
       -0.106139325 0.3135074 0.39811808 -0.41740552
