sim/models/round_about.pt (torch, 22012 bytes, 13 tensors)

conv.0.weight f4 [4, 1, 5, 5]
0	0xbd5904ad	-0.052982975
1	0x3ce66488	0.028124109
2	0x3a1c5cdf	0.00059647666
3	0x3cc53af7	0.024075968
4	0x3c22672a	0.009912292
5	0xbb4cee59	-0.0031269996
6	0x3b56cf57	0.0032777393
7	0x3c0a2e31	0.008433864
8	0x3d10fa1d	0.035394777
9	0xbd26c30e	-0.040713362
10	0x3c090af3	0.008364427
11	0x3b84f868	0.0040579326
12	0xbd820188	-0.06347948
13	0x3cec1dc2	0.028822783
14	0x3cc21c50	0.023695141
15	0xbc3e3c07	-0.011610991
16	0x3b6d9faf	0.003625851
17	0xbb0247f0	-0.0019879304
18	0xbcf2ad1f	-0.029623566
19	0xbd09f672	-0.033682294
20	0x3c44749a	0.011990691
21	0x3d039305	0.03212263
22	0x3bd6672d	0.006543061
23	0xbc91a3c9	-0.017778294
24	0x3b8c135f	0.00427477
25	0x3d8054ae	0.06266151
26	0xbd9d69ae	-0.076861724
27	0xbc95e459	-0.018297361
28	0x3d1a58c5	0.037682313
29	0xbcfd1942	-0.030895833
30	0xbbf0fbed	-0.0073542506
31	0xbd0d9b9d	-0.034572233
32	0x3d4a5e30	0.04940623
33	0x3d1be198	0.03805694
34	0x3b176ef6	0.002310691
35	0xbc6bb83a	-0.014387185
36	0x3d44e63e	0.04807114
37	0xbb86a6d5	-0.0041092434
38	0xbc78ebcb	-0.015192936
39	0xbdc7f184	-0.09762862
40	0x3c8625f2	0.016375516
41	0xbd9e3c55	-0.07726351
42	0x3cd38706	0.02582122
43	0x3d0dd8a4	0.034630433
44	0x3c92d632	0.017924402
45	0xbc1269cf	-0.00893636
46	0x3cca8a99	0.024724292
47	0xbc6768b0	-0.014124081
48	0xbd564817	-0.052314844
49	0x3c7655b4	0.015035082
50	0x3c838d9f	0.016058741
51	0x3cd76d76	0.026297312
52	0xbc8991b0	-0.016793102
53	0x3c0d2c06	0.008616453
54	0xbcca6b9c	-0.024709515
55	0xbcba3749	-0.02273144
56	0xbc929e66	-0.017897796
57	0x3a002be6	0.0004889354
58	0xbcccad2d	-0.02498492
59	0x3b97f010	0.004636772
60	0xbca296b8	-0.019847259
61	0xbadd85fe	-0.0016900895
62	0xbd3c9ee8	-0.046049982
63	0x3d15e802	0.036598213
64	0xbcbc01eb	-0.022950133
65	0x3d1203d7	0.035648193
66	0xbc8226e6	-0.015887689
67	0x3af72fe4	0.0018858877
68	0xbc0f8bfd	-0.008761403
69	0x3d10d31b	0.035357576
70	0x3c8cf5a8	0.017206982
71	0x3c47149e	0.012150912
72	0xbd3f9635	-0.046774108
73	0x3d0d4af8	0.034495324
74	0x3c4dc0ff	0.012558221
75	0xbc6f773a	-0.014615828
76	0x3aa6a73d	0.0012714636
77	0x3c3617be	0.011114059
78	0xbc9b2052	-0.01893631
79	0xbc932b5f	-0.017965017
80	0x3b7f2593	0.0038932308
81	0x3da6c4c7	0.08143001
82	0xbd6f763b	-0.058462363
83	0xbc415e16	-0.011802217
84	0x3bf62726	0.007511991
85	0xba4e5238	-0.0007870528
86	0xbd6e10e1	-0.058121566
87	0x3da9af92	0.082854405
88	0xbd3efb5e	-0.04662644
89	0x3cc030b3	0.023460722
90	0x3b5fa152	0.0034123254
91	0x3cc3aaa0	0.023885071
92	0x3c8591a3	0.016304797
93	0x3b675dec	0.0035303785
94	0xbd551212	-0.052019186
95	0x3ba6d286	0.0050910143
96	0xbd43b355	-0.047778446
97	0xbd473bc5	-0.048640985
98	0x3d2d31c9	0.042283807
99	0x3c44d3ad	0.012013358

conv.0.bias f4 [4]
0	0xb75cba22	-1.3156359e-05
1	0xb9ee509e	-0.00045454962
2	0x3bb551e9	0.005533446
3	0xbb4f2a56	-0.0031610928

conv.3.weight f4 [4]
0	0x3ee2d092	0.44299752
1	0x3edb0354	0.42775977
2	0x3edd42fc	0.43215168
3	0x3ee51511	0.44742635

conv.3.bias f4 [4]
0	0x3cade046	0.021225106
1	0xbd575d60	-0.052579284
2	0x3be1101c	0.0068683755
3	0x3aca3a65	0.001542878

conv.3.running_mean f4 [4]
0	0x400fad82	2.244965
1	0x400022f6	2.0021338
2	0x3fee6a1f	1.8626136
3	0x4001b3aa	2.0265908

conv.3.running_var f4 [4]
0	0x40ae8bb6	5.4545546
1	0x40e9a125	7.300921
2	0x408e2562	4.4420633
3	0x40efa0b9	7.4883695

conv.4.weight f4 [4, 4, 5, 5]
0	0xbc1bc7ff	-0.009508132
1	0xbb9685ff	-0.0045936103
2	0x3d1493ba	0.036273696
3	0x3cf97986	0.030453455
4	0xbcd7d732	-0.02634773
5	0xbcfbcd6b	-0.0307376
6	0xbce1ba62	-0.027554695
7	0x3c32c6a3	0.0109116165
8	0xbcb9bbf4	-0.02267263
9	0xbca425a1	-0.020037474
10	0x3bdb0a2c	0.006684562
11	0xbc9759ab	-0.018475374
12	0x3da3c29a	0.07996102
13	0xbd923f6a	-0.071410015
14	0x3c9a4e93	0.018836295
15	0x3cdf8401	0.027284624
16	0x3cf3748b	0.029718658
17	0x3cae28eb	0.021259746
18	0xbd2f5fe2	-0.04281605
19	0x3cffafd4	0.031211771
20	0x3c89afa4	0.016807385
21	0x3b5f9bb1	0.00341199
22	0xbc3adb33	-0.0114048
23	0x3c1403ff	0.009034156
24	0x3c2c20a2	0.010505827
25	0x3d261bd1	0.04055387
26	0xbbb913ed	-0.0056481273
27	0x3c9bc725	0.019015858
28	0x3c33298c	0.0109351985
29	0x3d239f6e	0.039946966
30	0x3b480a32	0.0030523655
31	0x3cb022b2	0.021500919
32	0x3d1509c0	0.03638625
33	0xbb3a34aa	-0.0028412738
34	0xbcde0154	-0.027100243
35	0x3cbb77a3	0.022884196
36	0x3c8fbcaf	0.017546026
37	0xbcb3738e	-0.021905687
38	0x3c32fcfa	0.010924572
39	0x3d35caea	0.044382967
40	0x3d0baee3	0.03410233
41	0x3c5bbb51	0.013411359
42	0x3c1ce2a8	0.009575523
43	0x3d073a42	0.033014543
44	0xbbec9d84	-0.0072209258
45	0x3c144ab2	0.009051012
46	0xbc481f9a	-0.012214566
47	0x3c652f9a	0.0139884
48	0x3c3bbfb6	0.011459282
49	0xbbdfddaa	-0.0068318443
50	0x3b18c897	0.002331292
51	0x3caf527d	0.021401638
52	0xbb6da1a3	-0.0036259673
53	0xbd5342d7	-0.051577415
54	0x3bf3660d	0.007427937
55	0xbbcb7e26	-0.0062101064
56	0x3ca9cc3e	0.020727273
57	0xbc0e9bde	-0.008704154
58	0xbc96ac96	-0.018392842
59	0x3ba438c1	0.0050116484
60	0xbceca676	-0.028887969
61	0x3cc62220	0.024186194
62	0xba6e2372	-0.0009084261
63	0xba710646	-0.0009194355
64	0x3d2f0314	0.042727545
65	0xbcdeab2c	-0.02718123
66	0x3a96caca	0.0011504528
67	0xbc35c851	-0.011095122
68	0xbc9cbeb3	-0.019133901
69	0x3d43fe58	0.047849983
70	0xbd10b9a2	-0.035333283
71	0xbcaaab17	-0.020833535
72	0xbc13f3ae	-0.009030266
73	0x3a908f28	0.0011028992
74	0x3bac5e4f	0.005260266
75	0xbcb982d4	-0.022645392
76	0xbb23daf7	-0.002500234
77	0x3c0c8398	0.008576296
78	0x3b06c6e4	0.0020565325
79	0xbdaea4b2	-0.08527507
80	0xbd059c40	-0.032619715
81	0x3b29dff3	0.0025920838
82	0xbcbfeb7b	-0.023427716
83	0xbd0f0b7b	-0.034923058
84	0xbcebcfa6	-0.028785538
85	0xbaee2e9b	-0.0018171848
86	0xbd1f79e0	-0.03893459
87	0xbbb93180	-0.005651653
88	0xbc78fadd	-0.015196529
89	0x3c07df7a	0.008293027
90	0x3c0e32fb	0.008679147
91	0xbd6f3d9e	-0.058408372
92	0xb9f166c3	-0.00046043665
93	0x3cc92b26	0.024556708
94	0xbdb810d3	-0.08987584
95	0xbc90fbeb	-0.017698249
96	0xbc685886	-0.014181262
97	0x3cef88de	0.029240068
98	0xbcb738f9	-0.022366034
99	0xbcd03eac	-0.02542051
100	0x3b0c87a7	0.002144316
101	0x3cfd118a	0.030892152
102	0x3cb500e0	0.022095144
103	0x3b2dab9f	0.00265
104	0xbc3d76ac	-0.011563938
105	0x3be789a5	0.007065969
106	0x3cfa1534	0.030527689
107	0x3d2e9c0a	0.04262928
108	0x3ccb4ab3	0.024815893
109	0xbd1bd055	-0.038040478
110	0x3adfa426	0.001706247
111	0xbc198060	-0.009368986
112	0xbc4d13a2	-0.012516888
113	0x3cf01e47	0.029311312
114	0xbbdf0371	-0.00680583
115	0xbd1ddf95	-0.038543303
116	0xbba1e95f	-0.00494115
117	0xbbd45618	-0.0064799897
118	0xbc768362	-0.015045973
119	0x3cbf2840	0.023334622
120	0xbcbb7c3c	-0.022886388
121	0xbc6a0fb3	-0.01428597
122	0x3bf88d1d	0.0075851814
123	0xbca26d5d	-0.01982754
124	0x3d040883	0.03223468
125	0xbcba1e6f	-0.02271959
126	0xbd24d6a0	-0.040243745
127	0xbd2b708b	-0.041855376
128	0xbce2f3eb	-0.0277042
129	0x3c10ade4	0.008830521
130	0xbcb3a015	-0.021926919
131	0xbcad3255	-0.021142164
132	0xbc8d35d0	-0.017237574
133	0xbc200fb4	-0.009769369
134	0xbd25b382	-0.040454395
135	0x3cf2cbce	0.029638197
136	0xbcad41ef	-0.021149604
137	0xbce4bc4b	-0.027921816
138	0xbc949850	-0.018139035
139	0xbcc2d15e	-0.023781475
140	0xbc0f2628	-0.0087371245
141	0x3ca1bd37	0.019743545
142	0xbb666677	-0.0035156289
143	0xbbb4699f	-0.005505755
144	0xbc9b9c0f	-0.018995313
145	0xbc6c76d6	-0.01443263
146	0xbb311b23	-0.0027024231
147	0x3c4b3435	0.012402584
148	0xbc5648c3	-0.013078871
149	0xbbed1c4d	-0.0072360397
150	0xbcbc433f	-0.022981284
151	0x3d049d2b	0.03237645
152	0x3c3162a1	0.010826738
153	0x3d0b6ecf	0.034041222
154	0x3ba6c89e	0.0050898334
155	0xbc9dc2c0	-0.019257903
156	0xbd575bb2	-0.05257768
157	0xbbfdb517	-0.007742535
158	0x3bc09a40	0.005877763
159	0x3cf4eb6f	0.02989742
160	0xbd8620cc	-0.06549224
161	0xbdc5500f	-0.096344106
162	0xbcb52cd7	-0.022116108
163	0xbd7185e2	-0.05896557
164	0xbd162ac3	-0.036661875
165	0x3a1a5ae2	0.00058881764
166	0x3bfa1608	0.007632021
167	0x3bc9f5fe	0.0061633578
168	0xbcf09207	-0.029366506
169	0xbd0eeacb	-0.034891885
170	0x3cdec589	0.027193801
171	0xbc9ad7d1	-0.018901737
172	0x3ce87a73	0.0283787
173	0x3d297b33	0.041377258
174	0x3cb8162c	0.02247151
175	0xbc2c01f9	-0.010498517
176	0x3b63673a	0.003469898
177	0x3d3d9217	0.0462819
178	0x3cac2390	0.021013051
179	0x3d6dd62c	0.05806558
180	0x3cb1483b	0.021640887
181	0x3d3f94f5	0.046772916
182	0x3cc4e9a8	0.024037197
183	0xbbc360fa	-0.0059624882
184	0x38625a23	5.3966545e-05
185	0x3c6080f3	0.013702619
186	0xbc1dc698	-0.009629868
187	0x3d18264e	0.037145905
188	0x3b267717	0.0025400573
189	0x3be13f10	0.0068739727
190	0xba232c4c	-0.00062245573
191	0x3d4ff04b	0.05076627
192	0x3d4e9ba8	0.050441414
193	0x3d5868e1	0.052834395
194	0x3c617aed	0.013762218
195	0xbbaf0ff7	-0.0053424793
196	0xbcf4cc38	-0.029882535
197	0x3c1f99bf	0.009741246
198	0x3c8d8cb6	0.01727901
199	0xbc511e28	-0.0127635375
200	0xbbd61ed1	-0.0065344353
201	0xbd99b1fa	-0.075046495
202	0x3c439a70	0.011938676
203	0x3c3cf3f8	0.011532776
204	0x3ca51128	0.020149782
205	0xbd25e660	-0.040502906
206	0xbd319bae	-0.04336136
207	0x3cac1a51	0.021008642
208	0xbce471bc	-0.027886264
209	0xbb9c63a6	-0.004772621
210	0xbd1323ab	-0.035922688
211	0xbc5052c5	-0.012715046
212	0xbc206f12	-0.009792106
213	0xbc8bc9ad	-0.01706394
214	0x3bd325d7	0.00644372
215	0xbd071662	-0.03298033
216	0x3d2d7202	0.042345054
217	0xbc3c54f1	-0.011494861
218	0xba9d27ea	-0.0011990045
219	0x3d2f2d3a	0.04276774
220	0x38dd4e78	0.00010552717
221	0x3d5c5bc1	0.05379844
222	0xbc2d7be6	-0.010588622
223	0xbd2611da	-0.04054437
224	0x3cb03928	0.02151163
225	0x3b3d466f	0.0028881093
226	0x3c0e5221	0.008686573
227	0xbcc3f4aa	-0.023920376
228	0x3cd17cf8	0.025572285
229	0x3da1ebc7	0.07906299
230	0x3cffed4f	0.031241087
231	0xbb58f926	-0.0033107488
232	0x3c7d1554	0.01544698
233	0x3cc32c38	0.023824796
234	0x3d29ab98	0.04142341
235	0x3cc1c932	0.023655508
236	0xbd174b6c	-0.036937162
237	0x3cf46e5d	0.029837782
238	0x3d127f35	0.035765845
239	0xbbad96f5	-0.0052975365
240	0x3d0d6764	0.03452243
241	0x3b053e02	0.002033115
242	0x3d68ff65	0.05688419
243	0xbb163afd	-0.0022923343
244	0xbb07285e	-0.0020623426
245	0xbd0ce1f4	-0.034395173
246	0x3c3d09f4	0.011538018
247	0x3d4c77bd	0.04991888
248	0xbabcff58	-0.001441936
249	0xbc8f1e9a	-0.017470647
250	0x3c086225	0.008324181
251	0xbc237d49	-0.009978601
252	0x3b8faf28	0.004384894
253	0xbce0b9fb	-0.027432432
254	0xbd84350b	-0.0645543
255	0xbb99c19e	-0.0046922704

conv.4.bias f4 [4]
0	0xbd9e18d0	-0.07719576
1	0xbdc9581e	-0.0983126
2	0xbdc0c624	-0.09412792
3	0xbdaa3836	-0.08311503

conv.9.weight f4 [32, 4, 5, 5]
0	0x379e0311	1.8836496e-05
1	0xb8343796	-4.2967113e-05
2	0x37b17022	2.115226e-05
3	0xb811b92a	-3.474314e-05
4	0xb6507d58	-3.1067375e-06
5	0xb8060d70	-3.1960604e-05
6	0xb57bd6e0	-9.381747e-07
7	0xb7176150	-9.022959e-06
8	0xb81a4f53	-3.6790338e-05
9	0x381e4f04	3.7743725e-05
10	0xb7025a38	-7.7696095e-06
11	0xb76dfd84	-1.4185327e-05
12	0xb72baa12	-1.0231992e-05
13	0xb6a9786c	-5.0506114e-06
14	0x37411ef5	1.1510904e-05
15	0xb6cdf0a2	-6.1374894e-06
16	0x382f3409	4.1771713e-05
17	0xb7b80e13	-2.1941063e-05
18	0xb7cb5428	-2.4238674e-05
19	0x382727e2	3.9853046e-05
20	0x38181e1c	3.6267666e-05
21	0x379f1fab	1.8969024e-05
22	0x38c17a8e	9.225785e-05
23	0xb75ac88c	-1.3040506e-05
24	0x384cc118	4.8817223e-05
25	0xb7473698	-1.1874035e-05
26	0x37e1e1b8	2.6927199e-05
27	0xb6a92090	-5.0403833e-06
28	0xb6c1fec4	-5.781507e-06
29	0x37a08122	1.9133618e-05
30	0x37da7058	2.603994e-05
31	0x37498f69	1.2013924e-05
32	0xb712f2ce	-8.7588105e-06
33	0xb69e5ad4	-4.7193407e-06
34	0x3793fda2	1.7641873e-05
35	0xb8038bb9	-3.136296e-05
36	0x37f4fa7e	2.9203711e-05
37	0xb72de536	-1.0364971e-05
38	0x36bf40ce	5.699788e-06
39	0x36bc543d	5.6126432e-06
40	0x3791cf70	1.7381943e-05
41	0xb74f4d5b	-1.2356172e-05
42	0xb7a71af0	-1.9920495e-05
43	0x37e986ea	2.7838589e-05
44	0x3755d37c	1.2745029e-05
45	0xb7918f82	-1.7352173e-05
46	0x34ebe620	4.39396e-07
47	0x368e0980	4.2330357e-06
48	0xb6fa2157	-7.454462e-06
49	0xb7d5786c	-2.5447654e-05
50	0x373a625d	1.1109366e-05
51	0x38121bb2	3.4834906e-05
52	0xb6f9ad68	-7.4409654e-06
53	0xb7e90376	-2.7777376e-05
54	0x37171530	9.0052345e-06
55	0x379f026a	1.8955401e-05
56	0x365d733f	3.2998648e-06
57	0x3881bd3d	6.186448e-05
58	0x37cfea56	2.4785444e-05
59	0xb8497721	-4.8033082e-05
60	0x36c9222c	5.994245e-06
61	0x3837ea04	4.3848544e-05
62	0xb7ad187e	-2.0634612e-05
63	0xb6c18b72	-5.768082e-06
64	0xb822077a	-3.8630773e-05
65	0x3821a384	3.8537677e-05
66	0x37b41414	2.1467022e-05
67	0x370ff454	8.580351e-06
68	0x37d9087b	2.5872365e-05
69	0xb71dbcf5	-9.401924e-06
70	0x38abf540	8.199597e-05
71	0xb7b24208	-2.1250002e-05
72	0x3808179d	3.244692e-05
73	0x3856aab1	5.1180545e-05
74	0x38403242	4.5823173e-05
75	0x37d8230d	2.5765528e-05
76	0xb7577574	-1.2842345e-05
77	0xb7ab6ad2	-2.043453e-05
78	0xb7abb6d6	-2.0469928e-05
79	0x3769eb84	1.39427175e-05
80	0x38c5d2d7	9.432964e-05
81	0x371f2ae3	9.487124e-06
82	0xb623e62c	-2.442287e-06
83	0xb7ab625e	-2.0430594e-05
84	0x37354816	1.08052245e-05
85	0x3815385c	3.5576857e-05
86	0x380d1400	3.3635646e-05
87	0x38097ef8	3.2781594e-05
88	0x37e0297f	2.6722204e-05
89	0x3802b6e8	3.116476e-05
90	0xb8063052	-3.199309e-05
91	0x381eb19e	3.7835554e-05
92	0xb72502de	-9.835434e-06
93	0x37f48172	2.9147344e-05
94	0x3731c319	1.0595447e-05
95	0xb730d9a8	-1.05410945e-05
96	0xb8494b4d	-4.7992264e-05
97	0xb50da600	-5.2768155e-07
98	0xb6778ac0	-3.6886631e-06
99	0xb7f38fc1	-2.9034798e-05
100	0x3b143e8d	0.002262029
101	0xba968b1f	-0.0011485553
102	0x3b33fb77	0.0027463117
103	0x39c783fe	0.0003805458
104	0x3ba5d123	0.0050603314
105	0xba59f168	-0.00083138654
106	0xbbce5653	-0.0062969117
107	0x3af5b6be	0.0018746478
108	0x3bc19c64	0.005908536
109	0xbb48d4e6	-0.0030644475
110	0xbb1feb5c	-0.002440176
111	0x3ae7577c	0.0017649974
112	0x3b82e8dd	0.0039950446
113	0x3ba05ce9	0.0048938883
114	0x3baf6e6c	0.0053537395
115	0x3b87a2b8	0.0041392706
116	0x3abdef41	0.0014490859
117	0x39223ab6	0.00015471395
118	0x3c34b057	0.011028371
119	0x3c030125	0.007995878
120	0xba155bc2	-0.0005697572
121	0x3b75845b	0.0037462923
122	0x3b57018c	0.0032807318
123	0xbaedea70	-0.0018151533
124	0x3b7988b0	0.0038075857
125	0x3ae422c8	0.0017405385
126	0x3b9ff046	0.0048809377
127	0x3c3a070e	0.011354221
128	0x3b9a676e	0.004712037
129	0xbb17551e	-0.0023091505
130	0x3a913e73	0.0011081233
131	0x3b623063	0.0034513704
132	0x3bfa0816	0.0076303585
133	0x3be9add5	0.007131318
134	0x3abc65d1	0.0014373605
135	0xbbd280a1	-0.006424025
136	0xb9723abb	-0.00023100797
137	0xbab7ddff	-0.0014027952
138	0x3a7fb946	0.0009755086
139	0x3a01d2f2	0.0004952393
140	0xbb85abbc	-0.00407931
141	0xbbce2527	-0.00629105
142	0xbc0db7fd	-0.008649823
143	0xbafe857a	-0.0019418441
144	0x3b0410cb	0.002015161
145	0x3b583066	0.0032987832
146	0x3a10af22	0.0005519261
147	0xba8b8880	-0.0010645539
148	0xb8d6a0e4	-0.000102342834
149	0x3b42187b	0.0029616642
150	0xbb07c2f7	-0.0020715573
151	0x3aeb6d94	0.0017961734
152	0x3b35605e	0.0027675848
153	0x392c3f0c	0.00016426685
154	0x3ae268c4	0.0017273654
155	0xbb3b65fe	-0.0028594728
156	0x3c281166	0.010258054
157	0x3b122a84	0.0022303173
158	0x3a09d266	0.0005257487
159	0x3c837760	0.016048133
160	0x3b391432	0.0028240797
161	0x3b7952bf	0.0038043705
162	0xbb00fe41	-0.0019682797
163	0x3c498189	0.01229895
164	0x3b2c3d8c	0.0026281802
165	0x3b662b75	0.0035121117
166	0x3a9d7771	0.0012013746
167	0x38c019d2	9.160083e-05
168	0x3b6ce7ae	0.0036148834
169	0xb86a5d2e	-5.5876728e-05
170	0x3a969f5b	0.0011491583
171	0xbc1008be	-0.008791147
172	0x3b09c486	0.0021021678
173	0xbc1bb1ed	-0.00950287
174	0x3b8ded52	0.0043312693
175	0x3c44c3be	0.012009559
176	0xbb9ae033	-0.0047264337
177	0xb9f6b2aa	-0.00047053891
178	0xba3062ff	-0.0006728619
179	0xba66ff3c	-0.00088118366
180	0x3cad5438	0.021158323
181	0xba378c85	-0.0007001835
182	0x3b158df5	0.0022820209
183	0x3b0b82db	0.0021287713
184	0xbb8275ee	-0.0039813435
185	0x3c1884f1	0.009309039
186	0x3b99572d	0.0046795816
187	0xb977ede0	-0.00023644371
188	0x3acd636e	0.0015669891
189	0x3922294e	0.00015464911
190	0x3ba09993	0.00490112
191	0xb925d763	-0.00015815864
192	0x3b821939	0.003970292
193	0xb8f48bc0	-0.00011660857
194	0x3bacc022	0.0052719275
195	0xbadfab82	-0.0017064663
196	0xbb06853b	-0.002052619
197	0xbbe933e4	-0.0071167815
198	0x397fe808	0.00024405133
199	0xba58856a	-0.00082596263
200	0x3b2df61e	0.0026544402
201	0xba89b400	-0.0010505915
202	0x3b5576d1	0.003257204
203	0x399178b6	0.00027746492
204	0x3bd2620f	0.006420381
205	0xba51a96c	-0.0007997963
206	0xbbe68d19	-0.007035863
207	0x3aeb5eb9	0.0017957307
208	0x3bca5ef3	0.0061758696
209	0xbb780c98	-0.0037849303
210	0xbb32badd	-0.0027272024
211	0x3ae003cb	0.0017090974
212	0x3b8a2a02	0.0042164335
213	0x3baf8aa6	0.0053571044
214	0x3bc0c9f6	0.0058834506
215	0x3ba32d9e	0.004979803
216	0x3b058365	0.0020372507
217	0x3997bde7	0.00028942453
218	0x3c3dfc45	0.01159579
219	0x3c0bdafb	0.008536096
220	0xba1c9d0c	-0.00059743295
221	0x3b8ebf4b	0.0043563
222	0x3b6a811d	0.0035782524
223	0xbaefff58	-0.0018310351
224	0x3b84ed98	0.0040566437
225	0x3b14b50f	0.0022690927
226	0x3bb2407b	0.0054398156
227	0x3c547f86	0.012969857
228	0x3bc209ca	0.005921577
229	0xbb1ca72b	-0.002390335
230	0x3ae72da1	0.00176375
231	0x3b953e37	0.0045545357
232	0x3c0ee44a	0.008721421
233	0x3c0d7c69	0.008635619
234	0x3b0f7e10	0.0021895207
235	0xbbeb2d39	-0.007177022
236	0xb9eb686c	-0.00044900493
237	0xbaaf2122	-0.0013361315
238	0x3aaca7d0	0.0013172571
239	0x39d71e5f	0.00041030624
240	0xbbad8112	-0.0052949274
241	0xbbf7ae59	-0.0075586257
242	0xbc1ea826	-0.009683644
243	0xbb00a701	-0.0019630792
244	0x3b145a05	0.0022636664
245	0x3b8feb55	0.0043920674
246	0x39fd6504	0.00048331183
247	0xba91bf65	-0.0011119662
248	0xb8ecb11b	-0.000112863454
249	0x3b39f378	0.0028373878
250	0xbb0a6899	-0.0021119474
251	0x3af32957	0.0018551749
252	0x3b2c9999	0.0026336669
253	0x39a81fe7	0.00032067226
254	0x3b13db00	0.0022560954
255	0xbb5d0951	-0.0033727477

conv.9.bias f4 [32]
0	0xb8a2aa3a	-7.756469e-05
1	0x3cf0d867	0.029400064
2	0x3cf95262	0.030434791
3	0x38cec4f4	9.859531e-05
4	0x3bd80c01	0.006593228
5	0x3c979fe5	0.01850886
6	0x36af7fea	5.2302976e-06
7	0x3afef529	0.0019451726
8	0x3c9ec218	0.01937966
9	0xb9d0721d	-0.00039757873
10	0xb93ddb42	-0.00018106124
11	0x3acbf16e	0.0015559623
12	0x3c1d8fde	0.00961682
13	0x3c6e82dc	0.0145575665
14	0x3c5e74ce	0.013577653
15	0x3b04868a	0.0020221793
16	0x3b9eb4e9	0.0048433435
17	0x3c4b5f8d	0.012412918
18	0x3d009059	0.03138766
19	0x3cb8a74f	0.022540716
20	0x3acd69cf	0.0015671792
21	0x3c009d51	0.007850007
22	0x3acd261c	0.0015651616
23	0xbaada99a	-0.0013249398
24	0x3ca446ec	0.02005335
25	0x3cd6f414	0.026239432
26	0x3bfd2187	0.007724944
27	0x3bf76aff	0.0075505967
28	0x3cf07bba	0.029355872
29	0x3c37a374	0.011208404
30	0x3b726132	0.0036984202
31	0x3cc2de6f	0.023787705

lin.0.weight f4 [16, 32]
0	0x3dd5fb30	0.10448301
1	0x3dc6f273	0.09714212
2	0x3cd62dfd	0.026144976
3	0x3bff9d7a	0.007800755
4	0xbc74b38d	-0.014935386
5	0xbd7d8534	-0.06189461
6	0xbdd11931	-0.10209883
7	0x3e0e5591	0.13899828
8	0xbdc26c1c	-0.094932765
9	0xbdff8fca	-0.124785975
10	0x3e169996	0.14707026
11	0x3e016077	0.12634455
12	0x3dd333fb	0.10312649
13	0xbe64e6ea	-0.22353712
14	0x3df4aef3	0.119474314
15	0xbe4468ba	-0.19180575
16	0xbde09c87	-0.10967355
17	0x3e31a86b	0.17349403
18	0xbd0c8932	-0.034310527
19	0x3c0d4a82	0.008623721
20	0x3dfc3bc3	0.12316086
21	0xbddda3fd	-0.10822294
22	0x3e0f38f9	0.13986577
23	0x3b949a3e	0.0045349887
24	0xbefad457	-0.48990127
25	0x3ed77e00	0.42088318
26	0xbde9e3fc	-0.11420438
27	0xbd1d56a9	-0.038412724
28	0x3ec0cab5	0.37654653
29	0xbde58c1e	-0.11208366
30	0xbdec112c	-0.11526713
31	0x3e036f36	0.12835392
32	0xbbded62a	-0.0068004327
33	0x37ada00e	2.0697738e-05
34	0xb3b34425	-8.3477325e-08
35	0xb8bd96f0	-9.0403366e-05
36	0x3c9fd151	0.01950899
37	0x371f7685	9.5047335e-06
38	0xb6d6466b	-6.3858947e-06
39	0xb88841a8	-6.497215e-05
40	0x3c760910	0.015016809
41	0x37dd1cd3	2.6358675e-05
42	0x3a68675c	0.00088654994
43	0xb99bdf22	-0.0002973015
44	0x3c8118bb	0.015758863
45	0xb7e744d3	-2.7569395e-05
46	0x3d57bc87	0.052670028
47	0xbb1ec424	-0.0024225796
48	0x3c9171b6	0.017754417
49	0xb6d722e8	-6.411563e-06
50	0x24876e2a	5.873354e-17
51	0xb94e3b0b	-0.00019667686
52	0xa62031ef	-5.5578824e-16
53	0xbb4f2cef	-0.0031612476
54	0xbc4d4956	-0.012529692
55	0x3a8e57a5	0.001085986
56	0x2e0fd696	3.2705026e-11
57	0x2d4aab46	1.1520401e-11
58	0xbb6a89ba	-0.0035787658
59	0xbb01fe3d	-0.0019835376
60	0xb272b44e	-1.41272505e-08
61	0xb845ff35	-4.720614e-05
62	0xb88e7a2c	-6.793844e-05
63	0x252826c9	1.4584818e-16
64	0xbcb8e87a	-0.022571791
65	0x3ea3901b	0.3194588
66	0x3e9fd596	0.3121764
67	0xbd3b68f7	-0.0457544
68	0xbdf0b8c8	-0.11753994
69	0x3e73bbcc	0.23802108
70	0xbd718a1b	-0.0589696
71	0x3e151b19	0.14561118
72	0x3ea0a239	0.31373766
73	0xbd61cc40	-0.05512643
74	0xbb4fb2d1	-0.0031692276
75	0x3da9f6b7	0.0829901
76	0x3e8bee4c	0.27330244
77	0x3ed9b97c	0.42524326
78	0x3d9e08e6	0.07716541
79	0x3d5d4e11	0.054029528
80	0x3d32e221	0.043672685
81	0xbcb021fd	-0.021500582
82	0x3ea162fc	0.31520832
83	0x3e451497	0.19246136
84	0x3dba4da6	0.090968415
85	0x3e558f1a	0.2085537
86	0xbd020626	-0.031744145
87	0x3dd2d214	0.102939755
88	0x3f20e7c8	0.6285367
89	0xbf1aa71d	-0.60411245
90	0x3e64dc1d	0.22349592
91	0x3e834174	0.25635874
92	0xbedb0fb6	-0.42785424
93	0x3eb00daa	0.34385425
94	0x3da4e654	0.08051744
95	0x3e9c726e	0.30556053
96	0xbe03d1d3	-0.1287301
97	0x3e90bd78	0.28269553
98	0x3edd3fca	0.4321273
99	0x3df1485b	0.11781379
100	0xbed09fd5	-0.40746942
101	0x3e9d72d4	0.3075167
102	0x3dc3b172	0.095553294
103	0x3d6e3896	0.058159433
104	0x3e43b638	0.1911248
105	0x3b670dc0	0.0035255998
106	0xbc4ebf3a	-0.012618834
107	0x3dc225fc	0.09479901
108	0x3d853f26	0.06506185
109	0x3f262238	0.64895964
110	0x3edf41bf	0.43604848
111	0x3e4bf256	0.19916663
112	0x3e881ba7	0.26583597
113	0xbf12e2a2	-0.57377064
114	0x3f00f66f	0.5037603
115	0x3eefdca3	0.4684802
116	0xbd26114c	-0.04054384
117	0x3de20dce	0.11037789
118	0x3d5a2d84	0.053266063
119	0xbae23978	-0.0017259559
120	0x3f1288c5	0.57239944
121	0xbeedb516	-0.4642722
122	0x3d9e69cf	0.07735025
123	0x3ead16da	0.33806497
124	0xbf02efdc	-0.51147246
125	0x3f2255a1	0.6341191
126	0x3ed0b74f	0.40764853
127	0x3eb17f1e	0.34667295
128	0xbd971b64	-0.07378271
129	0x3dad1436	0.084511206
130	0x3df149e8	0.117816746
131	0x3d925b38	0.07146305
132	0x3c84f8b2	0.016231868
133	0x3e4a0e2e	0.19731972
134	0x3a9d0105	0.0011978453
135	0x3dcb09d4	0.09913984
136	0x3e113b63	0.1418281
137	0xbd9dd187	-0.0770598
138	0x3d843f6c	0.06457409
139	0x3e0a3452	0.13496521
140	0x3d1776e4	0.036978617
141	0x3e9fc904	0.3120805
142	0xbb3fdb01	-0.0029274824
143	0x3e4b15ac	0.19832486
144	0xbd83185b	-0.0640113
145	0xbe2af52b	-0.16695087
146	0x3e05ff7b	0.1308574
147	0x3d22b2e7	0.039721396
148	0x3da2419b	0.079226695
149	0xbde6bb8c	-0.112662405
150	0x3bc72601	0.0060775285
151	0x3e114e50	0.1419003
152	0x3ed1786e	0.40912193
153	0xbed19ffb	-0.40942368
154	0xbd5a32f5	-0.053271253
155	0x3e058d0d	0.13042088
156	0xbef0c5e6	-0.47025985
157	0x3e68cd6e	0.22734615
158	0x3e2f277a	0.17104903
159	0xbccf8f1e	-0.025336798
160	0x3e05271b	0.13003199
161	0x3e0b5d2a	0.13609758
162	0x3e02e3a7	0.12782155
163	0xbe31c07b	-0.17358582
164	0x3d7fb257	0.062425938
165	0x3cd1df9f	0.025619326
166	0x3de5463a	0.11195035
167	0xbda21129	-0.07913429
168	0x3dd340b4	0.103150755
169	0x3e0a4c55	0.13505681
170	0x3dc0d44a	0.09415491
171	0xbdb0d1b2	-0.08633746
172	0x3d1c003f	0.038086172
173	0xbba5feb4	-0.0050657634
174	0x3b866d96	0.004102419
175	0x3dcd6c13	0.10030379
176	0x3d36352c	0.044484302
177	0x3e1c1883	0.15243725
178	0xbdf3e3be	-0.11908673
179	0xbda96ac8	-0.0827232
180	0x3d372b8a	0.044719256
181	0xbe0cc169	-0.13745655
182	0x3dac0719	0.08399791
183	0xbdd076d9	-0.101789184
184	0x3baa8510	0.0052038506
185	0xbde58107	-0.11206251
186	0x3e00799d	0.12546392
187	0xbe32983b	-0.17440884
188	0x3c3f9346	0.011692828
189	0x3de84c16	0.11342637
190	0xbdd74da8	-0.10512859
191	0x3e0aed11	0.13566996
192	0x3da713db	0.08158084
193	0xbb3465f9	-0.00275266
194	0x3d5e48c2	0.054268606
195	0xbbf964d8	-0.0076108985
196	0xbcb87f1d	-0.02252155
197	0xbb134480	-0.002247125
198	0x3a2bb4cb	0.00065500726
199	0x3d524316	0.05133351
200	0xbd2c3551	-0.042043034
201	0x3c268e35	0.010165741
202	0x3c5c03fa	0.013428682
203	0xbb157bec	-0.002280946
204	0xbbe10765	-0.0068673366
205	0xbc7801c3	-0.015137139
206	0xbcfdb04b	-0.030967852
207	0xbb473df4	-0.0030401917
208	0x3cd487bd	0.025943631
209	0x3c195688	0.00935901
210	0x3b1e257e	0.0024131234
211	0xbd215011	-0.039382998
212	0x3d37026a	0.044680037
213	0x3dc10ac2	0.0942588
214	0xbd0adff5	-0.03390499
215	0x3cca0fc5	0.024665723
216	0x36e22437	6.739541e-06
217	0xb5f892f1	-1.8520205e-06
218	0xbd6f8733	-0.058478545
219	0x3d1003b1	0.03515977
220	0xb69bd716	-4.6443993e-06
221	0xb79bc928	-1.857111e-05
222	0xbcf594e1	-0.029978218
223	0xaf85a876	-2.4312258e-10
224	0x3db7a2f7	0.0896663
225	0x3e7ccd71	0.24687745
226	0x3e9854b5	0.29752126
227	0xbc28f8f4	-0.010313261
228	0x3d5c8e90	0.053846896
229	0x3e29914c	0.16559333
230	0xbd91aaa9	-0.07112629
231	0x3cfe8175	0.03106759
232	0xbb0220ab	-0.0019855897
233	0x3d9efdcd	0.077632524
234	0x3ce71ad4	0.028211035
235	0x3d9e3313	0.077245854
236	0x3e287e05	0.16454323
237	0x3e881577	0.26578876
238	0xbd8ef925	-0.06981114
239	0x3e0f9b9b	0.14024203
240	0x3e61ecd0	0.22062993
241	0xbe8bdd68	-0.27317357
242	0x3ecaecd7	0.3963382
243	0x3e95bb2f	0.29244372
244	0xbd126c97	-0.03574809
245	0x3ded6ba4	0.115927964
246	0x3d99dd43	0.075129054
247	0xbd025934	-0.031823352
248	0x3f00557d	0.50130445
249	0xbeb50eab	-0.35362753
250	0x3e449cef	0.1920049
251	0x3dc5714a	0.09640749
252	0xbf17fda1	-0.5937138
253	0x3f051aee	0.51994216
254	0x3d19711c	0.037461385
255	0x3d80c700	0.06287956

lin.0.bias f4 [16]
0	0x3d3f4818	0.046699613
1	0xbd7f3a2a	-0.06231133
2	0x3c0c70ed	0.0085718455
3	0x3cb621ab	0.022232851
4	0x3e2eccb3	0.17070274
5	0xbdb17727	-0.08665305
6	0xbdeaa948	-0.11458069
7	0x3d0777c5	0.033073206
8	0x3e2ba456	0.16761908
9	0x3e32f9d6	0.17478117
10	0x3df24996	0.11830442
11	0x3d3e118c	0.046403453
12	0x3dfa1644	0.12211278
13	0xb411b328	-1.3569354e-07
14	0xbdbfff04	-0.09374812
15	0xbdd2c255	-0.10290972

lin.2.weight f4 [1, 16]
0	0x3e80c109	0.25147274
1	0x3bde10b6	0.0067768944
2	0xbf058a2f	-0.52163976
3	0xbf3c964f	-0.7366685
4	0xbe30a98c	-0.17252177
5	0x3e5dcf2e	0.21661064
6	0xbdb85610	-0.0900079
7	0xbe8f5c1d	-0.27999964
8	0x3f161483	0.5862505
9	0x3f003c9c	0.5009248
10	0x3eaecbe3	0.34139928
11	0xbeec7d2f	-0.46189258
12	0x3e13237f	0.1436901
13	0xb75638c5	-1.2768612e-05
14	0x3d6adca6	0.057339333
15	0xbdf01044	-0.117218524
